saved_models/GAT_model_1.pth (torch, 585570 bytes, 22 tensors)

cnn.conv1.weight f4 [64, 3, 3, 3]
0	0x3e1160b0	0.1419704
1	0xbe6dbb6c	-0.23216027
2	0x3e3a8a38	0.18216789
3	0x3e01ef49	0.12688936
4	0xbed5dbab	-0.41769156
5	0x3e335265	0.175119
6	0x3d0d5d6e	0.03451293
7	0xbe5cc5e8	-0.2155987
8	0x3e33743a	0.17524806
9	0x3dc1a314	0.09454933
10	0xbeb1326f	-0.3460879
11	0x3bf04b6f	0.007333211
12	0x3e806007	0.25073263
13	0xbe836581	-0.2566338
14	0x3e536276	0.20643029
15	0x3e1fd276	0.15607628
16	0xbe810d7f	-0.2520561
17	0x3e1030ee	0.14081165
18	0x3d5a9c18	0.05337152
19	0xbe45a6b9	-0.19301881
20	0x3dd58f59	0.10427732
21	0x3e4780f9	0.19482793
22	0xbe8218f9	-0.25409678
23	0x3e0bab54	0.13639575
24	0x3dafb4bb	0.085793935
25	0xbe6ae2ca	-0.22938076
26	0x3d37e804	0.044899
27	0xbe8749f1	-0.264236
28	0x3e9a8f19	0.301873
29	0xbdd17707	-0.10227781
30	0xbe399397	-0.18122707
31	0x3e90e16c	0.28296983
32	0xbd1acc16	-0.037792288
33	0xbe352a51	-0.17691924
34	0x3e828229	0.2548993
35	0xbdcd955f	-0.10038256
36	0xbe9b1a73	-0.30293617
37	0x3e5c0b97	0.21488796
38	0xbdcead0f	-0.10091602
39	0xbe6a71ef	-0.22895025
40	0x3e857336	0.2606446
41	0xbb3c8fda	-0.0028772266
42	0xbddc0d05	-0.10744671
43	0x3e727e6b	0.23681037
44	0xbc2e34c3	-0.010632697
45	0xbe107cd7	-0.14110123
46	0x3dfdd96f	0.12394988
47	0x3d8fc7ce	0.070205316
48	0xbe08346f	-0.13301252
49	0x3e1417d5	0.14462216
50	0xbdb74aaa	-0.08949788
51	0xbe1cf684	-0.15328413
52	0x3e81d355	0.25356546
53	0xbe249533	-0.1607254
54	0xbd43111e	-0.047623746
55	0xbd25ed7d	-0.04050969
56	0xbdf573f8	-0.1198501
57	0x3e8ce915	0.27521577
58	0x3dd0a6f1	0.101880915
59	0xbe377e74	-0.17919332
60	0x3dcbfb4a	0.09960039
61	0xbc8e01e3	-0.017334884
62	0xbdb85700	-0.09000969
63	0x3e803f0f	0.2504811
64	0xbc8dc2b9	-0.017304765
65	0xbe0ff2c4	-0.14057451
66	0x3d83bd7b	0.06432625
67	0xbdbc2367	-0.0918644
68	0x3db7f63e	0.08982514
69	0x3d0a20fd	0.033722866
70	0x3b5c8c75	0.0033653055
71	0xbd29f305	-0.041491527
72	0xbe961cf4	-0.29318964
73	0x3e0695e8	0.13143122
74	0x3ef5b5c6	0.47990245
75	0xbee86723	-0.45391187
76	0xbe4c7020	-0.19964647
77	0x3ed3b969	0.41352394
78	0xbe635bec	-0.22203034
79	0xbe61667d	-0.22011752
80	0x3e88c3fc	0.26712024
81	0xbdd3bd2d	-0.10338817
82	0xbd4db084	-0.050217167
83	0xbd9ce1e3	-0.07660272
84	0x3da62a8a	0.081135824
85	0x3df53400	0.11972809
86	0x3e583ea6	0.21117648
87	0xbe4cad0a	-0.19987884
88	0xbeae64fc	-0.3406142
89	0xbe59d532	-0.21272734
90	0x3dccf629	0.10007889
91	0xbe515f85	-0.20446594
92	0x3dc5ce98	0.09658545
93	0x3ea3a49c	0.31961524
94	0xbd9f13c3	-0.07767441
95	0x3ead1798	0.33807063
96	0xbd82614a	-0.06366213
97	0xbe637d5c	-0.2221579
98	0x3d7a64bb	0.06113122
99	0xbe3e3dba	-0.18578234
100	0xbe8c1132	-0.2735687
101	0x3dc62014	0.09674087
102	0x3e8944ac	0.26810205
103	0xbc6fd880	-0.01463902
104	0x3ede4697	0.4341323
105	0xbe0cf52f	-0.13765405
106	0x3d7e2388	0.062045604
107	0xbd9426bd	-0.07233951
108	0xbe02e917	-0.12784229
109	0xbd544dbb	-0.051831942
110	0xbcd9deb8	-0.026595458
111	0xbe0e83c5	-0.13917454
112	0x3c129687	0.008947021
113	0xbda25039	-0.079254575
114	0xbe83166c	-0.25603044
115	0xbe16ef0f	-0.14739631
116	0xbe005aa8	-0.12534583
117	0x3e90617f	0.28199384
118	0xbd3fb869	-0.046806727
119	0xbc45bf2b	-0.012069504
120	0x3e9628bc	0.29327953
121	0x3eb062af	0.3445029
122	0x3d25361b	0.040334802
123	0x3ed3e9a2	0.41389185
124	0x3e6b9929	0.23007645
125	0x3db4ed5b	0.088343345
126	0x3e1ed5d1	0.15511252
127	0x3c7795e6	0.015111422
128	0x3e357f1f	0.17724274
129	0xbed0b2ea	-0.407615
130	0xbe8a4096	-0.270024
131	0xbbf2e9cb	-0.007413124
132	0xbe8c075b	-0.27349362
133	0xbe1aa263	-0.15101008
134	0x3d9cf8da	0.07664652
135	0x3d829a21	0.06377054
136	0x3e0cd719	0.13753928
137	0x3daf32ed	0.08554635
138	0x3e0d857a	0.13820449
139	0x3d4a5284	0.0493951
140	0x3c2aae39	0.0104175145
141	0xbd1de7a9	-0.038551006
142	0x3dbd209f	0.092347376
143	0xbd6f3082	-0.05839587
144	0xbd31c905	-0.043404598
145	0xbeafc426	-0.34329337
146	0xbdc31908	-0.09526259
147	0xbe0a1a42	-0.13486579
148	0xbe5a6cf1	-0.2133062
149	0xbca4a7fc	-0.020099632
150	0xbeebb7cd	-0.46038666
151	0xbf60fa82	-0.87882245
152	0xbee87379	-0.454006
153	0x3d93dcaa	0.07219823
154	0x3e08b79f	0.13351296
155	0x3d7412c0	0.059588194
156	0x3e6dc390	0.23219132
157	0x3e3ce4a2	0.18446591
158	0x3eb16be7	0.34652635
159	0xbd17adce	-0.037030987
160	0xbe2c5ff1	-0.16833474
161	0xbe33bffa	-0.17553702
162	0xbd6a3eb7	-0.057188716
163	0xbe2b49bb	-0.16727345
164	0xbf0c1ba7	-0.54729694
165	0x3c4e4d2a	0.0125916395
166	0x3e442e57	0.19158302
167	0xbe7a5da6	-0.24449787
168	0x3e24813b	0.16064923
169	0x3e8f26b4	0.27959216
170	0xbdbc6c37	-0.09200328
171	0x3cfa4914	0.030552424
172	0xbe0017d6	-0.12509093
173	0xbe4fe028	-0.20300353
174	0x3eaa8da1	0.3331118
175	0x3e8c3518	0.27384257
176	0x3c3725fb	0.011178489
177	0x3e2505ef	0.16115545
178	0x3dba57f4	0.09098807
179	0x3e28225c	0.16419357
180	0xbca3576e	-0.01993915
181	0x3dd40891	0.103531964
182	0x3e970670	0.294971
183	0xbda5cc53	-0.080956124
184	0xbd54f985	-0.051995773
185	0x3d8d329a	0.06894417
186	0xbedca395	-0.43093553
187	0xbd0777c3	-0.033073198
188	0xbe30a1a1	-0.17249157
189	0x3e7fc6c5	0.24978168
190	0x3e6c316f	0.23065732
191	0x3e77eb6d	0.24210902
192	0xbd67ebd7	-0.0566214
193	0xbe52460c	-0.20534533
194	0xbda4788b	-0.08030804
195	0xbd81dfad	-0.06341491
196	0xbe58a8ab	-0.21158092
197	0xbd84c03e	-0.0648198
198	0x3e97a739	0.29619768
199	0x3df45968	0.119311154
200	0x3e5da93d	0.2164659
201	0x3c43da0e	0.011953844
202	0xbe5fd8dd	-0.2186007
203	0xbd5dad07	-0.05412009
204	0xbc8c0a27	-0.017094685
205	0xbdc09721	-0.094038256
206	0xbb151a47	-0.0022751258
207	0x3e8b2aed	0.27181187
208	0x3df3a6e6	0.11897068
209	0x3edaa0a2	0.42700678
210	0xbe457839	-0.19284143
211	0xbe9cdf16	-0.3063895
212	0xbe43d616	-0.19124636
213	0xbcf6aaff	-0.030110834
214	0xbe51a370	-0.20472503
215	0xbe3e0bc5	-0.18559177
216	0xbf1ac62f	-0.60458654
217	0xbe34fd34	-0.17674714
218	0x3d07b62f	0.03313273
219	0xbd4af17d	-0.049546707
220	0xbd75722c	-0.059923336
221	0x3d43b51c	0.04778014
222	0xbf09517f	-0.5363998
223	0xbe929e8a	-0.2863658
224	0x3eb2c618	0.3491676
225	0xbd56063f	-0.05225205
226	0x3d97c440	0.074104786
227	0x3d170737	0.036872115
228	0x3e63ea72	0.22257403
229	0x3ea2a326	0.31765097
230	0x3d7cda80	0.061731815
231	0x3dc75633	0.09733238
232	0xbdbf8e7b	-0.09353348
233	0x3bce46c1	0.0062950556
234	0x3c026e1b	0.0079608215
235	0xbdfcc148	-0.12341553
236	0xbe40d629	-0.18831696
237	0xbd47705c	-0.04869114
238	0x3d5963a0	0.053073525
239	0x3e93e49e	0.2888536
240	0xbe2e6f51	-0.17034651
241	0xbda276a6	-0.07932787
242	0x3de96ca5	0.113976754
243	0xbdd74009	-0.105102606
244	0xbeb53382	-0.3539086
245	0xbebf1ca1	-0.3732653
246	0xbe844812	-0.25836235
247	0xbe8fdf52	-0.28100067
248	0xbb239382	-0.0024959748
249	0x3e635852	0.2220166
250	0x3d90f662	0.07078244
251	0x3e07ce8d	0.13262387
252	0x3e9c792f	0.30561206
253	0x3ecfde28	0.4059918
254	0x3ea61c20	0.32443333
255	0x3e91616b	0.28394637

cnn.conv1.bias f4 [64]
0	0xbe624897	-0.22098003
1	0x3b9ba574	0.004749948
2	0xbb81014d	-0.0039369226
3	0x3e481d23	0.19542365
4	0xbd4292be	-0.047503226
5	0x3db31987	0.08745103
6	0xbd9e5d88	-0.077326834
7	0xbd835e79	-0.064145036
8	0xbcb4323e	-0.021996614
9	0x3c9c16d7	0.01905386
10	0x3ddd27a3	0.10798576
11	0xbe469fc9	-0.1939689
12	0xbd9bc2f1	-0.076055415
13	0x3e08fab1	0.13376881
14	0x3d098395	0.033572752
15	0xbe02e49a	-0.12782517
16	0xbe4d386a	-0.20041052
17	0x3e1f0f48	0.15533173
18	0x3e492483	0.19642834
19	0xbe11d42e	-0.14241096
20	0xbdb3a547	-0.087717585
21	0xbd21e6bc	-0.039526686
22	0x3d2dc760	0.042426467
23	0x3e1cf204	0.15326697
24	0x3ea212b3	0.3165489
25	0xbe8994ee	-0.26871437
26	0xbdbcba01	-0.09215165
27	0x3d926bbc	0.07149455
28	0x3d6182bc	0.05505632
29	0x3eb73896	0.3578536
30	0x3c9705ba	0.018435348
31	0xbd22c570	-0.039739072
32	0xbdda34c5	-0.10654596
33	0x3e47fb3d	0.19529434
34	0xbe33b323	-0.17548804
35	0xbc8977f3	-0.016780829
36	0xbd77c76f	-0.06049293
37	0xbd7380a0	-0.05944884
38	0xbea3efdb	-0.32018933
39	0x3ccae63f	0.024767993
40	0xbc447f7e	-0.011993287
41	0x3dfbad63	0.1228893
42	0x3c08beca	0.008346269
43	0xbe02002b	-0.12695377
44	0xbee165d0	-0.4402299
45	0xbe01d593	-0.12679128
46	0x3d8ef778	0.06980795
47	0xbde257f8	-0.11051935
48	0x3cbbe1ad	0.022934759
49	0xbd3fcf9e	-0.04682886
50	0x3df00636	0.11719935
51	0xbdfbe6f8	-0.12299913
52	0xbd5b4137	-0.05352899
53	0xbce064c3	-0.027391797
54	0xbde27fda	-0.11059542
55	0x3e2503f1	0.16114785
56	0x3c010d5d	0.007876721
57	0xbe40b3ae	-0.18818542
58	0x3ca02e57	0.019553347
59	0xbd9658ed	-0.0734118
60	0xbda865c0	-0.08222532
61	0xbcf6dd47	-0.03013481
62	0x3e8dc6c2	0.27690703
63	0x3d5385cf	0.05164128

cnn.bn1.weight f4 [64]
0	0x3fc2e68c	1.5226607
1	0x3f57fa95	0.8436673
2	0x3f8b5f57	1.088847
3	0x3f049eb1	0.51804644
4	0x3f62f647	0.8865704
5	0x3f4beea8	0.79661036
6	0x3f7d98f1	0.99061495
7	0x3f68d8c4	0.9095576
8	0x3f43dc1f	0.76507753
9	0x3f246bd2	0.6422702
10	0x3f30ca04	0.6905825
11	0x3f4594d6	0.7718023
12	0x3f80c5f3	1.0060409
13	0x3f87b574	1.060225
14	0x3f3d53f9	0.7395626
15	0x3f928b0d	1.1448685
16	0x3f01c07f	0.5068435
17	0x3f7ab4b5	0.9793199
18	0x3f7d0a5c	0.9884393
19	0x3f360217	0.7109694
20	0x3f90ac91	1.1302663
21	0x3f401337	0.7502932
22	0x3f1dfa13	0.6170971
23	0x3f183750	0.594594
24	0x3f92c2c0	1.1465683
25	0x3f7ebfdf	0.9951152
26	0x3f6fdb3a	0.9369389
27	0x3f332b35	0.69987804
28	0x3f9a17cb	1.2038511
29	0x3f423989	0.7586904
30	0x3f40cd7f	0.7531356
31	0x3fa30f60	1.2739067
32	0x3efc7354	0.49306738
33	0x3f7e63af	0.99370855
34	0x3f46bca9	0.7763162
35	0x3f592ad1	0.8483096
36	0x3f526f19	0.8220077
37	0x3f7be6c7	0.98399013
38	0x3f8d35dd	1.1032063
39	0x3f3ab168	0.7292695
40	0x3f593d67	0.8485932
41	0x3f656952	0.8961383
42	0x3f9c34d1	1.2203618
43	0x3f968669	1.1759769
44	0x3f9676a3	1.1754955
45	0x3f0e9c5d	0.5570734
46	0x3f29eab6	0.66373765
47	0x3f5e1a0a	0.8675848
48	0x3f372075	0.715339
49	0x3f8d9731	1.1061765
50	0x3f86abdc	1.0521197
51	0x3f866411	1.0499288
52	0x3f30cff6	0.69067323
53	0x3f2df46b	0.6795108
54	0x3f2fd3d6	0.6868261
55	0x3f6e6b1d	0.9313219
56	0x3f5b58f0	0.8568258
57	0x3f1f1072	0.6213447
58	0x3f67661d	0.9039019
59	0x3f80f604	1.0075078
60	0x3f29b707	0.662949
61	0x3f157e7e	0.58396137
62	0x3f783190	0.96950626
63	0x3f98ac4a	1.1927578

cnn.bn1.bias f4 [64]
0	0xbe278694	-0.16359931
1	0x3d487cc5	0.048947114
2	0xbef9f498	-0.48819423
3	0xbf1d6242	-0.61478055
4	0xbd1faf50	-0.03898555
5	0xbf254f9e	-0.6457461
6	0xbf00983a	-0.5023228
7	0x3c464853	0.012102204
8	0xbf0c1ff2	-0.54736245
9	0xbf0b8083	-0.5449297
10	0xbe1a0e77	-0.1504458
11	0xbf2f8c9a	-0.68573916
12	0x3f608b6e	0.8771275
13	0xbea850cc	-0.32874143
14	0xbe68d43f	-0.22737215
15	0xbe51e575	-0.20497687
16	0x3ea71b9c	0.32638252
17	0xbeb36e11	-0.35044912
18	0xbf1be363	-0.6089384
19	0xbbd90700	-0.006623149
20	0xbe07dbad	-0.13267393
21	0xbeb9ec1f	-0.3631296
22	0x3de4562b	0.11149248
23	0xbf1bb25b	-0.60819024
24	0xbedac81e	-0.42730802
25	0xbf4d6004	-0.80224633
26	0xbefdd212	-0.49574333
27	0xbeff3f3d	-0.49852934
28	0xbe06f110	-0.13177896
29	0xbf210bb9	-0.6290851
30	0xbf3b92be	-0.73270786
31	0xbe47934d	-0.19489785
32	0xbe1f7879	-0.155733
33	0xbd28183a	-0.04103873
34	0xbe08ea91	-0.1337073
35	0xbd96de26	-0.0736659
36	0x3f171819	0.59021145
37	0xbea4cc8e	-0.32187313
38	0xbe56b018	-0.20965612
39	0xbedf9581	-0.4366875
40	0x3f398e56	0.7248281
41	0xbeb3975b	-0.35076413
42	0x3dd223e8	0.10260755
43	0xbe9f3d74	-0.31101573
44	0xbf09a0c3	-0.5376093
45	0x3eb72290	0.35768557
46	0xbf3605b4	-0.7110245
47	0x3e8d7444	0.27627766
48	0xbf3c4827	-0.73547596
49	0xbef33046	-0.47497767
50	0x3e96b5a0	0.29435444
51	0xbedba9d0	-0.42902994
52	0xbf4291b9	-0.76003605
53	0xbd9a2c10	-0.075279355
54	0xbde8adf6	-0.113613054
55	0xbf319e6a	-0.69382346
56	0xbf6ef740	-0.93346024
57	0xbefb35b3	-0.49064407
58	0xbf3d1a62	-0.7386838
59	0x3c52079f	0.0128192
60	0xbefa21bd	-0.48853865
61	0xbed8d971	-0.42353395
62	0xbf01ebe9	-0.50750595
63	0xbe383aa7	-0.17991124

cnn.bn1.running_mean f4 [64]
0	0xbe5bea2d	-0.2147605
1	0x3c6b8e4d	0.014377189
2	0x3b1bbc67	0.002376342
3	0x3e2dc3d7	0.16969238
4	0xbc46848a	-0.012116561
5	0x3dc74353	0.09729638
6	0xbd800e20	-0.06252694
7	0xbd1e8944	-0.038705125
8	0xbc932071	-0.017959805
9	0x3bbbc5fb	0.005730388
10	0x3e141e0b	0.14464585
11	0xbe5556ff	-0.20833968
12	0xbdb71636	-0.08939783
13	0x3e10a2a2	0.1412454
14	0x3d257046	0.040390275
15	0xbdd16869	-0.10224993
16	0xbe4a8bb2	-0.19779852
17	0x3e257c92	0.16160801
18	0x3e4efdf1	0.20214058
19	0xbe728059	-0.23681773
20	0xbdbcc2b9	-0.09216828
21	0x3e85f1f6	0.26161164
22	0xbe1782b4	-0.14795953
23	0x3e342f11	0.1759608
24	0x3ea1ea3e	0.31624025
25	0xbe86808d	-0.2626995
26	0xbdc303d4	-0.095222145
27	0x3df7aab6	0.120931074
28	0x3d63bfad	0.05560272
29	0x3ed8b42f	0.4232497
30	0xbbb9cb48	-0.005669985
31	0xbd2ab088	-0.04167226
32	0xbe702c3a	-0.23454371
33	0x3e4207fb	0.18948357
34	0xbe34022a	-0.1757895
35	0xbca91860	-0.020641506
36	0xbd0d489b	-0.03449307
37	0xbd867bee	-0.065666065
38	0xbea367a7	-0.31915018
39	0x3c544bb0	0.012957498
40	0xbc0caf97	-0.008586786
41	0x3dd315b2	0.103068724
42	0x39ff7b58	0.00048729288
43	0xbe0bf9b7	-0.13669477
44	0xbee36f41	-0.44420817
45	0xbe59f487	-0.21284686
46	0x3e3c4f6c	0.18389672
47	0xbde5df54	-0.11224237
48	0x3dd7a80c	0.10530099
49	0xbd51313f	-0.051072355
50	0x3df96634	0.12177697
51	0xbdfe5943	-0.12419369
52	0xbdb5f788	-0.088851035
53	0xbd1b794b	-0.03795747
54	0xbddcee99	-0.107876964
55	0x3e0435a2	0.12911084
56	0x3d3132e3	0.04326142
57	0xbe9e45a2	-0.309125
58	0x3deb3886	0.1148539
59	0xbda2bfe8	-0.079467595
60	0xbed6f532	-0.41983944
61	0xbe432d76	-0.1906031
62	0x3e90dc5a	0.28293115
63	0x3d7a1a9d	0.061060537

cnn.bn1.running_var f4 [64]
0	0x3da2337d	0.07919977
1	0x3daa8ac9	0.083272524
2	0x3d20aa12	0.03922469
3	0x3da66672	0.08125009
4	0x3d3c2066	0.045929335
5	0x3f18469f	0.5948276
6	0x3d78ef31	0.060774986
7	0x3e7b2340	0.24525166
8	0x3e54e2ea	0.20789686
9	0x3dd263b1	0.10272921
10	0x3d1f70a7	0.038925793
11	0x3d209fad	0.03921478
12	0x3e47e706	0.19521722
13	0x3d91bc6c	0.07116017
14	0x3cfa3c1e	0.030546244
15	0x3d8fc325	0.07019643
16	0x3d03e463	0.03220023
17	0x3e1df1fc	0.15424341
18	0x3e68ebfb	0.2274627
19	0x3dc1ed08	0.09469038
20	0x3e20a5fc	0.15688318
21	0x3f800545	1.0001608
22	0x3eabcb07	0.33553335
23	0x3f8a4f3e	1.0805433
24	0x3d03af56	0.032149635
25	0x3c5bea75	0.013422598
26	0x3e077c5b	0.13231032
27	0x3fc917f1	1.5710431
28	0x3d9192f3	0.071081065
29	0x3e8a5cb7	0.2702386
30	0x3dd0f6c9	0.102033205
31	0x3d6e83d1	0.05823118
32	0x3e83d4a8	0.2574818
33	0x3e04161d	0.1289906
34	0x3d917e54	0.07104173
35	0x3d3f84f6	0.04675766
36	0x3e0afdee	0.13573429
37	0x3d3e186d	0.046410013
38	0x3e2205cb	0.15822522
39	0x3d99d79d	0.07511828
40	0x3d342369	0.043979082
41	0x3d22eb71	0.039775316
42	0x3c865bd6	0.016401213
43	0x3d909544	0.0705972
44	0x3c4c761a	0.0124793295
45	0x3e36e6aa	0.17861429
46	0x3f6fa5b9	0.9361225
47	0x3c97e3c9	0.018541234
48	0x3fa0451b	1.2521089
49	0x3ccc9539	0.024973499
50	0x3ddd9bc6	0.10820727
51	0x3cb6d743	0.022319442
52	0x3decfa0a	0.11571129
53	0x3dfef961	0.12449909
54	0x3c6587ac	0.0140093975
55	0x3e17f124	0.14838082
56	0x3db8150b	0.08988389
57	0x3e0cc4eb	0.13746993
58	0x3ecbe621	0.39824012
59	0x3d092b12	0.03348834
60	0x400fb5b9	2.2454665
61	0x3eb923a1	0.36159995
62	0x3e26efcb	0.16302411
63	0x3e38dba7	0.1805254

cnn.conv2.weight f4 [128, 64, 3, 3]
0	0x3e8fe86b	0.28107008
1	0xbc312696	-0.010812422
2	0xbaa29458	-0.0012403829
3	0x3e9a2721	0.30107978
4	0x3e2b8c0f	0.16752647
5	0x3e56c271	0.20972611
6	0x3e5147d9	0.20437564
7	0x3ddd4771	0.10804642
8	0xbd93c8b1	-0.07216013
9	0x3d8afd4c	0.06786594
10	0xbce5acd3	-0.02803651
11	0xbe5eb821	-0.21749927
12	0x3d7c019f	0.061524983
13	0x3d2d3d84	0.042294994
14	0xbdac0910	-0.08400166
15	0x3d9a2539	0.07526631
16	0xbd80ff53	-0.06298699
17	0xbde50605	-0.11182789
18	0x3e8d6f4f	0.27623984
19	0x3e8e07a4	0.27740204
20	0xbca043d2	-0.01956359
21	0x3e66c06d	0.22534342
22	0x3e950a9f	0.29109666
23	0x3e9011dc	0.28138626
24	0x3e93b8ce	0.28851932
25	0x3ed6da24	0.41963303
26	0x3e9b2a78	0.3030584
27	0xbd2a823d	-0.04162811
28	0x3da5198a	0.08061512
29	0x3c22693e	0.009912787
30	0xbe9be4df	-0.30448052
31	0xbe806a9f	-0.25081345
32	0xbe24f4d4	-0.1610902
33	0xbca77ab4	-0.020444252
34	0x3c0abf54	0.008468468
35	0x3d045052	0.032303162
36	0xbe4c99a4	-0.19980484
37	0xbdcb916f	-0.09939849
38	0xbe4bfdf6	-0.19921097
39	0xbda2e9f2	-0.07954778
40	0x3d27ddea	0.040983118
41	0xbd414aad	-0.047190357
42	0x3db1124c	0.08646068
43	0x3e0be839	0.13662805
44	0x3ce717dc	0.02820962
45	0x3cb0f137	0.021599395
46	0xbd0cd237	-0.034380164
47	0x3cc36ffd	0.023857111
48	0x3cbda35e	0.023149189
49	0xbdde88c9	-0.108659334
50	0xbbbb38ce	-0.0057135588
51	0x3d86bdd4	0.065791756
52	0xbd316aa1	-0.04331458
53	0x3d29406c	0.041321203
54	0xbe001ddc	-0.1251139
55	0x3cf66d75	0.03008149
56	0x3d10f24e	0.03538733
57	0xbe5d9b21	-0.21641208
58	0x3cf8cd22	0.030371252
59	0x3e5e48f0	0.21707511
60	0x3d549188	0.051896602
61	0x3da1109e	0.078644976
62	0x3e2f2330	0.17103267
63	0xbf02b736	-0.5106081
64	0xbf0355a5	-0.5130256
65	0xbead1e16	-0.33812016
66	0xbdc0343d	-0.09384964
67	0x3d56d5da	0.05245004
68	0x3d66688a	0.05625204
69	0x3d98bb38	0.07457584
70	0x3dd8df0c	0.10589418
71	0x3def30ff	0.11679267
72	0x3e8ba633	0.27275237
73	0x3e172dac	0.14763516
74	0x3dc481a2	0.09595038
75	0x3d094f30	0.033522785
76	0xbe05ad51	-0.13054396
77	0xbe3d6f62	-0.1849952
78	0xbe146d88	-0.14494908
79	0xbe117506	-0.14204797
80	0xbe4374c8	-0.19087517
81	0xbe1b8bbe	-0.15190026
82	0xbccd0752	-0.025027905
83	0xbcf719d1	-0.030163677
84	0x3e09aabb	0.13444035
85	0x3dd13e36	0.10216944
86	0x3de5a90b	0.11213883
87	0x3ec2ded5	0.38060632
88	0x3e18f983	0.14938931
89	0x3dc966c7	0.09834056
90	0xbe6e9550	-0.23299146
91	0xbe8271fd	-0.2547759
92	0xbe90efe6	-0.28308028
93	0x3d61984f	0.055076893
94	0x3d2e8752	0.04260952
95	0x3e428a3f	0.18998049
96	0x3e1a74a5	0.15083559
97	0x3e35fead	0.17772932
98	0x3e30265f	0.17202137
99	0xbe082b0a	-0.13297668
100	0xbccc611d	-0.024948651
101	0xbe2dc6f1	-0.16970421
102	0x3d205a98	0.039148897
103	0x3db9a545	0.09064726
104	0x3db4ab87	0.08821779
105	0xbe0e3124	-0.13885933
106	0xbe0d5446	-0.13801679
107	0xbd9f84bd	-0.0778899
108	0xbda83451	-0.082131036
109	0xbe05d4b9	-0.13069429
110	0xbd50c461	-0.05096853
111	0xbdd2bebd	-0.10290287
112	0x3dd0653d	0.1017556
113	0x3e81291f	0.25226685
114	0x3d86e86e	0.06587301
115	0x3e47537e	0.19465443
116	0x3e0c555f	0.13704441
117	0x3d340905	0.043953914
118	0x3db2cc63	0.0873039
119	0x3e328b17	0.17435871
120	0x3d363472	0.04448361
121	0x3e18a2b4	0.14905816
122	0x3ecda20d	0.40162697
123	0x3d350159	0.04419074
124	0xbdb09a7f	-0.08623218
125	0xbce348a8	-0.027744606
126	0x3cc2948d	0.023752475
127	0xbda6b1bb	-0.08139368
128	0xbe25f988	-0.1620847
129	0x3e20edfe	0.15715787
130	0x3d04ff86	0.03247025
131	0xbe1888b0	-0.14895892
132	0x3d0c53db	0.03425966
133	0xbe209312	-0.15681103
134	0x3dc4bc04	0.09606174
135	0x3daf26c5	0.085523166
136	0x3ce06707	0.027392877
137	0x3e504824	0.2034002
138	0x3e3d3056	0.1847547
139	0x3e000c12	0.12504604
140	0x3e3c0777	0.18362223
141	0x3e08d6bd	0.13363166
142	0xbdad7eb7	-0.084714346
143	0x3d8ab52d	0.06772838
144	0xbdd8d9c1	-0.10588408
145	0xbcda6279	-0.026658284
146	0x3c9f185e	0.019420799
147	0x3d01c67f	0.03168344
148	0xbd0dcc7a	-0.034618832
149	0xbbe8ab94	-0.007100532
150	0xbc07697a	-0.008264894
151	0xbe2bffb4	-0.16796762
152	0xbe404760	-0.18777227
153	0xbe34388b	-0.17599694
154	0xbdbd108f	-0.09231674
155	0xbe3d6cf8	-0.184986
156	0xbe396b55	-0.1810735
157	0xbd30124d	-0.042986203
158	0x3e2e6117	0.17029224
159	0xbdbda599	-0.09260101
160	0xbca78b95	-0.0204523
161	0x3af95295	0.0019021804
162	0xbeb704d7	-0.3574588
163	0xbf0a7aec	-0.54093814
164	0xbef5165c	-0.4786862
165	0xbe70ac3c	-0.23503202
166	0xbe05da56	-0.1307157
167	0xbc5543a7	-0.013016618
168	0xbee6f42b	-0.4510816
169	0xbe9e8eba	-0.30968267
170	0xbd844f40	-0.06460428
171	0x3e37efa7	0.17962514
172	0x3dbd6371	0.092474826
173	0x3d14a613	0.036291193
174	0x3d22b63d	0.039724577
175	0xbaecff46	-0.0018081449
176	0xbd8ff597	-0.070292644
177	0xbe6ea5da	-0.23305455
178	0xbe66af3b	-0.22527783
179	0xbd9e9c38	-0.0774464
180	0x3d0e572d	0.034751106
181	0xbe3e3ce2	-0.18577912
182	0xbe905ddb	-0.28196606
183	0x3d3f9632	0.046774097
184	0xbdb7ff26	-0.089842126
185	0xbe138cef	-0.1440923
186	0xbd29b011	-0.041427676
187	0x3ceed4db	0.029154232
188	0x3df6cf90	0.12051308
189	0x3e73c360	0.23804998
190	0x3e469e91	0.19396426
191	0x3da37551	0.07981361
192	0x3e349b58	0.17637384
193	0x3dcc5bd5	0.09978453
194	0x3ca079a1	0.019589247
195	0x3e832666	0.25615233
196	0x3e5b955f	0.214437
197	0x3e3db08a	0.18524376
198	0x3db41de7	0.08794766
199	0x3d9b1dc6	0.07574038
200	0x3ce543f0	0.027986497
201	0x3e2c8531	0.16847683
202	0x3e154a75	0.14579184
203	0x3e30bb90	0.1725905
204	0x3deded20	0.11617494
205	0x3d9a33e1	0.07529426
206	0x3d032996	0.03202208
207	0xbe38d935	-0.18051608
208	0xbe45c239	-0.19312371
209	0xbe70bedc	-0.23510307
210	0xbe0b1aa7	-0.13584386
211	0xbd9e700b	-0.07736214
212	0xbd5e36b4	-0.054251388
213	0xbe61b714	-0.22042495
214	0xbe5aaf7b	-0.21356003
215	0xbe7ff897	-0.24997173
216	0xbe9f43a8	-0.31106305
217	0xbe8814be	-0.26578325
218	0xbc0a4ac5	-0.008440678
219	0x3e3e4a6d	0.18583079
220	0x3e41a4b7	0.1891049
221	0x3e52d5ac	0.20589322
222	0x3e96d3f5	0.29458585
223	0x3e6dad6e	0.2321069
224	0x3eb5e48f	0.3552594
225	0xbefd046c	-0.49417436
226	0xbe78c21b	-0.24292795
227	0x3d7388a9	0.0594565
228	0xbddc0a55	-0.10744158
229	0x3d87d275	0.06631938
230	0x3e24da61	0.1609893
231	0x3e1e2ce5	0.15446813
232	0x3dc6edd4	0.09713331
233	0x3e38a846	0.18032941
234	0xbd3c5f22	-0.045989163
235	0xbe44088b	-0.19143884
236	0x3c113248	0.008862086
237	0x3c8929f5	0.01674364
238	0x3e0f4e5d	0.13994737
239	0x3e78353d	0.24239059
240	0x3d750063	0.059814822
241	0x3dfd5c25	0.12371091
242	0x3e25509d	0.16144033
243	0xbd8a9ae8	-0.06767827
244	0xbda773c2	-0.08176376
245	0xbe46711a	-0.19379082
246	0xbe50549c	-0.20344776
247	0xbe23c282	-0.15992168
248	0xbe6691e8	-0.22516596
249	0xbda8898e	-0.082293615
250	0xbdbd66aa	-0.09248097
251	0xbe11f877	-0.14254938
252	0x3d88dc16	0.06682603
253	0x3e308976	0.17239937
254	0x3e079937	0.1324204
255	0xbe0b3530	-0.13594508

cnn.conv2.bias f4 [128]
0	0xbd26396d	-0.04058211
1	0x3ce03791	0.027370246
2	0x3d08fa95	0.0334421
3	0x3d1ae604	0.037817016
4	0xbd67d8b5	-0.056603152
5	0x3d0ba4d5	0.034092743
6	0xbcbf28ee	-0.023334946
7	0xbcc1dac1	-0.02366388
8	0x3bc64ffe	0.0060520163
9	0x3d349a77	0.04409262
10	0xbd2abfaa	-0.04168669
11	0xbbff7439	-0.0077958372
12	0xbc85a84b	-0.0163156
13	0xbc496910	-0.012293115
14	0xbc9079fd	-0.017636294
15	0x3b02ea54	0.0019976096
16	0xbcef481a	-0.029209185
17	0xbc26a239	-0.010170513
18	0xbc7c0124	-0.015381131
19	0x3d402947	0.046914365
20	0xbc978f56	-0.018500965
21	0xbcccb977	-0.02499078
22	0xbc8578d8	-0.016292974
23	0xbbd48481	-0.0064855223
24	0x3c14186b	0.009039025
25	0xbcb950d8	-0.022621557
26	0xbc59ff3e	-0.013305483
27	0xbc2a8201	-0.010406972
28	0x3d440acd	0.047861863
29	0x3d1ff892	0.039055414
30	0x3c948f56	0.018134754
31	0xbd15fc09	-0.036617313
32	0x3d0e9db7	0.034818377
33	0xbc63ac72	-0.013896095
34	0xbcf4b83c	-0.029873006
35	0x3d1a145d	0.037617076
36	0xba99b467	-0.0011726738
37	0xbce089a5	-0.027409384
38	0xbc652d66	-0.013987875
39	0x3c528a71	0.01285039
40	0x3c4dfdd4	0.012572724
41	0x3b07b9c0	0.002071008
42	0x3c37d7e6	0.011220908
43	0x3cb5b56c	0.022181235
44	0xbd0e67c1	-0.034766916
45	0x3d475b4c	0.04867105
46	0xbbd35fff	-0.0064506526
47	0x3cabc499	0.020967769
48	0x3ca70ea8	0.02039273
49	0x3d072442	0.032993563
50	0x3c115489	0.008870252
51	0x3baa15e8	0.0051905997
52	0x3c6daf97	0.014507196
53	0x3c9ec929	0.01938303
54	0x3d2f176d	0.04274695
55	0xbc17c975	-0.00926434
56	0x3aa3b68d	0.0012490317
57	0x3d0b9f74	0.034087613
58	0x3cc5de1a	0.024153758
59	0x3b991b37	0.0046724337
60	0x3c9aafdb	0.018882683
61	0xbcfd17cf	-0.030895142
62	0xbd09ab3e	-0.033610575
63	0xbc3952e1	-0.011311264
64	0xbca545a6	-0.020174813
65	0x3d85ee8a	0.06539638
66	0x3d12d7b4	0.03585024
67	0xbcba1522	-0.022715155
68	0x3d487bb0	0.048946083
69	0x3c889e81	0.016677143
70	0xbcbdc523	-0.023165291
71	0xbc8503f1	-0.016237231
72	0x3d331ae6	0.043726824
73	0xbcee0f65	-0.029060075
74	0x3cca67fc	0.024707787
75	0xbd23778e	-0.039908938
76	0x3c7bdc83	0.015372398
77	0xbd26eaf2	-0.040751405
78	0xbd081fc0	-0.033233404
79	0x3c943609	0.018092172
80	0x3bdd5491	0.006754466
81	0xbcc650cb	-0.024208447
82	0x3cacc0ff	0.021088121
83	0x3d020707	0.031744983
84	0x3d1d6247	0.038423803
85	0x3cd906e4	0.026492544
86	0x3bab3f1d	0.0052260295
87	0xbc2616c6	-0.010137266
88	0x3d16c9a6	0.0368134
89	0xbc9bad0a	-0.01900341
90	0x3d23c941	0.039986853
91	0x3b930570	0.004486732
92	0x3d33c7e5	0.043891806
93	0x3cb7bcb0	0.02242884
94	0xbc087a4c	-0.008329939
95	0x3b8fb466	0.004385519
96	0x3ce822df	0.02833694
97	0xbd365861	-0.04451788
98	0x3cdd9dfe	0.027052876
99	0xbbb79851	-0.0056028743
100	0xbbf599e1	-0.0074951504
101	0x3bab4b3c	0.0052274745
102	0x3d13f45e	0.03612172
103	0xbc93d473	-0.01804564
104	0xbc8e7a13	-0.017392194
105	0x3d0fbb32	0.035090633
106	0x398c8a5c	0.00026805967
107	0x3cb5eb11	0.022206815
108	0xbca0e318	-0.019639537
109	0x3d66da29	0.056360397
110	0xbc6e0788	-0.014528163
111	0xbcbd3f6e	-0.023101535
112	0xbc5d2fda	-0.013500178
113	0xbd3adf40	-0.045623064
114	0xbd0cb7da	-0.034355022
115	0xbd2df541	-0.04247022
116	0x3c8c1d2b	0.017103752
117	0x3d061cd4	0.032742336
118	0x3c5b63d4	0.0133905
119	0x3c708f78	0.014682643
120	0xbb26015e	-0.0025330405
121	0x3c409dde	0.0117563885
122	0xbd0c8cff	-0.03431415
123	0x3c9cbbc0	0.019132495
124	0x3b903222	0.0044005075
125	0x3c39382c	0.011304896
126	0x3d3110b5	0.043228824
127	0xbcd72d87	-0.026266826

cnn.bn2.weight f4 [128]
0	0x3fb56318	1.4170866
1	0x3fb2f182	1.3979952
2	0x3f8cf8d7	1.101344
3	0x3f830a4e	1.023752
4	0x3f939037	1.1528386
5	0x3f88e81e	1.0695837
6	0x3f8ebf50	1.1152134
7	0x3f96ab15	1.177096
8	0x3fa4d058	1.2876081
9	0x3f6eadf2	0.9323417
10	0x3f7c5e2f	0.9858121
11	0x3f912e6a	1.134229
12	0x3f83e9c2	1.0305712
13	0x3f920ae7	1.1409577
14	0x3f702566	0.93807065
15	0x3f966175	1.1748492
16	0x3fbaee1e	1.4603918
17	0x3f826649	1.0187465
18	0x3fa744f1	1.3067914
19	0x3fa23cf3	1.267485
20	0x3f8bdddc	1.0927081
21	0x3f8991a9	1.0747577
22	0x3f954d69	1.1664249
23	0x3f81569c	1.0104556
24	0x3f9e3ae8	1.2361727
25	0x3f82bdaf	1.0214137
26	0x3f945b05	1.1590277
27	0x3fa898d1	1.3171636
28	0x3f81ba80	1.013504
29	0x3f841358	1.0318403
30	0x3f6ef214	0.9333813
31	0x3f8d3f22	1.1034892
32	0x3fa7aad5	1.3099009
33	0x3fa2dd8a	1.2723858
34	0x3f921774	1.1413407
35	0x3f96d751	1.1784459
36	0x3fa82081	1.313492
37	0x3f91374a	1.1344998
38	0x3f9a1dc7	1.2040337
39	0x3f78fbfa	0.97259486
40	0x3f96b4c0	1.177391
41	0x3f94dec9	1.1630489
42	0x3f88bc87	1.0682534
43	0x3fa32871	1.2746717
44	0x3f83f4fe	1.0309141
45	0x3f8a33c4	1.0797048
46	0x3f9a0481	1.2032624
47	0x3f839b22	1.0281718
48	0x3fa342c3	1.2754749
49	0x3f8a121c	1.0786777
50	0x3f84b50a	1.0367749
51	0x3f931134	1.1489625
52	0x3f9aeace	1.2102907
53	0x3f8aae59	1.0834457
54	0x3f706d1c	0.9391649
55	0x3faa3cee	1.3299844
56	0x3fa0219c	1.2510257
57	0x3f9fc888	1.2483072
58	0x3fbf7045	1.4956137
59	0x3f99771b	1.1989473
60	0x3fbd2c21	1.4779092
61	0x3f85c2ce	1.0450075
62	0x3fa4daca	1.2879269
63	0x3faf39f5	1.3689562
64	0x3f867f87	1.0507668
65	0x3fa3bc78	1.2791891
66	0x3f975aa7	1.182454
67	0x3fb77a4a	1.4334195
68	0x3f8152e5	1.0103422
69	0x3fb7c6c5	1.4357535
70	0x3f9472b1	1.1597501
71	0x3f791eb3	0.9731247
72	0x3f84c80b	1.0373548
73	0x3fa97156	1.3237712
74	0x3f8a9ae1	1.0828515
75	0x3f84a732	1.0363524
76	0x3f717d60	0.9433193
77	0x3f83c21c	1.0293612
78	0x3fb424f7	1.4073781
79	0x3f7bc83d	0.98352414
80	0x3f91f496	1.1402767
81	0x3f7aad49	0.9792066
82	0x3f815519	1.0104095
83	0x3f8d95de	1.1061361
84	0x3f814b2f	1.0101069
85	0x3f870581	1.0548555
86	0x3f8b37f9	1.0876456
87	0x3f9a1f9d	1.2040898
88	0x3f929085	1.1450354
89	0x3f8729fc	1.0559688
90	0x3f8094fa	1.0045464
91	0x3f684acc	0.9073913
92	0x3f93a746	1.1535423
93	0x3f7786e1	0.96690184
94	0x3f8afc7d	1.0858303
95	0x3f899372	1.0748122
96	0x3f913c37	1.1346501
97	0x3f94625d	1.1592518
98	0x3fa05722	1.2526591
99	0x3f999c11	1.2000753
100	0x3faa1cc7	1.3290032
101	0x3f89e9c4	1.0774465
102	0x3f8f9463	1.1217159
103	0x3f78b0fb	0.9714505
104	0x3f8dcd94	1.1078362
105	0x3f856689	1.0421916
106	0x3fbc1780	1.4694672
107	0x3f8ddc53	1.1082863
108	0x3f606b42	0.8766366
109	0x3fa02485	1.2511145
110	0x3f962853	1.1731056
111	0x3fdd36cf	1.7282351
112	0x3f964c0b	1.1741956
113	0x3f7fc93b	0.9991643
114	0x3f66151e	0.8987597
115	0x3fd17198	1.6362791
116	0x3f98a755	1.1926066
117	0x3f9be26c	1.2178473
118	0x3f76ec6e	0.96454513
119	0x3fa3eaee	1.280607
120	0x3fa1631a	1.2608368
121	0x3f857aa7	1.0428056
122	0x3f919f04	1.1376653
123	0x3f9391ea	1.1528904
124	0x3f807824	1.0036664
125	0x3f8e1cf6	1.1102588
126	0x3f8ee240	1.1162796
127	0x3f922ef4	1.1420579

cnn.bn2.bias f4 [128]
0	0xbe5f1ba4	-0.21787888
1	0xbeac504c	-0.33655012
2	0xbe9a3df5	-0.30125394
3	0xbe8656b6	-0.2623803
4	0xbebe9836	-0.37225503
5	0xbeb451e3	-0.35218725
6	0xbe994969	-0.2993882
7	0xbe8beafd	-0.2732772
8	0xbe98bae5	-0.2983009
9	0xbe8d15c5	-0.2755567
10	0xbe96ed69	-0.29478005
11	0xbea7ff5a	-0.32812005
12	0xbe7a7304	-0.24457937
13	0xbe4774f5	-0.1947821
14	0xbec9ebf4	-0.3943783
15	0xbe750b36	-0.23930058
16	0xbe852e73	-0.26012
17	0xbe509ce1	-0.20372345
18	0xbec22883	-0.37921533
19	0xbe6e1157	-0.23248802
20	0xbe8c34b7	-0.27383968
21	0xbe9f06c0	-0.31059837
22	0xbee78c53	-0.45224246
23	0xbe843426	-0.25821036
24	0xbe83a279	-0.25709894
25	0xbea441d3	-0.3208147
26	0xbe9e99bd	-0.30976668
27	0xbecd54d5	-0.40103784
28	0xbe7f84d6	-0.24953017
29	0xbea42e50	-0.32066584
30	0xbea42ff6	-0.3206784
31	0xbe94929a	-0.29018098
32	0xbef42b8f	-0.47689483
33	0xbe8f661f	-0.280076
34	0xbe96129e	-0.2931108
35	0xbe73c83b	-0.2380685
36	0xbed5d723	-0.417657
37	0xbe308064	-0.17236477
38	0xbe848b90	-0.25887728
39	0xbe736856	-0.2377027
40	0xbe6c8aa7	-0.23099767
41	0xbe513f27	-0.20434247
42	0xbe4f1204	-0.20221716
43	0xbea9d347	-0.33169004
44	0xbe8fcd9b	-0.28086552
45	0xbe921e73	-0.28538856
46	0xbe8e2e47	-0.27769682
47	0xbebe608a	-0.37183028
48	0xbeb6fc89	-0.35739544
49	0xbe5155da	-0.20442906
50	0xbe5dbe49	-0.2165462
51	0xbdcf3c34	-0.10118905
52	0xbecdd84b	-0.4020408
53	0xbe3c5b38	-0.18394172
54	0xbe7d14a2	-0.24714902
55	0xbe991b59	-0.29903677
56	0xbea2acec	-0.31772554
57	0xbe997be5	-0.29977337
58	0xbeb124af	-0.345983
59	0xbec33e99	-0.38133696
60	0xbec4a25f	-0.3840513
61	0xbe418a6b	-0.18900459
62	0xbe8e277a	-0.27764493
63	0xbefa57e5	-0.48895183
64	0xbe65a7b3	-0.22427253
65	0xbece3436	-0.4027421
66	0xbe9badf3	-0.3040615
67	0xbee932fb	-0.45546708
68	0xbeb43778	-0.3519857
69	0xbebaef68	-0.36510777
70	0xbeb993c2	-0.36245543
71	0xbe49e937	-0.1971787
72	0xbe89097c	-0.26765049
73	0xbed93053	-0.4241968
74	0xbec9ffc6	-0.39452952
75	0xbe9ce2ca	-0.30641776
76	0xbe6c2f52	-0.23064926
77	0xbe301bb7	-0.17198072
78	0xbe491658	-0.1963743
79	0xbe959cc1	-0.29221156
80	0xbe1d39df	-0.15354107
81	0xbe955a5b	-0.29170498
82	0xbe435933	-0.19076996
83	0xbe8be5f0	-0.27323866
84	0xbeea1365	-0.45717922
85	0xbebbb088	-0.3665812
86	0xbea8cd1a	-0.3296898
87	0xbeb47b89	-0.352505
88	0xbe94b97f	-0.29047772
89	0xbe548619	-0.20754279
90	0xbe840d87	-0.2579157
91	0xbe8e32d6	-0.2777316
92	0xbe63d725	-0.2225004
93	0xbeadcf9f	-0.33947465
94	0xbeb2af03	-0.34899148
95	0xbe471d0f	-0.19444679
96	0xbe32a67e	-0.17446324
97	0xbec9e418	-0.39431834
98	0xbe4f6184	-0.20252043
99	0xbeba8d19	-0.36435774
100	0xbe96486a	-0.29352123
101	0xbe917ef6	-0.28417176
102	0xbeb9f9e9	-0.3632348
103	0xbea6f733	-0.32610473
104	0xbe975f04	-0.2956468
105	0xbe6f41b5	-0.23364909
106	0xbef64107	-0.48096487
107	0xbe658c4d	-0.22416802
108	0xbe68d3d2	-0.22737053
109	0xbe82eac2	-0.2556973
110	0xbe75ea25	-0.240151
111	0xbecd899e	-0.40144056
112	0xbe9f7fdd	-0.3115224
113	0xbe85a098	-0.26099086
114	0xbe3cbf28	-0.18432295
115	0xbe978eda	-0.29601175
116	0xbe77b396	-0.241896
117	0xbecb0df3	-0.3965908
118	0xbda9944c	-0.082802385
119	0xbe9d413c	-0.30713832
120	0xbe8daebe	-0.2767238
121	0xbe107e81	-0.14110757
122	0xbea37a51	-0.31929258
123	0xbecbccc1	-0.39804652
124	0xbebc5e71	-0.36790803
125	0xbe78d53d	-0.24300094
126	0xbe1e5b0d	-0.1546442
127	0xbe9638e7	-0.29340288

cnn.bn2.running_mean f4 [128]
0	0xc02d9444	-2.7121744
1	0xc0b1a297	-5.5510974
2	0xbf43ebcf	-0.7653169
3	0xc0cbb712	-6.3660975
4	0xc030c059	-2.76174
5	0xc09a0f35	-4.8143563
6	0xc06bc216	-3.683721
7	0xc031df85	-2.7792675
8	0xbf197de3	-0.5995771
9	0xc08f7210	-4.4826736
10	0xbf9f184e	-1.2429292
11	0xc05274cc	-3.2883787
12	0xbfd36a3f	-1.6516799
13	0xc0b53c79	-5.663632
14	0x3fe8ac9e	1.8177679
15	0xc0242578	-2.564787
16	0xc0988629	-4.766377
17	0xc02213f2	-2.5324674
18	0xc0048fd3	-2.0712783
19	0xc018e201	-2.3887942
20	0xc031bb13	-2.777043
21	0xc0a0ea47	-5.0285983
22	0x3de3a082	0.11114599
23	0xc034688f	-2.8188818
24	0xbcc00d65	-0.023443887
25	0x3fdad18a	1.7095196
26	0xc0c5cc60	-6.181198
27	0xc06c7f26	-3.6952605
28	0xc0a1ecca	-5.060155
29	0xbfeb9d43	-1.8407367
30	0xbfdfe506	-1.7491767
31	0xc04b9471	-3.1809351
32	0x3f7e4ff1	0.9934073
33	0xc0cca1cc	-6.3947506
34	0xc091969b	-4.5496345
35	0xbfc1aad2	-1.5130255
36	0xbf89cf9a	-1.076648
37	0xc01a1b45	-2.4079144
38	0x40cfedef	6.4977946
39	0x409c5f56	4.8866377
40	0xbfd96c23	-1.6986126
41	0xc01a4c1c	-2.4108953
42	0x3f87efe2	1.0620081
43	0xc0b4c7ca	-5.6493883
44	0x3fdd1b65	1.7273985
45	0x40ccdfbf	6.4023128
46	0xbfd3ffd8	-1.6562452
47	0xc09feaff	-4.997436
48	0xc0facf98	-7.837841
49	0xbe0c8232	-0.1372154
50	0xc0300889	-2.750521
51	0xc0926d91	-4.575875
52	0xc0a17ec9	-5.0467267
53	0xc09c3e4e	-4.8826056
54	0x401cab5f	2.4479597
55	0xbd2ee886	-0.04270222
56	0xc0441376	-3.0636878
57	0xbf5a428f	-0.8525781
58	0xbfbf1fea	-1.4931614
59	0xc0c227ed	-6.0673738
60	0xc092b8f1	-4.585076
61	0xbfaee829	-1.36646
62	0xc0ada589	-5.426457
63	0xbf742bee	-0.9537953
64	0x3fcbaca1	1.5912057
65	0xc03aefad	-2.9208786
66	0xc08e2b33	-4.4427733
67	0xc1009187	-8.035529
68	0xc0b0336e	-5.506278
69	0xbf655b1f	-0.89592165
70	0xc08561be	-4.1681814
71	0x3f065eb5	0.5248826
72	0xc0db1487	-6.846256
73	0xc0c1c9b4	-6.055872
74	0x3eebdbfd	0.46066275
75	0xc022d76e	-2.5443988
76	0xc00d3730	-2.2064934
77	0xc05e333e	-3.4718776
78	0xbfb5f606	-1.4215705
79	0xc035e774	-2.8422518
80	0x3d67f474	0.056629613
81	0xc091dea1	-4.5584264
82	0xc094eee1	-4.65416
83	0xbf06b132	-0.5261413
84	0xc03ddba5	-2.966531
85	0xc09700c0	-4.7188416
86	0x3fe7f990	1.8123035
87	0xc02adbb0	-2.6696587
88	0xbf5e2ec0	-0.86790085
89	0xbf9ff4f5	-1.249663
90	0x3fac2745	1.3449484
91	0xbf656467	-0.89606327
92	0x3f3d6070	0.73975277
93	0x4009af1d	2.151313
94	0xc0841093	-4.127023
95	0xbbd500f2	-0.006500357
96	0xc07c961b	-3.9466617
97	0xbfd441fb	-1.6582636
98	0xc07cc748	-3.9496632
99	0xc07b9580	-3.9309998
100	0xc04fae63	-3.2450187
101	0xbffd7a43	-1.9802936
102	0xc01f948b	-2.4934413
103	0xbfdc4653	-1.7208961
104	0xc11a6530	-9.649704
105	0x3ea3e802	0.32012945
106	0xc04fec5f	-3.248802
107	0xbf7f3aff	-0.99699396
108	0xc00b0a83	-2.1725166
109	0xc002fad8	-2.0465603
110	0x3e81898e	0.25300258
111	0xc0ee4ee1	-7.447129
112	0xc0ade7b6	-5.434535
113	0x3e6d4620	0.23171282
114	0x4096f676	4.7175856
115	0x3f721991	0.9457026
116	0x3f7a7ed9	0.97849804
117	0xc0a88415	-5.2661233
118	0x40b17397	5.54536
119	0xbd9e7610	-0.077373624
120	0x3fe7e742	1.8117449
121	0x3f32c657	0.6983389
122	0xbfdd8125	-1.7305037
123	0x3f146513	0.57966727
124	0xc09cd6e5	-4.9012322
125	0x3eb7a9d0	0.35871744
126	0x40017c1f	2.0232008
127	0x40932c5d	4.5991654

cnn.bn2.running_var f4 [128]
0	0x420b5dd5	34.841633
1	0x41e65203	28.790045
2	0x417cfad1	15.811234
3	0x4241e1b8	48.47043
4	0x4183d575	16.479227
5	0x41ab4d10	21.412628
6	0x42033e42	32.8108
7	0x418882f8	17.06395
8	0x419ead0f	19.834501
9	0x41bb73eb	23.4316
10	0x4185d1e3	16.727484
11	0x4209d438	34.457245
12	0x41b137b8	22.152206
13	0x4201b16b	32.42326
14	0x41a321ba	20.391468
15	0x41b12f9c	22.148247
16	0x4206de34	33.716995
17	0x41ee8ab6	29.81773
18	0x41c2392a	24.277912
19	0x4173bbb1	15.233323
20	0x41ddd403	27.728521
21	0x41c800eb	25.000448
22	0x41a279d4	20.309486
23	0x41c8a05f	25.078306
24	0x4144e618	12.306175
25	0x41c4d383	24.603277
26	0x42100afd	36.01073
27	0x4192b7fc	18.339836
28	0x4211ffc4	36.49977
29	0x413c9a6e	11.787703
30	0x41c4ec24	24.615303
31	0x4200142b	32.019695
32	0x419e52bf	19.790403
33	0x419dd0d5	19.726969
34	0x419b1d6b	19.389364
35	0x41903758	18.027023
36	0x41c2155b	24.260427
37	0x419a2331	19.267183
38	0x41ca27b3	25.269384
39	0x41dfa897	27.95732
40	0x41a9637a	21.173573
41	0x4156f136	13.433889
42	0x41a4b2cb	20.587301
43	0x41c5f1c4	24.74305
44	0x41a41052	20.507969
45	0x416eb768	14.919777
46	0x4178ad1d	15.542264
47	0x41e5e8ab	28.738607
48	0x41f1f4a0	30.244446
49	0x41b1e6af	22.237638
50	0x41f57437	30.681746
51	0x41ed69c5	29.676645
52	0x419807a2	19.003727
53	0x41a96fbd	21.17956
54	0x417013b0	15.0048065
55	0x4227bd33	41.934765
56	0x4202789a	32.617775
57	0x4180f473	16.11936
58	0x41fa231f	31.267149
59	0x41ba269a	23.268848
60	0x42458f90	49.390198
61	0x41d40630	26.503021
62	0x41f7e576	30.987041
63	0x4166a325	14.41483
64	0x41ec391d	29.527887
65	0x41e23c72	28.279514
66	0x41c8235b	25.017263
67	0x42151696	37.272057
68	0x41f1e1e4	30.235298
69	0x419e131e	19.759335
70	0x418496ca	16.573627
71	0x41964696	18.784466
72	0x41a99c86	21.201427
73	0x420981b3	34.37666
74	0x416cfdeb	14.811992
75	0x41c72fbe	24.898312
76	0x41b331a7	22.399244
77	0x41d0bb93	26.091589
78	0x4187626e	16.923061
79	0x41ccc71f	25.597227
80	0x418e7cce	17.81094
81	0x419d098d	19.629663
82	0x41ba5efb	23.296377
83	0x41878936	16.941998
84	0x419fd8cd	19.98086
85	0x41a6cba9	20.849443
86	0x414a938c	12.661022
87	0x418e29ed	17.770472
88	0x41830835	16.379007
89	0x4195eadf	18.739683
90	0x419f83ee	19.939419
91	0x419f78e3	19.934027
92	0x417caa49	15.791574
93	0x41b8d063	23.101751
94	0x41bd10ec	23.633263
95	0x42138aba	36.885475
96	0x42157ccc	37.371872
97	0x4199199c	19.137505
98	0x41b317f7	22.386702
99	0x41be5f6e	23.796597
100	0x4246490a	49.571327
101	0x4192a715	18.331583
102	0x418f0c0c	17.880882
103	0x41aab83b	21.339956
104	0x42628ba3	56.636364
105	0x414a6f84	12.6522255
106	0x418ad3da	17.353443
107	0x41a88023	21.062567
108	0x41da8fe8	27.320267
109	0x41579c99	13.475732
110	0x42076f82	33.858894
111	0x41ce8a88	25.817642
112	0x419eb501	19.83838
113	0x41b84f40	23.038696
114	0x42066552	33.598946
115	0x41cb3c36	25.4044
116	0x41a42b41	20.52112
117	0x41c99159	25.19597
118	0x421f0c6b	39.762127
119	0x41c52c48	24.646622
120	0x413245a0	11.141998
121	0x41875637	16.917097
122	0x416d9157	14.847983
123	0x41899f7a	17.20287
124	0x41f4cf90	30.601349
125	0x41e470d8	28.5551
126	0x41ea8a52	29.31754
127	0x4189ed37	17.240828

gat1.att_src f4 [1, 1, 256]
0	0xb8c1eb48	-9.246782e-05
1	0x3c1e81de	0.009674517
2	0x3d5d0f68	0.05396977
3	0x3d4633af	0.048389133
4	0x3caaa055	0.020828405
5	0x3d644b97	0.05573615
6	0x3cec81b8	0.028870448
7	0x3d4478e3	0.04796685
8	0x3de13af4	0.109975725
9	0x3d872615	0.065990604
10	0x3e019490	0.12654328
11	0x3da35faa	0.07977231
12	0xbd0bd4a1	-0.034138326
13	0xbc8ddc5c	-0.01731699
14	0xbc958717	-0.018252892
15	0x3cbc4164	0.0229804
16	0x3d89d3c5	0.06729845
17	0x3e163e4e	0.14672205
18	0x3d18a95e	0.037270896
19	0xbb922eb1	-0.0044611325
20	0x3bb83d2d	0.005622527
21	0x3dafcde0	0.085841894
22	0x3b350265	0.0027619835
23	0x3dbaa2c8	0.09113079
24	0x3dc6cd22	0.09707095
25	0x3d11ccb8	0.035595626
26	0xbc1d17d7	-0.009588203
27	0x3d90f1df	0.07077383
28	0x3d820159	0.06347913
29	0xbc1fd923	-0.009756359
30	0x3d13ca90	0.03608185
31	0xbd985e8f	-0.074399106
32	0x3d90af95	0.070647396
33	0x3d8d68e1	0.0690477
34	0xbc1871a4	-0.009304438
35	0x3cdf1ff1	0.02723691
36	0x3dc17d70	0.094477534
37	0x3daf88b2	0.085709944
38	0xbc47028d	-0.012146604
39	0x3c2051b1	0.009785102
40	0xbc07f65d	-0.008298484
41	0x3bcbdc0f	0.0062213014
42	0x3e056414	0.13026458
43	0x3d8fd2e0	0.07022643
44	0xbd0feb05	-0.03513624
45	0xbd2be5cc	-0.0419672
46	0x3d49c3c8	0.049258977
47	0x3e011418	0.12605321
48	0xbd0c987c	-0.034325108
49	0xbd35453e	-0.044255488
50	0x3dc42f7f	0.09579372
51	0x3d10ce55	0.035353024
52	0x3d7ed1b9	0.062211726
53	0x3b22e8be	0.0024857963
54	0xbc9d7442	-0.019220475
55	0x3dd73d46	0.10509734
56	0x3d839629	0.06425125
57	0xbe1ce7ee	-0.15322849
58	0x3d8a9f08	0.06768614
59	0xbd4cc485	-0.049992103
60	0x3b7b4938	0.0038343202
61	0xbb93741b	-0.004499925
62	0xbd260a5b	-0.04053722
63	0x3de110e1	0.109895475
64	0x3e11374f	0.14181255
65	0x3ddd00c5	0.107911624
66	0x3cb78f78	0.022407278
67	0x3e0eac10	0.13932824
68	0x3c821acd	0.01588192
69	0x3d5db990	0.054132044
70	0xbd23537f	-0.03987455
71	0xbd4ad60e	-0.049520545
72	0xbdb4c596	-0.08826749
73	0x3d0d2028	0.034454495
74	0xbb350a7d	-0.002762466
75	0xbd3e1fde	-0.04641711
76	0xbdd60a58	-0.10451192
77	0x3d6bd6ff	0.057578083
78	0xbdd17c59	-0.102287956
79	0x3d89be79	0.06725783
80	0x3d75f747	0.060050275
81	0x3c3ae95c	0.011408176
82	0xbd5786a4	-0.052618638
83	0x3bbbe28d	0.005733794
84	0x3d18cea8	0.037306458
85	0x3e366398	0.1781143
86	0x3d18f53a	0.03734324
87	0xbdc814d3	-0.09769597
88	0x3d72d2a8	0.05928293
89	0x3ccf6775	0.025317887
90	0x3dbd7e2f	0.09252583
91	0xbda079b2	-0.078357115
92	0x3e008655	0.12551244
93	0x3d14a4fa	0.036290146
94	0xbcf1f01a	-0.029533435
95	0xbc02e16a	-0.007988313
96	0xbd17399e	-0.036920182
97	0xbcf0fe61	-0.029418172
98	0x3c8e46ea	0.017367799
99	0xbd8e99ca	-0.06962927
100	0x3dd2cd4d	0.10293064
101	0x3dc888f1	0.097917445
102	0x3e40507f	0.18780707
103	0x3c2ef385	0.010678177
104	0x3c710625	0.014710938
105	0xbdd8e5a2	-0.10590674
106	0x3cba7a57	0.022763414
107	0x3d624fbf	0.055251833
108	0xbc8c2ccf	-0.01711121
109	0xbd3c3133	-0.045945358
110	0x3dbc485c	0.09193489
111	0x3de2cbfd	0.11074064
112	0x3d676b10	0.056498587
113	0x3bb4bfef	0.0055160443
114	0x3db14c18	0.08657092
115	0xbb799177	-0.0038081089
116	0xbd108f04	-0.03529264
117	0xbca44427	-0.020052029
118	0xbe02dbb8	-0.12779129
119	0xbd33ee95	-0.0439287
120	0xbd9fb1a1	-0.07797552
121	0xbbe1f431	-0.006895565
122	0x3c589163	0.013218257
123	0x3c53dabb	0.012930567
124	0x3d16542a	0.03670136
125	0xbd7630ec	-0.06010525
126	0x3bf01551	0.00732676
127	0xbd890d1b	-0.06691953
128	0x3da047eb	0.07826217
129	0xbcbb3948	-0.022854462
130	0x3df6fe0f	0.120601766
131	0x3dcebc41	0.100945
132	0xbd0d5e5d	-0.03451382
133	0x3e03ccbf	0.12871073
134	0x3c281e10	0.010261074
135	0x3c9d0bf1	0.019170733
136	0x3d483bb6	0.04888507
137	0x3d90d750	0.070723176
138	0x3d217536	0.03941842
139	0xbc8766a2	-0.016528431
140	0xbc43196b	-0.011907916
141	0xbb3f4e9c	-0.0029191142
142	0xbe3e4524	-0.18581063
143	0xbcc92eda	-0.024558473
144	0x3d215671	0.039389078
145	0xbd6acfd4	-0.057327107
146	0x3d17dbab	0.037074726
147	0x3d26e445	0.04074504
148	0xbd61c4a9	-0.05511919
149	0xbd817ff7	-0.063232355
150	0xbbf15763	-0.0073651536
151	0x3d3c8a69	0.046030436
152	0x3c49dcf5	0.012320747
153	0x3de1e0ae	0.110291824
154	0xba14fc88	-0.0005683382
155	0xbce0d7ab	-0.027446589
156	0x3dae42bb	0.085088216
157	0xbbb5c7ab	-0.005547484
158	0x3da688ec	0.081315845
159	0x3d4d0bc0	0.050060034
160	0xbcf1c0b3	-0.029510831
161	0xbd87d487	-0.06632333
162	0x3d888e63	0.06667783
163	0xbd8f6954	-0.070025116
164	0x3b765ab9	0.0037590696
165	0xbd0f12aa	-0.03492991
166	0xbd4b71d4	-0.0496691
167	0x3c3ea59f	0.011636167
168	0x3d98dd43	0.07464077
169	0xbd560ec8	-0.05226019
170	0x3ba9e4cc	0.0051847454
171	0x3e288215	0.16455872
172	0xbc8df3ba	-0.017328132
173	0x3da3a555	0.07990519
174	0xbd3fd113	-0.046830248
175	0xbd949ec7	-0.07256847
176	0x3db2edd4	0.08736768
177	0x3c5ce906	0.0134832915
178	0x3e36ec70	0.17863631
179	0xbd92646e	-0.07148062
180	0x3b96a89f	0.004597738
181	0xbd313376	-0.043261968
182	0x3c366d20	0.011134416
183	0x3de65fd8	0.112487495
184	0x3defb77d	0.117049195
185	0x3dd9283e	0.10603379
186	0x3d388eb2	0.04505796
187	0x3ca088a8	0.019596413
188	0xbda5a7b7	-0.0808863
189	0xbdc7e72f	-0.09760892
190	0xbd2703a9	-0.040774975
191	0x3da9089d	0.08253596
192	0x3db6e5a3	0.089305185
193	0xbd54a476	-0.051914655
194	0xbd6cd71b	-0.057822328
195	0x3b8814f1	0.004152887
196	0x3d96464a	0.07337625
197	0xbda60de1	-0.08108116
198	0x3b3eb950	0.0029102154
199	0x3d940c91	0.07228959
200	0xbd17b1c0	-0.03703475
201	0x3c08ce6f	0.008349999
202	0x3cec056b	0.028811177
203	0xbdc165e2	-0.09443261
204	0xbd403dfe	-0.04693412
205	0x3df47310	0.11936009
206	0x3df641d1	0.12024272
207	0xbd13cf14	-0.036086157
208	0xbc98a8e1	-0.018635215
209	0xbd874cbe	-0.06606434
210	0xbbefb62b	-0.0073154173
211	0x3d3859cd	0.045007516
212	0x3dae2cf8	0.08504671
213	0xbd6841d4	-0.056703404
214	0x3db2c498	0.087289035
215	0xbdaa48a1	-0.08314634
216	0x3dded0f8	0.108797014
217	0xbdbe67ea	-0.09297164
218	0xbb922fd3	-0.0044612675
219	0x3d06c5b7	0.0329034
220	0xbd4eba03	-0.050470363
221	0x3d93e456	0.07221286
222	0xbd528808	-0.05139926
223	0x3d52c5e5	0.05145826
224	0xbaba08c8	-0.0014193291
225	0x3dbfd485	0.09366707
226	0x3de97252	0.11398758
227	0x3cb7f4d5	0.022455612
228	0x390fd166	0.0001371555
229	0xbe0222e1	-0.12708618
230	0xbd25056f	-0.040288385
231	0x3db7e0ae	0.08978401
232	0xbcd28c88	-0.025701776
233	0x3dedb4f2	0.11606778
234	0x3e06acda	0.13151875
235	0x3c384945	0.011247938
236	0x3d0c3e73	0.034239244
237	0x3d149e96	0.03628405
238	0x3c512186	0.01276434
239	0xbab1880a	-0.0013544571
240	0xbdbadca7	-0.09124117
241	0x3c25424a	0.010086605
242	0xbdb06ce5	-0.0861452
243	0xbc6f7ebb	-0.014617617
244	0x3dfcb2d2	0.12338795
245	0xbd664cea	-0.056225695
246	0x3cca40f6	0.024689179
247	0x3d412eb7	0.04716369
248	0x3b18b14a	0.0023299032
249	0x3dd43896	0.103623554
250	0x3dcbca7b	0.099507295
251	0xbd662f57	-0.05619749
252	0x3d8e76eb	0.069562756
253	0x3d1987fd	0.037483204
254	0xbc0eaf0e	-0.0087087285
255	0xbd21f68c	-0.039541766
