models/70_cnn_cq.pth (torch, 436098 bytes, 12 tensors)

conv1.weight f4 [16, 3, 3, 3]
-0.62175936 -0.79353416 0.18520547 0.941456 -0.021163767 -0.5416542 0.04286404 0.76850706
0.4591717 -0.5756455 -0.8447223 -0.04450927 0.59003705 0.121019065 -0.8393766 0.057518627
0.644238 0.23178528 -0.3591634 -0.7388792 0.16995808 0.9870463 -0.06926221 -0.4931284
-0.14419027 0.6978576 0.42343554 0.15010864 0.23303148 0.29626444 0.2799856 0.33583462
0.18719673 0.223684 0.1753547 0.16324708 -0.21596369 -0.15699102 0.0482432 -0.02817497
-0.054822452 0.12585321 -0.4764586 -0.27597427 -0.03227837 -0.37564337 0.11603606 0.33127245
-0.05128664 0.10349874 0.4985622 -0.22113526 0.17455503 0.38811135 0.9201127 1.2000949
0.66717875 -0.14760332 -0.37864393 -0.09652534 -0.49380517 -1.0242641 -0.4704753 0.19625951
0.6565595 0.4661159 -0.1274734 -0.48703676 -0.032345172 0.005480823 -0.78378946 -0.20238513
-0.10588493 0.42910805 0.037860546 -0.27407423 -0.25155628 -0.14988601 0.40677088 0.23548202
0.052673515 0.7020849 0.59767854 0.23416004 0.43126053 -0.31758195 -0.007204954 -0.6020887
-0.8751178 -0.08892476 -0.20020857 -0.38360196 -0.55432445 -0.032971185 -0.4675625 -0.50363654
-0.6563839 -0.7253693 0.0948796 0.286456 0.33729526 -0.2200647 0.72820586 -0.076044515
-0.23907109 -0.19050708 -0.6336138 0.014067216 -0.39216226 -0.33786914 0.45910692 -0.38870013
0.8903038 0.08450011 0.43041527 0.02683436 -0.9039425 -0.29973674 -0.1998556 0.52613145
-0.22277436 0.9915587 -0.078352414 0.39015844 -0.057103314 -0.8420382 -0.52881455 -0.37032333
0.54652417 -0.13344659 1.0199382 0.11945406 0.4267468 0.019473165 -0.9010984 0.49364245
0.96241933 0.9658576 0.022316162 0.8283421 0.614098 -0.68452835 -0.09338149 0.25582
-0.16285357 -0.36570603 -0.21380337 -0.6764633 -0.7288069 -0.703022 -0.33055925 -0.28234607
-0.12055513 0.16218644 -0.31658676 -0.06962591 0.13676198 -0.6621764 -0.6383338 0.8113106
0.33280033 0.11204241 -0.13492152 -1.3758807 0.11128702 -1.4245102 0.6636796 0.75040984
0.94757134 0.9985134 -0.44514844 0.49614367 -0.8897174 0.14147651 -1.3351704 0.51738364
0.72213924 0.49684024 0.6665234 -0.7733482 0.35124496 -0.94000614 0.06775757 -1.3112249
0.41111723 0.63814396 0.5527925 0.66379464 -0.38320252 -0.38862428 -0.093272954 -0.14674412
-0.32203573 -0.24178313 -0.03272728 0.008039815 0.01725353 0.023787502 -0.48433337 -0.27067366
0.09212508 -0.1436459 0.11120487 0.04407592 -0.20730938 0.21293408 0.17593323 0.18004948
0.3172305 0.4049023 0.063991696 0.44800386 0.63106966 0.007978269 0.5171595 0.49895236
-0.49842644 -0.6444935 -0.4224359 -0.057390872 0.15555409 0.27080786 -0.62936544 -0.21553119
-0.68572855 0.5243005 0.28228393 0.38180178 1.1173205 1.2003206 1.1375251 0.1307573
0.3488719 -0.03808866 -0.24803028 -1.0054027 -0.83161825 0.36548132 -0.1318295 0.107041724
-0.5419937 -0.21046624 -0.36731547 0.43760362 -1.06829 0.5652145 1.1665435 -1.8956972
0.550156 1.0093222 -1.1794235 0.19065411 0.3804372 -1.20003 0.48126993 1.1006753
00000000: 9f2b 1fbf 0e25 4bbf 81a6 3d3e 4303 713f
00000010: a35f adbc daa9 0abf 3492 2f3d e1bc 443f
00000020: 8e18 eb3e 815d 13bf b83f 58bf 5a4f 36bd
00000030: ab0c 173f d8d8 f73d 63e1 56bf a798 6b3d
00000040: c8ec 243f 1f59 6d3e 44e4 b7be 3027 3dbf
00000050: 7e09 2e3e 11af 7c3f 58d9 8dbd 537b fcbe
00000060: 9da6 13be cca6 323f 8bcc d83e 14b6 193e
00000070: ce9f 6e3e f9af 973e 465a 8f3e 84f2 ab3e
00000080: 80b0 3f3e 6b0d 653e 2f90 333e 3e2a 273e
00000090: 9625 5dbe 41c2 20be a99a 453d 32cf e6bc
000000a0: 828d 60bd aadf 003e 62f2 f3be 804c 8dbe
000000b0: 5336 04bd 5454 c0be 50a4 ed3d 8b9c a93e
000000c0: f111 52bd 26f7 d33d 8b43 ff3e 4871 62be
000000d0: 8ebe 323e 88b6 c63e 828c 6b3f b69c 993f
000000e0: 3acc 2a3f 5325 17be 9edd c1be 14af c5bd
000000f0: 08d4 fcbe 161b 83bf 23e2 f0be 41f8 483e
00000100: 4914 283f bea6 ee3e 6388 02be e25c f9be
00000110: 5f7c 04bd 7a98 b33b 6da6 48bf 0c3e 4fbe
00000120: 33da d8bd 0db4 db3e a913 1b3d 7553 8cbe
00000130: fccb 80be b87b 19be 4644 d03e 3322 713e
00000140: 2fc0 573d d6bb 333f 7601 193f a6c7 6f3e
00000150: 2ece dc3e 1a9a a2be 8917 ecbb 7c22 1abf
00000160: b807 60bf 2f1e b6bd 7a03 4dbe 7a67 c4be
00000170: 35e8 0dbf cb0c 07bd 5a64 efbe 53ee 00bf
00000180: c608 28bf cdb1 39bf 3c50 c23d 5caa 923e
00000190: f7b1 ac3e a458 61be b36b 3a3f 3abd 9bbd
000001a0: 0dcf 74be 4a14 43be 8434 22bf 2e7a 663c
000001b0: 7ec9 c8be 2ffd acbe 1010 eb3e b403 c7be
000001c0: f3ea 633f 650e ad3d 645f dc3e bbd3 db3c
000001d0: c768 67bf 1877 99be f2a6 4cbe 8db0 063f
000001e0: f61e 64be cad6 7d3f 3b77 a0bd d9c2 c73e
000001f0: 2ae5 69bd d18f 57bf 6460 07bf 059b bdbe
00000200: 02e9 0b3f 39a6 08be 568d 823f 55a4 f43d
00000210: 8e7e da3e 3086 9f3c 62ae 66bf b4be fc3e
00000220: 1d61 763f 7242 773f 62d0 b63c 3a0e 543f
00000230: 8735 1d3f 403d 2fbf cb3e bfbd d7fa 823e
00000240: 16c3 26be d23d bbbe 45ef 5abe b32c 2dbf
00000250: 1793 3abf 40f9 33bf 103f a9be aa8f 90be
00000260: 9ce5 f6bd 3414 263e a917 a2be 0798 8ebd
00000270: 550b 0c3e 6484 29bf d869 23bf 0db2 4f3f
00000280: ce64 aa3e 7e76 e53d de28 0abe dc1c b0bf
00000290: 73ea e33d 5a56 b6bf e8e6 293f dc1a 403f
000002a0: 0994 723f 939e 7f3f 7fea e3be 8b06 fe3e
000002b0: 85c4 63bf 38df 103e dde6 aabf 4173 043f
000002c0: 1ede 383f d861 fe3e 47a1 2a3f 26fa 45bf
000002d0: 61d6 b33e 3ea4 70bf 7bc4 8a3d 38d6 a7bf
000002e0: f57d d23e 675d 233f cf83 0d3f 72ee 293f
000002f0: 1f33 c4be c3f9 c6be e405 bfbd 1744 16be
00000300: dee1 a4be ff95 77be 0a0d 06bd 6eb9 033c
00000310: 4657 8d3c 02de c23c 8bfa f7be bd95 8abe
00000320: 13ac bc3d e917 13be 61bf e33d f488 343d
00000330: e948 54be 640b 5a3e d727 343e e45e 383e
00000340: 096c a23e 5b4f cf3e 140e 833d c360 e53e
00000350: c88d 213f 49b7 023c 9164 043f af76 ff3e
00000360: c031 ffbe 87fd 24bf 8549 d8be b112 6bbd
00000370: 9249 1f3e 54a7 8a3e 181e 21bf 35b4 5cbe
00000380: e88b 2fbf 8f38 063f 8587 903e 867b c33e
00000390: 5c04 8f3f 1ba4 993f 6c9a 913f 3ee5 053e
000003a0: 569f b23e db02 1cbd a6fb 7dbe 09b1 80bf
000003b0: efe4 54bf 5e20 bb3e 50fe 06be b138 db3d
000003c0: 19c0 0abf 7684 57be c610 bcbe 950d e03e
000003d0: babd 88bf e6b1 103f 4c51 953f 35a6 f2bf
000003e0: 06d7 0c3f 7831 813f 59f7 96bf d53a 433e
000003f0: aac8 c23e 959a 99bf 0369 f63e eee2 8c3f

conv1.bias f4 [16]
-0.38018554 -0.19462217 -0.42773274 -1.5392393 -0.30656523 -0.5361244 -0.44822428 -0.6911699
-0.3575108 -0.33069694 -0.28860512 0.13491443 -0.40836242 0.26409173 -0.28363377 -0.1933828
00000000: aea7 c2be 094b 47be c9ff dabe cb05 c5bf
00000010: 1ef6 9cbe 733f 09bf a77d e5be 83f0 30bf
00000020: a80b b7be 1c51 a9be 0dc4 93be 0227 0a3e
00000030: e114 d1be 0837 873e 7238 91be 2406 46be

conv2.weight f4 [64, 16, 4, 4]
-0.17505486 -0.019550888 -0.119699456 -0.08102163 -0.16270773 0.061976288 0.32016996 0.0018588395
-0.083927125 -0.16005449 -0.10189451 -0.08645139 -0.18841982 -0.18467441 -0.14985624 0.27701488
-0.2790572 -0.26920447 -0.16335373 -0.14094573 -0.33523226 -0.26962283 -0.11851687 -0.141114
-0.03655957 -0.00920958 0.15075544 -0.0019105067 0.18999447 0.23484376 0.20771752 0.0026197485
0.1723081 -0.13173743 -0.061782174 0.1338497 0.047686864 0.04079513 -0.018317949 -0.18257709
-0.13588636 -0.005727095 0.047624525 0.07226436 0.09494189 0.041650984 -0.16452117 0.23292588
-0.20156975 -0.3684604 -0.14715096 -0.09432987 -0.30575436 -0.30210978 -0.18100215 -0.03623805
0.12862541 0.18774652 0.060473204 0.14859904 0.006127529 -0.14385805 0.0900992 0.07277089
-0.089925736 -0.106137484 -0.018719377 0.07528826 0.020510852 -0.13620907 0.070670485 0.04488896
0.20759873 0.10139239 0.055521067 -0.084946044 0.21084435 0.18847664 -0.034762636 0.09454703
-0.29206434 -0.30475715 -0.21855643 -0.094213665 -0.36405385 -0.21087217 -0.22810169 -0.0992688
-0.16934206 0.0779667 0.2322822 0.21922128 0.0609328 0.02372612 0.066560075 0.23658085
0.073171 0.106036074 -0.24305288 -0.18794164 0.33500376 0.073583424 0.17003138 0.29688886
0.2323497 0.2283177 -0.2001814 -0.2042523 0.04336116 0.20115544 -0.02743206 0.20546152
-0.26811373 -0.1694496 -0.106099345 -0.10276111 -0.16071686 0.018017305 0.07155845 0.06571987
0.0690786 0.021671226 0.12693305 -0.02791669 -0.0053744456 -0.012506944 0.09130398 -0.035807595
-0.16817743 0.021575306 -0.10687897 -0.18624578 0.12277554 0.07232216 -0.048811797 0.08341735
-0.0056323325 0.049866628 0.12681364 0.11234209 -0.19788985 -0.15356767 -0.007152651 0.037857547
-0.012958086 -0.20770806 -0.26031783 0.045243643 -0.31192636 -0.57348424 -0.14156313 -0.16709402
-0.33383805 -0.14962038 -0.3103829 -0.056763366 0.095245294 0.11109596 0.17172232 0.22195682
-0.0030484563 -0.21103124 -0.037031434 0.019017488 -0.35683408 -0.3787006 -0.20277329 -0.09395679
-0.022423467 -0.17886478 -0.155281 -0.082307816 0.037022766 0.066789575 -0.01920148 0.022084275
-0.032478016 0.15334675 0.23926511 0.0010952407 0.10543917 0.24095494 0.1154643 0.036226586
0.068766214 0.11370377 -0.04755222 -0.13512185 -0.0866291 -0.26129314 -0.27102402 -0.2562005
0.05122463 0.095621854 0.13899328 0.079868004 0.06643085 0.20124502 0.07515081 0.142509
-0.029456953 -0.12818322 -0.08613436 -0.027240008 -0.037283927 -0.19049434 0.073725514 -0.07276729
0.13194796 0.26118562 0.17468576 0.19098204 0.23607941 0.28906408 0.17063896 -0.024538584
-0.04762829 -0.13681759 -0.2315238 -0.30873305 -0.33140436 -0.2924436 -0.25881535 -0.09475
-0.035345845 -0.28331304 0.022458892 -0.0018813753 -0.27993965 -0.14244054 -0.079001896 -0.20576118
-0.03980708 0.12105686 -0.16472447 0.09378303 0.11594908 0.2691757 -0.052203834 -0.115224935
-0.028498618 0.06405349 0.12691854 0.030155275 0.040066615 0.053734217 0.17435539 -6.801666e-05
-0.091542654 -0.019097598 -0.10358769 -0.1430251 -0.1505988 -0.07312028 -0.09804567 0.035315238
00000000: 9541 33be 2f29 a0bc fd24 f5bd abee a5bd
00000010: db9c 26be d9da 7d3d 51ed a33e 4ea4 f33a
00000020: fce1 abbd 53e5 23be 12ae d0bd 6d0d b1bd
00000030: 20f1 40be 4a1b 3dbe ea73 19be e5d4 8d3e
00000040: 96e0 8ebe 2bd5 89be 3346 27be 1454 10be
00000050: 90a3 abbe 010c 8abe f9b8 f2bd 3080 10be
00000060: 7dbf 15bd c7e3 16bc a25f 1a3e f869 faba
00000070: e98d 423e e27a 703e e7b3 543e 16b0 2b3b
00000080: 8971 303e 2de6 06be 4e0f 7dbd e50f 093e
00000090: 4d53 433d cb18 273d 860f 96bc 7df5 3abe
000000a0: cb25 0bbe 5baa bbbb ef11 433d 56ff 933d
000000b0: e570 c23d 399a 2a3d 3d78 28be 1f84 6e3e
000000c0: 4d68 4ebe d7a6 bcbe beae 16be 0530 c1bd
000000d0: d68b 9cbe 22ae 9abe a158 39be 596e 14bd
000000e0: 61b6 033e a040 403e c0b2 773d 592a 183e
000000f0: 70c9 c83b 864f 13be ee85 b83d e808 953d
00000100: fc2a b8bd 9c5e d9bd 6159 99bc bb30 9a3d
00000110: 6006 a83c 647a 0bbe b0bb 903d 7cdd 373d
00000120: c394 543e d0a6 cf3d 0f6a 633d 31f8 adbd
00000130: 95e7 573e 0500 413e 4463 0ebd e0a1 c13d
00000140: 7589 95be 2109 9cbe 42cd 5fbe 18f3 c0bd
00000150: 4465 babe e0ee 57be 7d93 69be 714d cbbd
00000160: 0168 2dbe 01ad 9f3d 63db 6d3e 8b7b 603e
00000170: ac94 793d 485d c23c a650 883d 4042 723e
00000180: adda 953d 7129 d93d dbe2 78be c673 40be
00000190: 9d85 ab3e e8b2 963d b51c 2e3e d101 983e
000001a0: 14ed 6d3e 1dcc 693e 5afc 4cbe 8427 51be
000001b0: 799b 313d b1fb 4d3e 33b9 e0bc 8164 523e
000001c0: 3446 89be 3284 2dbe 9d4a d9bd 6b74 d2bd
000001d0: f692 24be 0799 933c 3d8d 923d 2498 863d
000001e0: 1579 8d3d db87 b13c bdfa 013e 8bb1 e4bc
000001f0: 1e1c b0bb ede9 4cbc 95fd ba3d fcaa 12bd
00000200: b436 2cbe b2be b03c 5de3 dabd 37b7 3ebe
00000210: be71 fb3d a41d 943d e1ee 47bd b7d6 aa3d
00000220: 6e8f b8bb f340 4c3d 6fdb 013e 9c13 e63d
00000230: a3a3 4abe d840 1dbe c960 eabb 8410 1b3d
00000240: 274e 54bc 6cb1 54be 6148 85be 6651 393d
00000250: d0b4 9fbe ddcf 12bf edf5 10be b21a 2bbe
00000260: d2ec aabe 1636 19be 82ea 9ebe b480 68bd
00000270: f70f c33d 4786 e33d fad7 2f3e a648 633e
00000280: 9cc8 47bb 9318 58be 46ae 17bd 90ca 9b3c
00000290: f5b2 b6be 0ce5 c1be cda3 4fbe 6b6c c0bd
000002a0: 6bb1 b7bc 5428 37be fc01 1fbe 0091 a8bd
000002b0: 2fa5 173d f9c8 883d 6c4c 9dbc 15ea b43c
000002c0: ab07 05bd ee06 1d3e ea01 753e 2e8e 8f3a
000002d0: 7ef0 d73d e4bc 763e 8c78 ec3d 5462 143d
000002e0: 4dd5 8c3d 86dd e83d 1ec6 42bd 625d 0abe
000002f0: 996a b1bd 37c8 85be a9c3 8abe b62c 83be
00000300: ebd0 513d 64d5 c33d 4154 0e3e d691 a33d
00000310: e60c 883d 2d13 4e3e abe8 993d e1ed 113e
00000320: b54f f1bc 7642 03be 3667 b0bd 7026 dfbc
00000330: 08b7 18bd f310 43be 67fd 963d 0407 95bd
00000340: 5e1d 073e 1fba 853e d3e0 323e cc90 433e
00000350: cdbe 713e 3500 943e fbbb 2e3e 2405 c9bc
00000360: e215 43bd e919 0cbe 9314 6dbe 4212 9ebe
00000370: d5ad a9be 2bbb 95be 7283 84be 4a0c c2bd
00000380: cec6 10bd 680e 91be b6fb b73c 7b98 f6ba
00000390: 4054 8fbe efdb 11be bfcb a1bd 0fb3 52be
000003a0: c00c 23bd a9ec f73d 88ad 28be 5111 c03d
000003b0: b676 ed3d 66d1 893e b0d3 55bd 0dfb ebbd
000003c0: ef75 e9bc 7a2e 833d eff6 013e 3208 f73c
000003d0: e41c 243d 6918 5c3d 388a 323e 2ba4 8eb8
000003e0: b77a bbbd 9172 9cbc c825 d4bd 2c75 12be
000003f0: 9236 1abe 16c0 95bd 2bcc c8bd b6a6 103d

conv2.bias f4 [64]
0.38306823 -0.21803062 -0.270532 -0.37046188 0.27171245 -0.17113076 0.20419687 -0.21695897
-0.49104866 0.22164923 -0.45401552 -0.23625004 0.045743886 0.31103754 0.05507465 -0.44927803
1.6668888 0.6642406 -0.094684325 0.34325582 -0.419276 0.31082696 -0.23823893 -0.47327816
-0.36059344 0.36282998 0.02476267 -0.46512696 -0.75667083 0.22286503 0.5624584 0.7567505
0.21722223 0.054899346 0.006036107 0.33692533 -1.1173551 0.66742224 0.14366235 0.027074205
-0.012058425 0.06324298 -0.7564001 0.45322198 0.10709782 0.28997436 0.23810129 -0.10409836
0.011351286 -0.5317467 -0.79970825 0.82117265 -0.11094142 -0.043694 -0.5660586 0.20315251
-0.5187552 0.54747945 0.38374433 -0.057146996 0.63346726 0.12143793 0.11710538 -0.6469721
00000000: 8521 c43e 6b43 5fbe 2c83 8abe 2ead bdbe
00000010: e51d 8b3e e73c 2fbe fc18 513e 7e2a 5ebe
00000020: bb6a fbbe 04f8 623e b974 e8be 88eb 71be
00000030: f15d 3b3d 5040 9f3e f595 613d c507 e6be
00000040: 9d5c d53f ac0b 2a3f dbe9 c1bd 3abf af3e
00000050: 58ab d6be b624 9f3e e8f4 73be 8451 f2be
00000060: b49f b8be dac4 b93e 15db ca3c 1f25 eebe
00000070: 2eb5 41bf bb36 643e 46fd 0f3f 67ba 413f
00000080: 816f 5e3e 23de 603d 89ca c53b 7a81 ac3e
00000090: 7e05 8fbf 2fdc 2a3f 391c 133e b9ca dd3c
000000a0: b390 45bc 8985 813d 70a3 41bf b60c e83e
000000b0: 1a56 db3d 8577 943e d3d0 733e 8531 d5bd
000000c0: bffa 393c 8d20 08bf aeb9 4cbf 5f38 523f
000000d0: 4135 e3bd 7bf8 32bd 37e9 10bf 3607 503e
000000e0: 24cd 04bf 9d27 0c3f 237a c43e f812 6abd
000000f0: e92a 223f 73b4 f83d f2d4 ef3d f79f 25bf

conv3.weight f4 [32, 64, 3, 3]
0.016130915 -0.09158105 -0.16267864 -0.24797493 0.015484144 0.010335595 -0.093799375 0.10447972
-0.019082414 0.032611232 0.13741228 0.08964623 0.027625084 0.26277032 -0.22232467 0.08877996
-0.039218396 -0.21462856 0.18470655 0.24898764 0.25272974 0.17382233 -0.1372769 0.11357686
-0.058172777 -0.03713051 0.2187598 -0.3576988 -0.3195795 -0.27000636 -0.4152113 -0.32940364
-0.2667825 0.03196807 -0.010984613 -0.2804197 0.0048128166 0.029947054 0.06009398 0.050357353
0.11191715 -0.113528125 0.40584514 0.10057815 -0.0067615476 -0.13168328 -0.17006472 0.028821688
0.014315995 -0.3161827 -0.04014124 0.050138254 -0.16660567 -0.022208162 -0.0012342158 0.010912245
0.15569583 0.05118083 0.019525213 0.11125517 0.22417869 -0.007492131 0.12091609 -0.058406983
0.049952917 -0.08280878 0.07618343 -0.049592897 0.030882267 -0.05609662 -0.05314506 0.09372911
0.14143701 0.3334031 0.20945583 0.22292505 -0.028590545 0.12740089 0.3168779 -0.007930042
-0.046840858 -0.13792066 -0.22997656 -0.070758626 -0.098366104 -0.17874762 -0.12948631 0.012260616
-0.09675844 -0.14778115 -0.17231192 -0.07979066 -0.14001441 0.015748354 -0.019226026 -0.11851509
-0.07297421 -0.11895933 -0.09555762 -0.19624044 -0.10038684 -0.058955163 -0.1695765 -0.08050028
-0.08454547 0.10212351 0.008459083 -0.12326576 -0.22814026 -0.002934661 -0.052599747 -0.16516094
-0.16399227 -0.13876778 -0.028341722 -0.15849821 -0.11595925 0.097214796 0.1358337 0.20156126
0.13389549 -0.0028598164 0.06604889 0.15936954 0.11007521 -0.1283812 0.10508577 0.066947065
0.21400166 -0.0083666425 -0.04494363 0.047013108 -0.08895771 -0.06946058 -0.0484062 -0.08353245
-0.07727532 0.046577983 0.13254999 -0.010801578 -0.0025554514 0.14439176 0.054758366 -0.23220462
0.028354296 -0.06677906 0.20450942 -0.095777735 -0.11204025 0.07636933 0.04882627 -0.07989446
-0.052684505 0.115569785 0.102615975 0.14305766 -0.022504242 -0.13602695 -0.20937291 -0.03622763
-0.049971934 -0.04931817 0.04284564 0.054134768 -0.13926275 -0.11606106 -0.10151859 -0.2288638
-0.057436373 0.062974624 -0.071784385 -0.22398013 -0.08411172 -0.070248604 -0.080574 -0.1638752
-0.043603536 -0.19472995 -0.15267973 0.063532695 0.11702687 0.2156065 0.062214646 0.11510939
0.1234984 0.19232464 0.037958574 0.10516228 0.079272225 0.062892206 0.12139254 0.1362654
0.100803174 0.09127805 0.13079113 -0.16987537 -0.080720626 0.09164167 0.007811964 0.04683757
0.07245786 -0.026233694 -0.1518897 -0.19458918 -0.02012616 -0.020630982 -0.046238333 -0.07707004
-0.09775862 0.2461704 -0.07639401 -0.10071995 -0.06371993 -0.03489889 0.08836558 0.026879013
-0.02328515 -0.049624056 0.032856267 -0.020704577 -0.1278295 0.09334647 0.01898 0.04420947
0.070882216 -0.0084963655 0.15131855 0.037584547 -0.08465354 0.08321656 -0.07069875 -0.086601034
-0.06054482 -0.11664903 -0.051399373 -0.16726512 -0.17711478 -0.13672295 -0.07538892 -0.08107723
-0.1960144 -0.09821387 0.07118787 -0.18916626 -0.12629846 -0.16588245 -0.14207318 -0.30979112
-0.188283 -0.0421405 0.013055455 0.015150694 0.061581545 -0.22325453 0.012512674 0.07326201
00000000: fb24 843c d88e bbbd 3b95 26be 24ed 7dbe
00000010: 35b1 7d3c a156 293c e319 c0bd 77f9 d53d
00000020: b952 9cbc 5b93 053d ceb5 0c3e 7198 b73d
00000030: 004e e23c d589 863e 14a9 63be 45d2 b53d
00000040: 78a3 20bd 97c7 5bbe b723 3d3e 9ef6 7e3e
00000050: cb65 813e 7bfe 313e 5192 0cbe fc9a e83d
00000060: 9446 6ebd 2916 18bd 9202 603e 4c24 b7be
00000070: ed9f a3be 463e 8abe 9396 d4be 98a7 a8be
00000080: b797 88be f3f0 023d cef8 33bc 2c93 8fbe
00000090: d5b4 9d3b 8653 f53c 1b25 763d 8343 4e3d
000000a0: d234 e53d 6f81 e8bd efca cf3e ebfb cd3d
000000b0: f98f ddbb fbd7 06be 7225 2ebe 761b ec3c
000000c0: a38d 6a3c b3e2 a1be 246b 24bd c55d 4d3d
000000d0: ad9a 2abe e4ed b5bc 69c5 a1ba 46c9 323c
000000e0: ba6e 1f3e fda2 513d 57f3 9f3c c0d9 e33d
000000f0: 198f 653e 8d80 f5bb dba2 f73d 293c 6fbd
00000100: 6e9b 4c3d a697 a9bd 0f06 9c3d ec21 4bbd
00000110: cffc fc3c 92c5 65bd a2ae 59bd 0cf5 bf3d
00000120: ddd4 103e d0b3 aa3e 977b 563e 7746 643e
00000130: b836 eabc 6175 023e d23d a23e 02ed 01bc
00000140: 33dc 3fbd 133b 0dbe fa7e 6bbe e6e9 90bd
00000150: 2b74 c9bd 9e09 37be 0f98 04be c0e0 483c
00000160: 4a29 c6bd f153 17be 8972 30be 4969 a3bd
00000170: f05f 0fbe b102 813c e67f 9dbc 0ab8 f2bd
00000180: 8173 95bd f3a0 f3bd b7b3 c3bd 41f3 48be
00000190: 9e97 cdbd f87a 71bd 76a5 2dbe 55dd a4bd
000001a0: 2d26 adbd 2126 d13d f797 0a3c c272 fcbd
000001b0: 9a9d 69be 7153 40bb d572 57bd f31f 29be
000001c0: 97ed 27be 2419 0ebe e62c e8bc 5b4d 22be
000001d0: 0b7c edbd 8d18 c73d fd17 0b3e 1366 4e3e
000001e0: e61b 093e c26b 3bbb a444 873d c531 233e
000001f0: 1d6f e13d 5c76 03be 3537 d73d 8b1b 893d
00000200: 4023 5b3e 3e14 09bc d016 38bd d190 403d
00000210: 762f b6bd 5941 8ebd 9445 46bd 1013 abbd
00000220: 8642 9ebd 8ec8 3e3d 2fbb 073e 1af9 30bc
00000230: 5c79 27bb 6fdb 133e 4f4a 603d 0cc7 6dbe
00000240: 4547 e83c 76c3 88bd eb6a 513e 1e27 c4bd
00000250: 5c75 e5bd 8667 9c3d 0efe 473d b59f a3bd
00000260: b5cb 57bd daaf ec3d 5328 d23d b57d 123e
00000270: d15a b8bc a64a 0bbe da65 56be 6c63 14bd
00000280: 5faf 4cbd d901 4abd e97e 2f3d 6bbc 5d3d
00000290: e59a 0ebe 6cb1 edbd fae8 cfbd 465b 6abe
000002a0: 6742 6bbd d7f8 803d b103 93bd 0c5b 65be
000002b0: c442 acbd 80de 8fbd fb03 a5bd e7ce 27be
000002c0: 9f99 32bd 4a67 47be 1358 1cbe 6e1d 823d
000002d0: c9ab ef3d f3c7 5c3e c9d4 7e3d 79be eb3d
000002e0: bbec fc3d c0f0 443e 737a 1b3d 525f d73d
000002f0: 7a59 a23d a1cd 803d a79c f83d 2889 0b3e
00000300: e571 ce3d fcef ba3d 1cee 053e cff3 2dbe
00000310: db50 a5bd a1ae bb3d 81fb ff3b c0d8 3f3d
00000320: c964 943d 0be8 d6bc f988 1bbe 6342 47be
00000330: 9edf a4bc 4e02 a9bc 6864 3dbd e6d6 9dbd
00000340: ac35 c8bd 1814 7c3e 7674 9cbd 4346 cebd
00000350: 987f 82bd 23f2 0ebd 03f9 b43d 6031 dc3c
00000360: 80c0 bebc 9842 4bbd 4b94 063d a59c a9bc
00000370: bde5 02be 6f2c bf3d f27b 9b3c fd14 353d
00000380: b22a 913d 5734 0bbc 40f3 1a3e 41f2 193d
00000390: d65e adbd 726d aa3d 82ca 90bd e25b b1bd
000003a0: d8fd 77bd b0e5 eebd 2688 52bd 8c47 2bbe
000003b0: 945d 35be 1a01 0cbe 8265 9abd d20b a6bd
000003c0: 00b8 48be 5a24 c9bd f2ca 913d cdb4 41be
000003d0: 6254 01be 17dd 29be a27b 11be f19c 9ebe
000003e0: 42cd 40be 849b 2cbd 8ce6 553c 9e3a 783c
000003f0: ee3c 7c3d d69c 64be f501 4d3c 650a 963d

conv3.bias f4 [32]
0.43732816 -0.5874672 1.3234596 0.33517107 0.15325809 1.0150363 -0.10813094 -0.39192548
0.3260616 -0.7467356 0.3974927 -0.482397 0.47905982 0.20859247 0.5172321 0.27831486
0.43596828 -0.24725688 -0.56845963 0.985656 0.30707264 -0.23717287 -0.13211526 0.49182144
1.1471992 2.0012033 -0.45493788 -0.48728552 -0.47069928 0.9785283 -0.55324894 1.3007852
00000000: 7ae9 df3e 4064 16bf 2067 a93f 8b9b ab3e
00000010: b0ef 1c3e b6ec 813f c173 ddbd 75aa c8be
00000020: 8cf1 a63e 102a 3fbf 2a84 cb3e bdfc f6be
00000030: 5447 f53e 4499 553e 5369 043f 497f 8e3e
00000040: 3c37 df3e e830 7dbe 9286 11bf f453 7c3f
00000050: a038 9d3e 72dd 72be 3949 07be 05d0 fb3e
00000060: 6cd7 923f b713 0040 9eed e8be 7d7d f9be
00000070: 7fff f0be d580 7a3f b9a1 0dbf 2180 a63f

fc1.weight f4 [120, 512]
-0.11461508 -0.04654515 0.10677344 0.032944243 -0.029410966 0.033714544 -0.034419965 -0.07496546
-0.076866955 0.03976851 -0.12209079 -0.047287017 0.14960583 -0.091482006 -0.11274505 -0.035947207
-0.27069035 -0.26484296 -0.135811 -0.18428816 -0.057264395 -0.05611967 0.015601095 -0.17151733
-0.11952189 0.005759486 -0.044376206 -0.08651353 -0.24507567 -0.1369616 -0.18050452 -0.0870744
0.18787177 -0.15076913 0.05878932 0.29649732 0.020030534 -0.026256524 0.04164565 0.23355065
-0.04315161 0.0034963866 -0.049841892 0.096914634 0.051321 -0.02848046 0.109282285 -0.022847516
0.0065006297 0.047629673 -0.064482994 0.08720745 -0.123947755 -0.0028455374 0.15394321 0.08118373
0.18930417 0.1648165 0.14788112 0.10413326 0.08391684 0.09495983 0.09046819 -0.0026854007
-0.15139194 -0.11530283 -0.09545994 -0.10102078 -0.15936172 0.029403465 -0.09241771 -0.029821726
-0.08684458 -0.2005418 0.022745328 -0.06860798 -0.1622282 -0.16798048 0.020981845 -0.15981475
-0.20247771 -0.018796083 -0.0035546706 -0.01610938 -0.07464333 0.01525769 0.19128063 0.0014685205
-0.1561668 0.07234126 0.014815619 0.03087207 0.09239336 0.010639102 -0.012025616 0.04691548
-0.003960946 -0.010659182 0.035718825 -0.050930213 0.03627348 -0.061547842 0.038580112 0.037180983
-0.09997109 0.02423066 0.0139046665 0.052167546 -0.1243485 -0.029502211 0.018497871 0.03573886
-0.032163948 0.05196503 0.08570474 0.20009974 0.01657698 0.105012454 0.15617554 0.20674793
-0.13492358 -0.050017174 -0.10896402 0.12257164 -0.14075404 -0.046457656 0.016641328 -0.039238412
-0.09019107 0.031073375 0.10310358 -0.025816381 0.06909138 0.16651419 0.0022785778 0.052101165
0.056012936 -0.022121012 0.058710862 0.11988223 -0.07886525 -0.08168139 -0.14107555 -0.04106752
0.030351011 0.14424287 -0.10436614 -0.07476042 0.19241352 0.00079259847 -0.01598678 -0.022574725
0.1338053 -0.005610594 0.0042309132 0.15195502 0.01978464 -0.15670642 -0.0983753 -0.14054447
-0.026016386 0.09172889 -0.14199416 -0.11192775 -0.045703337 0.05053117 0.06462984 -0.07332189
-0.06959727 0.06876046 0.07702011 0.122261874 -0.014085425 0.021443566 0.053898953 -0.038415674
-0.09417282 -0.0030696169 0.05661034 0.112910934 0.03975049 -0.0011594347 0.016302176 -0.10282263
0.013760092 0.013400658 -0.058938127 -0.09302348 0.006895806 0.0734209 -0.08825999 -0.1661909
-0.19142006 -0.10299096 0.104412526 0.022678124 -0.22114418 -0.014002655 0.015645629 -0.0009651694
-0.18879005 -0.032512125 0.092695035 -0.050624415 0.21995135 -0.17409861 -0.15207049 -0.020334432
-0.11804556 -0.046044316 -0.082754366 -0.104914635 -0.11473119 0.011141691 0.013740408 -0.15476176
-0.16952682 0.06790048 0.049119193 0.05768917 -0.14040393 0.0064772954 0.160707 0.017542839
-0.03431506 0.055746853 -0.09410576 -0.10871427 0.027690344 -0.09743428 0.11059534 -0.054722875
-0.11543186 -0.008299061 0.043538023 -0.08774337 -0.1043769 0.006870209 -0.12650841 -0.09680665
-0.26532367 -0.18146165 -0.02974371 -0.08689059 -0.16481552 -0.07943045 0.10167956 0.015466579
0.06392237 0.005057454 0.09391395 0.20194182 -0.0062876707 0.05482448 0.15054134 0.060859118
00000000: 50bb eabd 21a6 3ebd 09ac da3d 8bf0 063d
00000010: 44ef f0bc 4318 0a3d f3fb 0cbd 7e87 99bd
00000020: 6c6c 9dbd 4ee4 223d bc0a fabd 08b0 41bd
00000030: 4532 193e eb5a bbbd e0e6 e6bd 613d 13bd
00000040: ed97 8abe 7f99 87be 0a12 0bbe 09b6 3cbe
00000050: 128e 6abd bddd 65bd bc9b 7f3c 3da2 2fbe
00000060: e5c7 f4bd 12ba bc3b d3c3 35bd 012e b1bd
00000070: 1ef5 7abe a93f 0cbe 2dd6 38be 1054 b2bd
00000080: 7561 403e 3963 1abe 12cd 703d 7fce 973e
00000090: 1317 a43c ec17 d7bc a194 2a3d e727 6f3e
000000a0: bebf 30bd a223 653b 0327 4cbd 2e7b c63d
000000b0: f835 523d db4f e9bc 64cf df3d b72a bbbc
000000c0: 3c03 d53b 5517 433d a90f 84bd d299 b23d
000000d0: 52d8 fdbd 327c 3abb 4aa3 1d3e a843 a63d
000000e0: f4d8 413e a8c5 283e 266e 173e d243 d53d
000000f0: 98dc ab3d 4d7a c23d 6347 b93d 8cfd 2fbb
00000100: 7d06 1bbe e423 ecbd 8080 c3bd fce3 cebd
00000110: b82f 23be 89df f03c 7f45 bdbd b14c f4bc
00000120: 92db b1bd d45a 4dbe 6954 ba3c 5782 8cbd
00000130: 261f 26be 1303 2cbe 1ee2 ab3c 7aa6 23be
00000140: 5156 4fbe 3efa 99bc 7af5 68bb d2f7 83bc
00000150: 9ade 98bd 64fb 793c 12df 433e 5f7b c03a
00000160: 31ea 1fbe a827 943d 36bd 723c 6ce7 fc3c
00000170: bb38 bd3d a14f 2e3c 1707 45bc 722a 403d
00000180: d3ca 81bb daa3 2ebc e74d 123d 339c 50bd
00000190: 8093 143d 9719 7cbd 2e06 1e3d 164b 183d
000001a0: a5bd ccbd 617f c63c 66d0 633c a3ad 553d
000001b0: 6daa febd 9fae f1bc d988 973c e962 123d
000001c0: 58be 03bd 49d9 543d f785 af3d f2e6 4c3e
000001d0: 72cc 873c c510 d73d 7bec 1f3e bbb5 533e
000001e0: 6829 0abe cfde 4cbd 8728 dfbd d706 fb3d
000001f0: d421 10be 624a 3ebd 6553 883c 75b8 20bd
00000200: 19b6 b8bd 978d fe3c f827 d33d e07c d3bc
00000210: c87f 8d3d b282 2a3e 3154 153b 0868 553d
00000220: d26d 653d 2037 b5bc cd7a 703d d184 f53d
00000230: 1b84 a1bd 9348 a7bd 1c76 10be 6a36 28bd
00000240: afa2 f83c 67b4 133e eabd d5bd fe1b 99bd
00000250: 0d08 453e 62c6 4f3a b5f6 82bc a1ee b8bc
00000260: 4204 093e 13d9 b7bb 79a3 8a3b 199a 1b3e
00000270: 6613 a23c a677 20be fd78 c9bd e4ea 0fbe
00000280: 5120 d5bc 5bdc bb3d eb66 11be 603a e5bd
00000290: 6c33 3bbd c6f9 4e3d a65c 843d c929 96bd
000002a0: 0389 8ebd 49d2 8c3d b8bc 9d3d 6f64 fa3d
000002b0: 8ec6 66bc 6baa af3c 26c5 5c3d c159 1dbd
000002c0: aedd c0bd a02b 49bb 3ee0 673d d93d e73d
000002d0: 69d1 223d 2cf8 97ba 248c 853c ac94 d2bd
000002e0: 0272 613c 6f8e 5b3c 1b69 71bd 1883 bebd
000002f0: 37f6 e13b b25d 963d a7c1 b4bd f32d 2abe
00000300: 9f03 44be edec d2bd 3cd6 d53d 79c7 b93c
00000310: 9f73 62be 646b 65bc 432b 803c 6c03 7dba
00000320: 2e52 41be 6f2b 05bd e5d6 bd3d 8c5b 4fbd
00000330: ed3a 613e e846 32be 5eb8 1bbe 6594 a6bc
00000340: dfc1 f1bd f798 3cbd 1f7b a9bd 7cdd d6bd
00000350: 30f8 eabd a48b 363c 731f 613c de79 1ebe
00000360: 7098 2dbe 680f 8b3d 3531 493d 7b4b 6c3d
00000370: 0cc6 0fbe 7e3f d43b 6090 243e 00b6 8f3c
00000380: f38d 0cbd d056 643d 85ba c0bd 96a5 debd
00000390: dcd6 e23c a08b c7bd cf7f e23d 1825 60bd
000003a0: 8a67 ecbd c9f8 07bc ed54 323d ccb2 b3bd
000003b0: 8ec3 d5bd 7d1f e13b 6c8b 01be 9142 c6bd
000003c0: 81d8 87be 15d1 39be 15a9 f3bc b2f3 b1bd
000003d0: 66c5 28be 6fac a2bd 603d d03d 8967 7d3c
000003e0: bbe9 823d 00b9 a53b f555 c03d d6c9 4e3e
000003f0: ce08 cebb a28f 603d 8227 1a3e 6947 793d

fc1.bias f4 [120]
0.25400585 -0.008634495 0.08497702 -0.057787966 0.1867047 -0.10400832 -0.01717841 0.10067227
0.07147314 -0.023871507 0.4283028 0.08737022 -0.07035558 0.015750758 -0.018809784 0.008039499
0.01701873 0.14150931 0.063482635 0.056937255 -0.07175061 0.008162481 0.13388748 0.33938476
0.029040618 -0.063130215 -0.029929921 -0.0519616 -0.1071944 0.44010225 -0.024582399 -5.1876625e-05
0.06899139 0.15911463 -0.0057286327 0.341329 -0.103530094 0.011847777 -0.0540476 -0.049953103
-0.05949463 0.027644668 0.06519896 0.16438119 -0.035705317 0.08774196 -0.007206788 -0.2421349
-0.09056081 0.015283849 0.125661 -0.052159093 -0.0032079301 -0.20849681 -0.045824002 0.29283008
0.048975058 0.10359449 0.20881872 0.10596839 -0.011879295 0.16973212 -0.03310209 0.0028711054
0.26190555 0.018858692 0.33130407 -0.042953175 0.11219244 0.26120156 0.17639278 0.077863224
0.19636805 0.018022561 0.30803353 0.20371822 -0.23243806 0.029588787 -0.06751078 0.022243474
-0.10832874 0.14695762 -0.072693445 -0.13571244 -0.088524915 0.34984273 -0.044766597 -0.05433137
0.22609018 0.013642417 0.07942109 0.113284536 -0.0224758 0.12445756 0.28485173 0.06877673
0.032150567 0.013631927 0.02124053 0.10203183 0.120265506 0.13290586 0.011310002 0.012128561
-0.031260177 -0.099304974 0.037797935 0.035856113 -0.05801058 0.11178276 0.43488467 -0.10018474
0.039151512 -0.11864377 0.32704854 0.18018821 0.17964223 -0.06657753 -0.16568528 -0.0346114
00000000: 0e0d 823e b277 0dbc 6f08 ae3d 13b3 6cbd
00000010: 842f 3f3e 5002 d5bd bdb9 8cbc 432d ce3d
00000020: 8260 923d 2e8e c3bc 814a db3e 28ef b23d
00000030: 9616 90bd bc07 813c fa16 9abc 1ab8 033c
00000040: dd6a 8b3c d1e7 103e 2f03 823d 0a37 693d
00000050: fcf1 92bd edbb 053c cd19 093e d7c3 ad3e
00000060: 97e6 ed3c 6a4a 81bd 982f f5bc b0d5 54bd
00000070: bd88 dbbd 1555 e13e 0761 c9bc 1a96 59b8
00000080: 5c4b 8d3d f2ee 223e 41b7 bbbb adc2 ae3e
00000090: 9607 d4bd 2e1d 423c 0461 5dbd a09b 4cbd
000000a0: a4b0 73bd 1277 e23c 0887 853d 8b53 283e
000000b0: bd3f 12bd 0fb2 b33d eb26 ecbb 36f2 77be
000000c0: f277 b9bd 1c69 7a3c 47ad 003e c6a4 55bd
000000d0: 233c 52bb 3080 55be f3b1 3bbd d3ed 953e
000000e0: 129a 483d 5929 d43d 93d4 553e f505 d93d
000000f0: 60a1 42bc 42ce 2d3e 0f96 07bd 2829 3c3b
00000100: 7c18 863e 8b7d 9a3c b0a0 a93e abef 2fbd
00000110: 26c5 e53d 36bc 853e 4fa0 343e c176 9f3d
00000120: b514 493e 0da4 933c 92b6 9d3e 829b 503e
00000130: 3e04 6ebe 2f64 f23c 1843 8abd f237 b63c
00000140: 75db ddbd 0f7c 163e 4de0 94bd 34f8 0abe
00000150: 8d4c b5bd 961e b33e 2e5d 37bd 928a 5ebd
00000160: 2f84 673e 7284 5f3c 86a7 a23d b901 e83d
00000170: 2b1f b8bc 9be3 fe3d 16d8 913e d0da 8c3d
00000180: 50b0 033d 7258 5f3c 9f00 ae3c 10f6 d03d
00000190: c34d f63d 7918 083e 964d 393c dfb6 463c
000001a0: ac0a 00bd 6860 cbbd 02d2 1a3d dcdd 123d
000001b0: 809c 6dbd 5cee e43d 34a9 de3e a82d cdbd
000001c0: 565d 203d 81fb f2bd e872 a73e 4283 383e
000001d0: 22f4 373e cd59 88bd 67a9 29be afc4 0dbd

fc2.weight f4 [84, 120]
0.08600055 -0.3030167 0.023747051 0.026441047 0.108664185 -0.16544771 -0.104876526 0.004235308
0.06450872 0.06850977 -0.008393779 0.103010274 -0.010621144 0.0927971 -0.021429606 -0.055424057
-0.23136824 -0.006998776 0.22756232 -0.14727175 -0.15203837 -0.008266319 0.044476442 0.041302323
-0.12746723 -0.055708356 -0.07286947 -0.091146134 0.19294497 0.14895184 -0.057668198 -0.12001763
-0.031496733 -0.03346866 -0.027886277 -0.12436844 -0.033513375 -0.093120314 -0.22525461 0.013506784
0.037582535 -0.061602682 -0.068098284 0.0040739817 -0.022014732 0.11838345 -0.012547595 -0.1599153
-0.059968263 -0.0551917 0.11009563 0.06131182 0.07071445 -0.26543853 0.06335578 -0.09570768
-0.022586 0.052957244 -0.04780635 0.032741766 -0.10718418 -0.074292935 -0.025059212 -0.08539261
-0.07015889 -0.053234696 0.14829378 0.048940074 0.16231671 0.104775354 0.13124855 0.11188192
-0.051955353 -0.00855037 -0.08502371 -0.061988395 -0.22537294 -0.015097209 0.1377149 0.16969298
0.015828425 -0.24827354 0.019272683 0.14650035 -0.05157639 -0.20357041 0.02853377 -0.12874258
-0.11599185 -0.12971976 -0.024772378 -0.07490132 -0.08127603 0.04653099 0.08963376 0.034561425
0.07184528 0.1032391 -0.095978476 -0.1492431 -0.109241575 -0.15212266 -0.18480752 0.024984246
0.0043107034 -0.046421453 0.028205045 -0.025901651 -0.14353672 -0.041433275 0.2582953 0.16089831
-0.027675474 0.026688304 -0.038401585 0.23536327 -0.10725891 -0.23366857 0.06997901 -0.12058456
0.12069452 0.046047784 0.059246723 -0.08427297 0.0019628918 -0.12935773 -0.08139837 -0.1891343
0.067962654 0.052901044 -0.021356164 0.20881315 0.18620466 0.2051132 -0.20887789 -0.17485085
-0.18494456 0.0050045997 -0.094383284 0.12981415 -0.16062932 -0.2386206 0.25198254 0.07965642
0.05145527 -0.2625898 -0.16530482 0.042480823 0.16691199 0.26126894 -0.11521219 -0.04207901
0.025686106 -0.07668962 -0.03216998 -0.09776883 -0.14097278 -0.146342 -0.07776731 -0.019713322
-0.1506952 0.12271976 -0.03883544 0.22076406 -0.01946535 0.079715475 -0.057932988 -0.10609977
-0.037897367 0.11318222 0.023387352 0.010795537 0.13586678 -0.16326346 -0.04974292 0.2285461
-0.08148254 -0.18414056 0.06653294 -0.13350756 0.05655518 0.026446596 -0.116516925 0.0012304194
-0.1161455 -0.08905262 0.074199274 -0.02969296 0.06433201 -0.15490682 -0.04687556 0.085741706
-0.011045594 0.2146216 -0.09174349 -0.11225239 -0.22310637 0.06079213 0.17128989 -0.26355082
-0.20795768 0.018520886 0.020017426 -0.15593994 0.013815427 0.062323686 0.086344786 0.09245083
0.16419913 -0.21926495 0.018122403 -0.004303944 0.041764688 0.08719198 -0.0048213094 0.15391047
0.014353417 -0.108448856 0.13650578 0.04111802 -0.047695775 0.12811261 -0.047101744 -0.11546367
0.085676715 -0.053393822 -0.11822872 0.054298114 0.17235793 0.15105236 0.14922504 -0.092187785
0.12841944 -0.02635583 0.12384739 0.008977232 0.02589423 -0.08260417 -0.0457034 -0.06985933
0.13634259 0.19981556 -0.09091354 0.073078796 -0.119273506 0.19401462 -0.12029834 0.20489934
-0.016379422 0.023766853 -0.06141173 0.048212476 -0.049229607 -0.03785865 0.043522503 0.05528388
00000000: 0e21 b03d 0125 9bbe 2d89 c23c e59a d83c
00000010: 548b de3d 206b 29be 81c9 d6bd 57c8 8a3b
00000020: 261d 843d da4e 8c3d 1086 09bc 0df7 d23d
00000030: 4f04 2ebc 680c be3d 248d afbc 5604 63bd
00000040: cceb 6cbe fd55 e5bb 1906 693e 68ce 16be
00000050: f2af 1bbe 746f 07bc ee2c 363d a02c 293d
00000060: c586 02be 722e 64bd 973c 95bd d3aa babd
00000070: 5e93 453e d586 183e 7d35 6cbd cecb f5bd
00000080: b802 01bd 6f16 09bd c371 e4bc e1b4 febd
00000090: 5245 09bd ddb5 bebd 25a9 66be 8f4b 5d3c
000000a0: 25f0 193d 1853 7cbd 1d77 8bbd 097f 853b
000000b0: 3d58 b4bc 0673 f23d 6e94 4dbc d6c0 23be
000000c0: 48a1 75bd b110 62bd d179 e13d 1a22 7b3d
000000d0: bdd2 903d 8fe7 87be adc0 813d 6302 c4bd
000000e0: 4606 b9bc b2e9 583d 97d0 43bd 3b1c 063d
000000f0: 6183 dbbd e526 98bd fa48 cdbc 52e2 aebd
00000100: 77af 8fbd a00c 5abd 53da 173e 6375 483d
00000110: 5a36 263e 7694 d63d 0566 063e 5922 e53d
00000120: 23cf 54bd da16 0cbc e920 aebd 8be7 7dbd
00000130: 2ac8 66be 495a 77bc 2205 0d3e ffc3 2d3e
00000140: 9daa 813c 6b3b 7ebe bfe1 9d3c 3004 163e
00000150: c441 53bd c374 50be a7bf e93c 18d5 03be
00000160: 238d edbd 42d5 04be 71ef cabc dd65 99bd
00000170: 0c74 a6bd 4897 3e3d e891 b73d 4890 0d3d
00000180: 9e23 933d 056f d33d 5d90 c4bd 2fd3 18be
00000190: 0cba dfbd 0bc6 1bbe 2f3e 3dbe c3ab cc3c
000001a0: cd40 8d3b 6c24 3ebd 440e e73c b32f d4bc
000001b0: 4afb 12be f0b5 29bd 483f 843e 87c2 243e
000001c0: adb7 e2bc 6ea1 da3c fb4a 1dbd 1203 713e
000001d0: 8faa dbbd d046 6fbe 2851 8f3d 0af5 f6bd
000001e0: b02e f73d 9a9c 3c3d b1ac 723d 4f97 acbd
000001f0: dca3 003b 5a76 04be 30b4 a6bd 6cac 41be
00000200: 0130 8b3d c4ae 583d 1ff3 aebc 1dd3 553e
00000210: 6fac 3e3e 3209 523e 16e4 55be 1a0c 33be
00000220: 1b62 3dbe a0fd a33b 064c c1bd 00ee 043e
00000230: 037c 24be f558 74be db03 813e e822 a33d
00000240: c3c2 523d 2c72 86be ab45 29be 5f00 2e3d
00000250: faea 2a3e 0bc5 853e 5ef4 ebbd 0a5b 2cbd
00000260: ab6b d23c 730f 9dbd abc4 03bd 063b c8bd
00000270: 2b5b 10be adda 15be 7844 9fbd d57d a1bc
00000280: d84f 1abe 7f54 fb3d e911 1fbd f90f 623e
00000290: cc75 9fbc de41 a33d 244b 6dbd d64a d9bd
000002a0: 453a 1bbd 14cc e73d d596 bf3c c4df 303c
000002b0: a920 0b3e 892e 27be 3bbf 4bbd fd07 6a3e
000002c0: 51e0 a6bd 588f 3cbe 6c42 883d 35b6 08be
000002d0: 68a6 673d 88a6 d83c 6da0 eebd 0646 a13a
000002e0: b1dd edbd 3861 b6bd caf5 973d a73e f3bc
000002f0: 80c0 833d e59f 1ebe 9600 40bd 5999 af3d
00000300: 94f8 34bc c4c5 5b3e 03e4 bbbd 95e4 e5bd
00000310: ff75 64be 2b01 793d 9e66 2f3e 22f0 86be
00000320: dcf2 54be 1db9 973c 96fb a33c b8ae 1fbe
00000330: 1a5a 623c 1f47 7f3d 89d5 b03d dc56 bd3d
00000340: d123 283e fe86 60be 6f75 943c 1908 8dbb
00000350: 7311 2b3d b591 b23d 13fc 9dbb b59a 1d3e
00000360: 982a 6b3c 6f1a debd 2cc8 0b3e 5e6b 283d
00000370: a55c 43bd f42f 033e c2ed 40bd 3778 ecbd
00000380: 4677 af3d 7bb3 5abd e621 f2bd b367 5e3d
00000390: 997e 303e 78ad 1a3e 73ce 183e f3cc bcbd
000003a0: 6380 033e 2ee8 d7bc b3a3 fd3d 3d15 133c
000003b0: 2320 d43c 602c a9bd 7d33 3bbd 6912 8fbd
000003c0: 649d 0b3e 739c 4c3e e130 babd 56aa 953d
000003d0: ab45 f4bd c5ab 463e fa5e f6bd 22d1 513e
000003e0: 232e 86bc b4b2 c23c de8a 7bbd 727a 453d
000003f0: fca4 49bd ac11 1bbd a744 323d 5a71 623d

fc2.bias f4 [84]
0.019478628 0.15266256 0.12229964 0.042502306 0.36531082 -0.06346191 0.45604202 -0.0007840383
-0.049256362 -0.051805656 0.031003168 -0.057781436 0.08551087 0.23066089 -0.026257329 0.13161647
-0.10077527 0.6206591 -0.19154468 0.008868976 0.10488407 0.11685999 0.2620276 0.4690884
-0.020646688 0.4299549 -0.007098374 0.39284822 0.09470822 0.11284275 0.095534526 0.52573985
0.5542493 0.0077371914 0.3190792 0.041720573 -0.026836123 -0.045502607 -0.14050682 0.12035495
-0.17034024 0.1824663 0.054788314 0.23555736 0.048964053 -0.12069418 0.21671577 0.8711931
-0.062032454 0.65071404 0.25721413 0.2688838 0.029723596 0.105193354 -0.10093242 -0.054771293
0.077334054 0.07687022 -0.0133524565 -0.04473681 -0.047588762 0.10653394 0.16596964 -0.024664212
0.31288075 0.32988656 0.11983784 -0.068832114 0.019830396 0.30754077 -0.109188326 -0.019669773
0.5796929 0.08048507 0.3838548 0.10312159 0.29713055 0.65719163 -0.12427927 0.28793845
0.40622494 0.012156696 0.12195593 -0.05281618
00000000: a591 9f3c 9353 1c3e 3c78 fa3d e616 2e3d
00000010: 050a bb3e 51f8 81bd 577e e93e eb87 4dba
00000020: 0ac1 49bd 2b32 54bd 5bfa fd3c 3aac 6cbd
00000030: 5320 af3d 5e32 6c3e 9c19 d7bc 78c6 063e
00000040: 4463 cebd 84e3 1e3f 4a24 44be 2e4f 113c
00000050: 76cd d63d 4a54 ef3d 7b28 863e 5b2c f03e
00000060: 3e23 a9bc 0c23 dc3e 7a99 e8bb 6723 c93e
00000070: 62f6 c13d 1a1a e73d 9ba7 c33d e396 063f
00000080: 48e3 0d3f 4488 fd3b 595e a33e 31e3 2a3d
00000090: 6ed7 dbbc f160 3abd 05e1 0fbe a87c f63d
000000a0: ac6d 2ebe 72d8 3a3e b669 603d f335 713e
000000b0: 888e 483d 832e f7bd bdea 5d3e 8306 5f3f
000000c0: be15 7ebd 3295 263f 92b1 833e 23ab 893e
000000d0: e67e f33c 9d6f d73d a8b5 cebd dd57 60bd
000000e0: 5161 9e3d 226e 9d3d 43c4 5abc f23d 37bd
000000f0: 6fec 42bd 772e da3d f2f3 293e 9a0c cabc
00000100: e831 a03e e4e6 a83e 8b6d f53d daf7 8cbd
00000110: 5b73 a23c fc75 9d3e 219e dfbd 8122 a1bc
00000120: c166 143f 5bd5 a43d 9e88 c43e 6a31 d33d
00000130: 7f21 983e b63d 283f 2186 febd ab6c 933e
00000140: b7fc cf3e e12c 473c 08c4 f93d c755 58bd

fc3.weight f4 [10, 84]
-0.18758526 0.06431741 0.23016898 -0.24515289 -0.0833399 0.010339564 -0.20418867 0.11313696
0.05341446 0.0604452 0.1301358 -0.0054022186 0.2297836 0.106640585 0.020767402 0.2264037
0.31584057 -0.1716809 0.232383 0.16985568 0.22842321 0.037468195 -0.09056904 -0.52123314
-0.22270395 -0.08475072 0.17906797 -0.30996907 0.20453736 0.21496806 -0.23033306 0.040531665
-0.16696982 0.18728925 -0.06798646 -0.033788454 0.1465983 0.042334832 -0.08001753 0.08521719
0.04642565 0.089953974 -0.20041741 0.106253155 -0.081670456 -0.1840122 0.036310747 -0.48582113
-0.15067455 0.08932384 -0.13389142 0.27369288 -0.27316353 -0.20953672 -0.02767271 -0.04651833
0.060509328 0.29248783 0.06409236 -0.12393162 -0.029573098 -0.25896186 0.020675166 -0.006477594
-0.29364935 -0.13021196 -0.16637178 -0.21872361 0.040423267 0.18995485 -0.18041252 -0.06729239
-0.13386123 -0.06874129 0.19797336 -0.06794161 0.24460906 -0.54122424 0.28076753 -0.07855722
0.16636688 -0.2528145 0.18589032 0.28458259 -0.025646036 0.21220692 0.14974716 0.068715036
-0.22472072 -0.13973391 -0.25640428 -0.117567986 0.33658066 0.23788089 -0.2242634 -0.09190049
-0.13867739 -0.21429642 0.09398527 -0.07479985 -0.028968912 -0.25003764 -0.09433891 0.08045872
-0.028713785 -0.2446834 -0.29342508 -0.03084382 0.11914188 -0.29149294 0.207498 -0.12869902
-0.056399703 0.027995996 0.33738902 -0.28114697 -0.20724602 0.15241815 -0.23832373 0.06630825
-0.15187046 0.1304419 0.305283 -0.20141353 0.23941211 0.2554457 0.14684846 0.27946225
0.033850685 0.2854385 -0.25452092 -0.07285181 -0.13965455 -0.5117592 -0.27115366 -0.2690734
-0.25989404 0.06875579 0.05051858 0.12501998 -0.13194408 0.23029135 -0.12473483 0.15528166
0.06494524 0.13599032 -0.3489562 0.23677833 -0.22173086 0.12368883 -0.040504266 -0.023204168
-0.044469718 -0.30819362 0.17607734 0.1514993 -0.029725704 0.01917798 -0.49021348 -0.055759065
-0.022337018 -0.059693664 0.4515923 0.099844344 -0.0066936137 -0.055549007 0.19293004 0.004892692
0.117080584 -0.37041152 -0.29702002 -0.040778432 0.104775004 0.24065824 0.3062848 0.2667787
0.12766851 0.1638041 0.2572968 -0.003755785 -0.19082312 0.26442453 0.13316558 -0.08042334
0.1542233 0.09916099 0.22277963 -0.17667474 -0.11809708 0.19073397 -0.006423437 0.21536496
0.061142843 -0.12728739 -0.22835948 -0.091876484 -0.2564579 0.07114362 -0.21232226 -0.1767197
0.2526912 0.03173016 0.22337109 0.08500277 0.26309142 0.21548769 0.1304762 0.0142017715
0.06458676 -0.14783409 -0.010906314 -0.30507475 0.023724385 -0.021370469 -0.38310465 0.27142587
0.027264148 0.18041982 0.19409336 0.082471974 0.17241663 0.17585447 -0.080690525 0.0036656791
-0.047521174 -0.17703609 -0.11045483 -0.07593081 0.13627706 -0.21555977 0.2452007 -0.060214806
0.25314385 0.23059137 -0.057590604 0.068871096 0.21710058 0.17254986 -0.12418792 0.18479791
-0.26229382 -0.06543737 0.21438746 -0.05771312 0.20720361 -0.022377744 0.073020324 -0.04488512
-0.17829064 0.16075875 -0.22554745 0.2440561 0.2616485 -0.13365969 0.0068456368 0.07765299
00000000: 5a16 40be d9b8 833d 6bb1 6b3e 5c09 7bbe
00000010: 1cae aabd 4667 293c d616 51be 5ab4 e73d
00000020: 1fc9 5a3d 6395 773d 5242 053e 1805 b1bb
00000030: 644c 6b3e 6166 da3d 6620 aa3c 5fd6 673e
00000040: dbb5 a13e 1ecd 2fbe cff5 6d3e a6ee 2d3e
00000050: c6e7 693e 4078 193d 437c b9bd 896f 05bf
00000060: 810c 64be c991 adbd 985d 373e 44b4 9ebe
00000070: 3e72 513e 9620 5c3e 6edc 6bbe 8804 263d
00000080: 23fa 2abe c1c8 3f3e 7c3c 8bbd c365 0abd
00000090: dd1d 163e 4a67 2d3d 3be0 a3bd 5a86 ae3d
000000a0: d328 3e3d ca39 b83d 393a 4dbe 419b d93d
000000b0: d742 a7bd b26d 3cbe 94ba 143d 8cbd f8be
000000c0: 6e4a 1abe 6bef b63d d51a 09be 7921 8c3e
000000d0: 17dc 8bbe cb90 56be e1b1 e2bc 018a 3ebd
000000e0: a1d8 773d f7c0 953e db42 833d dccf fdbd
000000f0: 4843 f2bc a696 84be f75e a93c ff41 d4bb
00000100: 3559 96be 4956 05be 5d5d 2abe 15f9 5fbe
00000110: de92 253d 8683 423e 0fbe 38be 98d0 89bd
00000120: eb12 09be 3cc8 8cbd 87b9 4a3e f924 8bbd
00000130: cc7a 7a3e ac8d 0abf c3c0 8f3e 9ce2 a0bd
00000140: 145c 2a3e e770 81be 085a 3e3e cfb4 913e
00000150: a317 d2bc c54c 593e 5257 193e 78ba 8c3d
00000160: 301d 66be 6816 0fbe 6c47 83be 7cc7 f0bd
00000170: 4d54 ac3e 0c97 733e 4ea5 65be 5336 bcbd
00000180: 7201 0ebe 8570 5bbe 597b c03d aa30 99bd
00000190: 3650 edbc ef04 80be c234 c1bd 8bc7 a43d
000001a0: 2c39 ebbc 498e 7abe d03b 96be 2eac fcbc
000001b0: a800 f43d 903e 95be 5b7a 543e adc9 03be
000001c0: 6003 67bd dc57 e53c 41be ac3e 7ff2 8fbe
000001d0: 4d38 54be 8113 1c3e 230b 74be 9fcc 873d
000001e0: ee83 1bbe 9092 053e 0e4e 9c3e 593f 4ebe
000001f0: 7328 753e c7c9 823e 715f 163e ad15 8f3e
00000200: 04a7 0a3d ff24 923e 9150 82be 5433 95bd
00000210: 9a01 0fbe a702 03bf a7d4 8abe fdc3 89be
00000220: d510 85be d6cf 8c3d 92ec 4e3d 3d05 003e
00000230: 591c 07be 7fd1 6b3e f974 ffbd 2802 1f3e
00000240: 0302 853d 0c41 0b3e 63aa b2be 0576 723e
00000250: 6a0d 63be 9250 fd3d cde7 25bd ab16 bebc
00000260: e125 36bd 8ecb 9dbe 9e4d 343e a222 1b3e
00000270: 5283 f3bc 241b 9d3c 43fd fabe 9e63 64bd
00000280: 1ffc b6bc 5881 74bd 1b37 e73e 317b cc3d
00000290: 1a56 dbbb 5b87 63bd 748f 453e e052 a03b
000002a0: f2c7 ef3d 94a6 bdbe 0213 98be 4907 27bd
000002b0: 4794 d63d 1d6f 763e 5cd1 9c3e 3897 883e
000002c0: 89bb 023e 43bc 273e 68bc 833e 9e23 76bb
000002d0: 2367 43be a762 873e 8f5c 083e feb4 a4bd
000002e0: b6ec 1d3e eb14 cb3d 5820 643e 39ea 34be
000002f0: e2dc f1bd c44f 433e b27b d2bb a288 5c3e
00000300: eb70 7a3d a057 02be 11d7 69be bd29 bcbd
00000310: 734e 83be bfb3 913d 026b 59be 02f6 34be
00000320: be60 813e 7cf7 013d 64bb 643e ef15 ae3d
00000330: ebb3 863e cea8 5c3e 8e9b 053e 8cae 683c
00000340: 1046 843d d261 17be 65b0 32bc c232 9cbe
00000350: a459 c23c 1f11 afbc 4b26 c4be 55f8 8a3e
00000360: 1059 df3c f9bf 383e 69c0 463e 11e7 a83d
00000370: fc8d 303e 3213 343e 1341 a5bd e43b 703b
00000380: 90a5 42bd f348 35be 2436 e2bd 9d81 9bbd
00000390: 378c 0b3e b3bb 5cbe e415 7b3e cda3 76bd
000003a0: 129c 813e 2520 6c3e 20e4 6bbd 4a0c 8d3d
000003b0: 9d4f 5e3e e9b0 303e 3c56 febd aa3b 3d3e
000003c0: 604b 86be 0704 86bd 6388 5b3e 9864 6cbd
000003d0: 2f2d 543e 8851 b7bc ae8b 953d 76d9 37bd
000003e0: d291 36be f19d 243e e9f5 66be d8e9 793e
000003f0: cbf6 853e 16de 08be 5d51 e03b 8808 9f3d

fc3.bias f4 [10]
-0.057979386 -0.97638166 -0.33742583 0.654082 0.76943105 0.1866145 0.24174966 0.0416756
-0.3235321 -0.2560543
00000000: cb7b 6dbd 26f4 79bf 14c3 acbe eb71 273f
00000010: 6ff9 443f df17 3f3e 398d 773e 09b4 2a3d
00000020: 00a6 a5be 8d19 83be
