models/71_cnn_cq.pth (torch, 436098 bytes, 12 tensors)

conv1.weight f4 [16, 3, 3, 3]
0	0x3f734455	0.9502614
1	0x3f5dc8f6	0.8663477
2	0x3f561025	0.83618385
3	0xbe510679	-0.20412625
4	0x3d37b149	0.044846807
5	0x3da4a3f1	0.08039082
6	0xbf578b7c	-0.8419721
7	0xbf807f1b	-1.003879
8	0xbf548b6d	-0.83025247
9	0x3e1f3eb6	0.15551266
10	0x3eafa072	0.34302098
11	0x3e6157e0	0.22006178
12	0xbd5a8cf0	-0.053357065
13	0xbe1832cb	-0.14863126
14	0xbdca5d7b	-0.09881111
15	0xbe83cfc0	-0.25744438
16	0xbe715dc5	-0.23570926
17	0xbe9a2519	-0.30106428
18	0xbe591067	-0.21197663
19	0xbeb126a4	-0.34599793
20	0xbdb9f326	-0.0907958
21	0xbe6df5f4	-0.23238355
22	0xbe978f5c	-0.29601562
23	0xbdbdba41	-0.09264041
24	0x3ee3818e	0.4443478
25	0x3f11083f	0.5665321
26	0x3ef11e52	0.47093445
27	0xbe7d92dc	-0.24763054
28	0x3ebbbced	0.36667576
29	0x3c093b02	0.008375885
30	0x3dfc6b53	0.12325158
31	0x3f05ec36	0.52313554
32	0xbf1fb6e5	-0.6238845
33	0x3ec44093	0.38330516
34	0x3e0b92f0	0.13630271
35	0xbf0281c2	-0.50979245
36	0x3e8dd98d	0.2770504
37	0x3e9a8df1	0.30186418
38	0xbf025a17	-0.50918716
39	0x3e9ab583	0.30216607
40	0x3e8feb9c	0.28109443
41	0xbf18fdbe	-0.5976218
42	0x3effcaf7	0.49959537
43	0x3e632d81	0.22185327
44	0xbf4d86ab	-0.8028361
45	0x3d806b42	0.06270458
46	0x3e283f0c	0.164303
47	0xbefdb7b5	-0.4955422
48	0x3d883471	0.066506274
49	0x3eefb9a1	0.4682131
50	0xbf2111c0	-0.6291771
51	0x3e54ed53	0.20793657
52	0x3eca767a	0.39543515
53	0xbf042299	-0.5161529
54	0xbed8969f	-0.42302415
55	0xbe49469f	-0.19655846
56	0xbec77de2	-0.38963228
57	0xbe041b64	-0.12901074
58	0xbf5fd5fe	-0.874359
59	0x3ddf222d	0.108951904
60	0x3e1f1f51	0.1553929
61	0xbf8dadc0	-1.1068649
62	0x3ebda64b	0.37040934
63	0x3ed76430	0.42068624
64	0x3f18e5e0	0.5972576
65	0x3d826aa3	0.063679956
66	0x3f63fc76	0.890571
67	0x3eb8fdfa	0.3613127
68	0x3f73aab3	0.9518234
69	0x3f62fe89	0.8866964
70	0x3c8138a4	0.015774079
71	0x3f3ad59c	0.7298219
72	0xbf04a474	-0.51813436
73	0x3e5025c3	0.20326905
74	0xbf01e2fa	-0.50736964
75	0x3ccb0e97	0.02478723
76	0xbf27fd61	-0.65621
77	0xbdedbfb4	-0.1160883
78	0x3ce54a3c	0.0279895
79	0xbf861136	-1.0474002
80	0x3c30ed7e	0.01079881
81	0x3fb850d1	1.4399663
82	0xbf2e22d0	-0.6802187
83	0xbf1423cf	-0.5786714
84	0xbf34d88e	-0.70642936
85	0xbe05f663	-0.1308227
86	0x3f30bd71	0.69039065
87	0xbecf7735	-0.40520635
88	0x3f24071e	0.6407336
89	0xbe65c679	-0.22438993
90	0x3fa5b1f9	1.2944938
91	0xbf21e054	-0.6323292
92	0xbf088f9b	-0.53344125
93	0xbf7bfa1b	-0.98428506
94	0x3d1b973a	0.037986018
95	0x3f3a336e	0.72734725
96	0xbf116d36	-0.5680727
97	0x3f1b2bdf	0.60613817
98	0xbcac9a5b	-0.021069696
99	0x3f867ec0	1.0507431
100	0xbf3de805	-0.7418216
101	0xbf696728	-0.9117303
102	0xbeeb95ce	-0.4601273
103	0x3cd599ac	0.026074253
104	0x3f501875	0.8128732
105	0xbec25682	-0.37956625
106	0x3f46f385	0.7771533
107	0x3c7ae93e	0.015314398
108	0xbe7933f2	-0.24336222
109	0x3f4b2957	0.79359955
110	0xbf0d14a8	-0.55109644
111	0xbed8af4a	-0.42321235
112	0x3f81a23b	1.0127634
113	0xbf2ac83a	-0.6671177
114	0xbf0c3085	-0.54761535
115	0x3f0f6c04	0.56024194
116	0xbe03c6cf	-0.12868808
117	0xbf1581d7	-0.58401245
118	0x3f36efd1	0.7145968
119	0x3c31d87f	0.010854839
120	0xbf636696	-0.8882841
121	0x3f7f9431	0.998355
122	0xbdad39d6	-0.08458297
123	0xbf86c76c	-1.0529609
124	0x3f1b2951	0.6060992
125	0x3e1a76a7	0.15084325
126	0xbe6637b2	-0.22482184
127	0x3f2010e7	0.6252579
128	0xbeb3f23f	-0.35145757
129	0xbf1abf52	-0.6044818
130	0x3f948211	1.1602193
131	0xbef7aa88	-0.48372293
132	0xbf3b4951	-0.73158747
133	0x3f455bc5	0.77093154
134	0x3c9307b7	0.017948015
135	0x3efc00e6	0.49219435
136	0x3ea7ec06	0.3279726
137	0xbe240ed1	-0.16021277
138	0x3d0344d5	0.032048065
139	0x3e85d7ae	0.26141113
140	0x3e92b8a6	0.286565
141	0xbe37f57d	-0.1796474
142	0xbd2b0826	-0.041755818
143	0x3db2f244	0.08737615
144	0xbda9822e	-0.08276783
145	0xbe32f38b	-0.17475717
146	0xbef42dca	-0.47691184
147	0xbe10bd5f	-0.1413474
148	0x3ea7f975	0.32807508
149	0x3e6bfc9e	0.23045585
150	0xbe6ca286	-0.23108873
151	0xbe361191	-0.17780139
152	0x3e9c0458	0.30472064
153	0x3e6e9c69	0.23301853
154	0x3e617b2c	0.22019643
155	0xbec6b249	-0.38807896
156	0x3d6924aa	0.05691973
157	0x3f05b2c7	0.5222592
158	0x3e31180c	0.1729433
159	0xbe5d7724	-0.2162748
160	0xbdef14fb	-0.116739236
161	0x3e9fc310	0.31203508
162	0xbf0bb4d9	-0.54572827
163	0x3d13cb0a	0.036082305
164	0x3d9d2645	0.07673315
165	0x3f8aece9	1.0853549
166	0x3f2332f3	0.6374962
167	0xbeb6a589	-0.35673168
168	0xbedf3358	-0.4359386
169	0xbf7139e7	-0.94228977
170	0x3ded514e	0.11587773
171	0xbf172a8c	-0.59049296
172	0x3ea61a99	0.32442167
173	0x3df8fd51	0.12157691
174	0x3f9bd5be	1.2174604
175	0x3f8df72c	1.1091056
176	0x3d61c8cb	0.05512313
177	0xbf11758f	-0.56820005
178	0xbf8a9bf7	-1.0828847
179	0xbde943f8	-0.11389917
180	0xbf7c8ed9	-0.9865547
181	0xbee13946	-0.4398901
182	0xbe083598	-0.13301694
183	0x3f9a2eea	1.2045567
184	0x3f779074	0.9670479
185	0x3e60a42b	0.21937625
186	0xbebb7648	-0.3661368
187	0xbf57b794	-0.84264493
188	0x3e3adceb	0.18248336
189	0xbf5e8bf3	-0.86932296
190	0xbf85e617	-1.0460843
191	0xbf28eda0	-0.65987587
192	0x3e883df2	0.2660976
193	0x3c9fd61b	0.019511273
194	0xbee2aeb1	-0.44273904
195	0x3f31a925	0.6939872
196	0x3f67676d	0.9039219
197	0x3f547f42	0.8300668
198	0xbe81811d	-0.25293818
199	0xbde28f39	-0.11062474
200	0xbde97437	-0.11399119
201	0x3f038a9f	0.51383394
202	0xba25ff95	-0.0006332335
203	0xbe0f2b55	-0.13981374
204	0x3dbd7bce	0.092521295
205	0x3e818200	0.25294495
206	0x3edf1825	0.43573108
207	0xbde0009a	-0.10937615
208	0x3d87073a	0.06593175
209	0x3eb21fa0	0.34789753
210	0x3e09594c	0.1341297
211	0xbdbe32d1	-0.09287036
212	0xbea26e13	-0.31724605
213	0xbe2627f1	-0.16226174
214	0xbe027000	-0.12738037
215	0xbd277af2	-0.040888734
216	0x3e959ca7	0.2922108
217	0xbe44cab9	-0.19217958
218	0x3e17b71c	0.14815944
219	0xbea9833c	-0.33107936
220	0xbf332ccf	-0.6999025
221	0xbf038a58	-0.5138297
222	0xbeaae853	-0.33380374
223	0xbf3241ca	-0.69631636
224	0xbebba8cc	-0.3665222
225	0xbc19f80c	-0.009397518
226	0x3d777d64	0.060422316
227	0xbb4b37c7	-0.0031008588
228	0x3e2ac280	0.16675758
229	0x3e8fd1e6	0.28089827
230	0x3e360a1c	0.17777294
231	0xbe4d128b	-0.20026605
232	0x3e0c7884	0.13717848
233	0x3e17ecc3	0.14836411
234	0xbe42e69b	-0.19033282
235	0x3e1dec01	0.1542206
236	0x3d3bd2f8	0.045855492
237	0x3ecab399	0.39590147
238	0x3f0e77c2	0.55651486
239	0x3e9afea6	0.30272406
240	0x3e3014d9	0.17195453
241	0x3ed8251b	0.4221581
242	0x3f09bedc	0.53806853
243	0x3ca038d2	0.019558344
244	0xbe93e96f	-0.28889033
245	0x3b8c01e3	0.004272686
246	0x3d7e6dba	0.062116362
247	0xbe81cff3	-0.25353965
248	0x3d905ee4	0.07049349
249	0x3e323f75	0.1740702
250	0xbe821ace	-0.25411075
251	0xbebdfb63	-0.37105855
252	0x3eb8a2a8	0.36061597
253	0x3e440d96	0.19145808
254	0xbe370db4	-0.17876321
255	0x3efcf9ed	0.49409428

conv1.bias f4 [16]
0	0xbeb9ac84	-0.3626443
1	0xbe9a6a25	-0.30159107
2	0xbec72ac8	-0.38899827
3	0xbeb56ff6	-0.35436982
4	0xbe5fb754	-0.21847278
5	0xbe841299	-0.2579544
6	0xbec08ff4	-0.37609828
7	0xbea4ecb8	-0.32211852
8	0x3e893e7b	0.2680548
9	0xbf03ca50	-0.5148058
10	0xbf0b008f	-0.5429773
11	0xbedd31ec	-0.4320215
12	0xbec09dae	-0.376203
13	0xbf9da895	-1.2317072
14	0xbf1514ce	-0.5823487
15	0xbef9d082	-0.4879189

conv2.weight f4 [64, 16, 4, 4]
0	0xbb79331a	-0.0038024844
1	0x3d668b31	0.056285087
2	0x3dee90bf	0.11648702
3	0x3de9ffe0	0.114257574
4	0xbe5eb347	-0.21748076
5	0xbe5e87b2	-0.21731451
6	0xbdd25089	-0.10269267
7	0xbd22c038	-0.039734095
8	0x3dac9dce	0.08428536
9	0x3d228854	0.039680794
10	0x3cfb4823	0.030674046
11	0x3e98d355	0.29848734
12	0xbe4139c1	-0.18869688
13	0xbdcb5cec	-0.09929833
14	0xbce8821d	-0.028382355
15	0xbd622528	-0.055211216
16	0x3dc66546	0.09687285
17	0xbe442739	-0.19155587
18	0xbe93f0c3	-0.28894624
19	0xbe2c78d1	-0.16842963
20	0x3e1ed299	0.15510024
21	0xbedeb3b2	-0.43496472
22	0xbf04d44f	-0.5188646
23	0xbe81b30d	-0.25331917
24	0x3e081ee1	0.1329303
25	0xbe35413d	-0.17700668
26	0xbedd7887	-0.43256018
27	0xbe5a0b3d	-0.2129335
28	0x3eba68d7	0.3640811
29	0xbd49cdc1	-0.049268488
30	0xbe9a4b26	-0.3013546
31	0xbe734ad2	-0.2375901
32	0xbe51f0ba	-0.20501986
33	0xbdbf6a11	-0.093464024
34	0x3d008cff	0.031384464
35	0x3d828077	0.06372159
36	0xbe153894	-0.14572364
37	0x3e163cd2	0.14671639
38	0x3e3ffad7	0.18748032
39	0x3dda42df	0.10657286
40	0xbe358b96	-0.17729029
41	0x3b2d61c3	0.0026455976
42	0x3d8461f8	0.064639986
43	0xbc85adf4	-0.016318299
44	0xbe687335	-0.22700198
45	0xbdd205aa	-0.102549866
46	0xbc9db40d	-0.019250894
47	0xbd4bcbe8	-0.049755007
48	0x3d97686c	0.07392964
49	0x3e1265b1	0.14296605
50	0xbe2a9ccc	-0.16661376
51	0xbe36df10	-0.17858529
52	0x3d271811	0.040794436
53	0x3d50bdff	0.050962444
54	0xbe36fd3c	-0.17870039
55	0xbe1098a5	-0.1412073
56	0xbd996b38	-0.074911535
57	0xbde94f5a	-0.11392088
58	0xbe860f0e	-0.2618336
59	0xbe914fff	-0.28381345
60	0xbcd872a5	-0.026421854
61	0x3c38b853	0.011274415
62	0xbde2a57c	-0.1106672
63	0xbe2710fc	-0.16315073
64	0x3e7c72b2	0.24653128
65	0x3dd1f34c	0.10251483
66	0xbe2de871	-0.169832
67	0xbe896f83	-0.2684289
68	0xbd11335b	-0.035449367
69	0x3e82b31b	0.25527272
70	0xbe9d2e51	-0.306994
71	0xbe94852f	-0.2900786
72	0x3e979354	0.2960459
73	0x3e0e0cd5	0.13872083
74	0xbe8650bb	-0.26233467
75	0xbea3a403	-0.3196107
76	0x3e2e01d1	0.1699288
77	0xbbf86263	-0.007580088
78	0xbe00f3d6	-0.12593016
79	0xbebf583f	-0.37372014
80	0xbd0e2a18	-0.034708112
81	0xbe42b552	-0.1901448
82	0xbd66950d	-0.05629449
83	0xbe0136b5	-0.12618525
84	0xbbf758ad	-0.007548413
85	0xbdefa627	-0.11701613
86	0xbe1c415a	-0.15259305
87	0xbdfea37a	-0.124335244
88	0x3d9d3ee2	0.076780096
89	0xbd2e859c	-0.04260789
90	0xbdf9e408	-0.12201697
91	0xbe0113bd	-0.12605186
92	0x3d9c39a8	0.076281846
93	0x3e1ce031	0.15319897
94	0x3cc7438b	0.0243242
95	0x3c14bca4	0.009078179
96	0xbdca71c5	-0.09884981
97	0xbd6ca34b	-0.057772916
98	0x3e2d1b44	0.16904932
99	0x3e2a436a	0.16627279
100	0xbdb715c3	-0.089396976
101	0x3d4de8e9	0.05027095
102	0x3d76fd0f	0.06029993
103	0x3e250a32	0.1611717
104	0xbe04a32c	-0.1295287
105	0x3d1f406c	0.038879797
106	0x3e50fd5e	0.20409152
107	0x3dd87843	0.10569813
108	0xbdb3cb6b	-0.08779033
109	0x3db186f3	0.08668318
110	0x3dd4c444	0.10388997
111	0x3dc5170d	0.09623537
112	0xbdc6d45c	-0.09708473
113	0x3d019006	0.031631492
114	0xbda576dc	-0.08079311
115	0xbddbe687	-0.10737329
116	0xbd296893	-0.041359495
117	0x3c3ddada	0.011587823
118	0x3e52ed18	0.20598257
119	0x3e2c34af	0.16816972
120	0xbe8a116a	-0.2696641
121	0xbe09d78f	-0.13461135
122	0xb9d2ad56	-0.00040183467
123	0xbd9ec85a	-0.07753058
124	0xbd84dbb7	-0.0648722
125	0x3df7c251	0.1209761
126	0x3d3d4382	0.04620696
127	0x3e45064d	0.19240685
128	0xbc4e08cf	-0.012575342
129	0x3d393444	0.04521586
130	0x3d925622	0.07145335
131	0xbd75f38d	-0.06004672
132	0x3d621df3	0.055204343
133	0x3dca23b7	0.09870093
134	0xbd89ce57	-0.06728809
135	0xbd05e9c9	-0.032693658
136	0xbc841276	-0.016122084
137	0x3e0f4020	0.13989305
138	0x3cc78521	0.024355473
139	0xbe31133c	-0.17292494
140	0xbd5afb89	-0.05346254
141	0xbdfaaf29	-0.122404404
142	0xbd9e3475	-0.07724849
143	0xbe2e981f	-0.17050217
144	0xbd7fd0c7	-0.062454965
145	0xbdd38f55	-0.10330073
146	0xbe1c1543	-0.15242486
147	0xbc3614cc	-0.011113357
148	0x3ae7782d	0.0017659717
149	0x3d417ed7	0.047240105
150	0xbdd4e723	-0.10395648
151	0xbd2e1974	-0.042504743
152	0xbd88ffeb	-0.066894375
153	0xbcbcb2a3	-0.0230344
154	0xbd253516	-0.04033383
155	0xbd363af5	-0.04448982
156	0x3d1d35ee	0.03838151
157	0x3d619fd2	0.055084057
158	0x3dde17c7	0.10844379
159	0x3c8115a4	0.01575739
160	0xbc8b8260	-0.017029941
161	0x3c838d5f	0.016058622
162	0xbb90d03e	-0.0044193557
163	0xbd14672f	-0.036231216
164	0x3a925f8d	0.0011167392
165	0xbc88db29	-0.016706066
166	0x3d6dc256	0.05804666
167	0x3d9b0a29	0.07570297
168	0xbe4a350a	-0.19746795
169	0xbba52cf9	-0.0050407615
170	0xbce964d3	-0.02849046
171	0x3da3079c	0.07960436
172	0xbcdb5f22	-0.026778761
173	0x3dd402c7	0.10352092
174	0x3d20a882	0.0392232
175	0xbd52ff08	-0.051512748
176	0xbc9da0d1	-0.019241722
177	0x3e9724fc	0.29520404
178	0xbe1e199f	-0.15439461
179	0xbe804e80	-0.2505989
180	0xbd8b0c65	-0.067894734
181	0xbda20a7e	-0.079121575
182	0xbea8d9c1	-0.32978633
183	0xbe183dc4	-0.14867312
184	0xbddfe416	-0.10932176
185	0xbcc47f28	-0.023986414
186	0xbe590d01	-0.21196367
187	0xbe7e7e71	-0.24852921
188	0x3d1d3d28	0.0383884
189	0xbcf23478	-0.029566035
190	0xbd5fa84b	-0.054603856
191	0xbe91d1ec	-0.2848047
192	0x3e3de1b1	0.18543126
193	0x3cf86920	0.030323565
194	0xbe2effc9	-0.17089762
195	0xbe3a75e7	-0.18209039
196	0x3e99bdca	0.3002761
197	0xbd96c03b	-0.07360884
198	0xbeb10e9a	-0.34581453
199	0xbe40958c	-0.18807048
200	0x3ce2673c	0.027637117
201	0x3c46fd9a	0.012145424
202	0xbe8ccc84	-0.27499783
203	0xbe1b9b3d	-0.15195937
204	0xbcab8e9c	-0.020942025
205	0xbcabc173	-0.020966267
206	0xbe87d220	-0.265275
207	0xbe739816	-0.23788485
208	0xbdca61b7	-0.09881919
209	0xbc49057a	-0.012269372
210	0x3c3cf0cc	0.01153202
211	0xbde39d6f	-0.111140124
212	0xbd86cc51	-0.06581939
213	0x3c8bc087	0.017059578
214	0xbdd9c4c6	-0.10633235
215	0xbe187879	-0.14889707
216	0xbc7bb559	-0.015363061
217	0x3c145b5d	0.009054986
218	0xbd3b158d	-0.04567485
219	0xbd9c4cd0	-0.07631838
220	0xbb4a0daa	-0.0030830898
221	0x3e15f1ab	0.1464297
222	0x3bacac6c	0.0052695777
223	0xbb6a2843	-0.0035729564
224	0x3e00aba1	0.12565471
225	0xbda499d8	-0.08037156
226	0xbe2688a8	-0.16263068
227	0xbe30e852	-0.17276123
228	0xbdb25e5a	-0.087094024
229	0xbe4a7ecc	-0.19774932
230	0xbe44e8c4	-0.19229418
231	0xbce9f4f5	-0.028559187
232	0x3e6abbc0	0.22923183
233	0xbc9b9034	-0.01898966
234	0xbc300bff	-0.010745048
235	0x3cfeaecf	0.031089215
236	0x3e07a072	0.13244799
237	0xbdc8b5b7	-0.09800284
238	0xbdd5c996	-0.1043884
239	0xbdd17510	-0.10227406
240	0x3dd533a8	0.10410243
241	0x3d5ca9b8	0.053872794
242	0xbdac1730	-0.0840286
243	0x3da38af3	0.07985487
244	0x3e81f7c4	0.25384343
245	0x3d9f5425	0.07779721
246	0xbce84e18	-0.02835755
247	0x3c6e41be	0.014542041
248	0x3c7494a4	0.014928017
249	0xbd54fea9	-0.052000675
250	0xbcae0f07	-0.0212474
251	0xbbf1e189	-0.007381622
252	0x3cbfd82e	0.023418512
253	0x3d87d21e	0.066318735
254	0x3d6dc7fe	0.058052056
255	0x3db2c596	0.08729093

conv2.bias f4 [64]
0	0x3f0b5a48	0.54434633
1	0xbefce19e	-0.49390882
2	0x3edc023e	0.4297046
3	0x3f10cae4	0.56559587
4	0xbe6f07cb	-0.23342817
5	0xbe6388f9	-0.2222022
6	0x3e0f388c	0.13986415
7	0x3d3724d1	0.044712845
8	0x3e13cc77	0.14433466
9	0x3eabf61f	0.33586213
10	0x3e0520bc	0.13000768
11	0x3ea213f8	0.3165586
12	0x3f297039	0.66186863
13	0x3f348eb8	0.7053027
14	0xbe7980c0	-0.2436552
15	0x3cad43c0	0.02115047
16	0xbe256b48	-0.16154206
17	0x3e20746e	0.15669414
18	0xbe0ba6fb	-0.13637917
19	0xbf501517	-0.8128218
20	0xbddc4fae	-0.10757385
21	0x3f04b90f	0.51844877
22	0xbdb0b0e8	-0.08627492
23	0xbd26cef1	-0.0407247
24	0x3e801682	0.25017172
25	0x3f8f9bca	1.1219418
26	0x3eb3a181	0.35084155
27	0xbe041982	-0.12900355
28	0x3bdc988f	0.0067320536
29	0x3e6e358d	0.23262616
30	0xbd2e584c	-0.042564675
31	0x3e284254	0.16431552
32	0x3e38ac27	0.18034421
33	0x3e079a77	0.13242517
34	0xbf85d626	-1.0455978
35	0x3e041946	0.12900266
36	0xbe819395	-0.2530791
37	0xbf31dca3	-0.6947729
38	0x3e9a99c4	0.3019544
39	0xbda057ca	-0.078292444
40	0x3f00801e	0.5019549
41	0x3f358cae	0.70917785
42	0x3f1855ff	0.5950622
43	0xbdce6c2e	-0.100792274
44	0xbe717b0c	-0.23582095
45	0x3e030ec3	0.127986
46	0xbf1b0b34	-0.6056397
47	0x3e95b36c	0.2923845
48	0x3da0d303	0.07852747
49	0x3e6a8cae	0.22905228
50	0xbe8e39cb	-0.27778468
51	0x3d0653fe	0.032794945
52	0xbf20ae5d	-0.6276606
53	0x3e8626d1	0.2620149
54	0x3f34b94e	0.7059525
55	0xbe859894	-0.2609297
56	0xbd8821b8	-0.06647056
57	0xbeaa7e07	-0.33299276
58	0x3d1acc98	0.037792772
59	0x3f03b7e3	0.51452464
60	0x3dc54351	0.0963198
61	0x3e1bfc57	0.15232979
62	0x3efde235	0.49586645
63	0xbdc7affa	-0.09750362

conv3.weight f4 [32, 64, 3, 3]
0	0x3d36235c	0.044467315
1	0x3d932cdd	0.07186291
2	0x3e17f1c8	0.14838326
3	0x3e279fa0	0.16369486
4	0x3cdea198	0.027176663
5	0x3e0634e7	0.13106118
6	0xbdc45f17	-0.095884494
7	0x3dcd3ac7	0.100209765
8	0xbd75e2fb	-0.06003092
9	0x3dde9aa2	0.108693376
10	0x3daed573	0.08536806
11	0x3d5b0911	0.053475443
12	0xbca88c32	-0.020574663
13	0x3d302008	0.042999297
14	0x3e4c76c4	0.1996718
15	0xbe4a6d70	-0.1976831
16	0xbd87db25	-0.066335954
17	0x3daad1c7	0.08340793
18	0x3e549d96	0.2076324
19	0x3c9d3568	0.019190505
20	0xbe036965	-0.12833174
21	0x3e83272e	0.2561583
22	0xbcdeb79f	-0.027187167
23	0x3d73c1cb	0.059510987
24	0xbc2137be	-0.00983995
25	0xbcca6cdb	-0.02471011
26	0xbe548711	-0.20754649
27	0x3b6d6be3	0.0036227636
28	0x3ba57633	0.005049491
29	0xbd74c4c8	-0.059757978
30	0xbe35f614	-0.17769653
31	0xbe51cbb9	-0.2048787
32	0xbe2b85bd	-0.16750236
33	0xbe3da999	-0.18521728
34	0xbe815d18	-0.25266337
35	0xbd1586fa	-0.036505677
36	0xbd47afef	-0.048751768
37	0xbd712e4e	-0.05888205
38	0xbd566fe5	-0.052352805
39	0xbdae7ad6	-0.08519523
40	0x3d8ac17e	0.06775187
41	0xbd3551dd	-0.044267524
42	0xbd0e8b05	-0.034800548
43	0xbd8b1bac	-0.06792387
44	0x3dfc6b55	0.123251595
45	0x3c07a155	0.008278211
46	0x3e062fe9	0.13104214
47	0x3d9813c3	0.07425644
48	0x3d5be282	0.05368281
49	0x3d4b0b6a	0.049571432
50	0x3d370ded	0.044691015
51	0xbe01a686	-0.1266118
52	0xbddeb8df	-0.10875105
53	0xbdfe3eaf	-0.124143
54	0x3e8e2353	0.27761325
55	0xbd4a9bbe	-0.049464934
56	0xbdbc91bf	-0.09207486
57	0x3cb247b7	0.021762712
58	0xbd2887fa	-0.041145302
59	0x3d84b6e6	0.064801976
60	0xbe7f8646	-0.24953565
61	0xbe329064	-0.17437893
62	0x3d7f47e5	0.062324423
63	0xbd8f4abe	-0.06996678
64	0xbd61ca91	-0.055124823
65	0x3d01c433	0.03168125
66	0x3d5a9f18	0.05337438
67	0xbd366c19	-0.044536684
68	0x3dc04b5b	0.09389373
69	0x3df3d818	0.11906451
70	0xbe2d010a	-0.16894928
71	0x3d68a928	0.056801945
72	0xbcbd0703	-0.023074633
73	0x3db4dfba	0.08831735
74	0x3dcb76cd	0.09934769
75	0xbdedce36	-0.11611597
76	0xbc33e8ba	-0.010980779
77	0x3caa7117	0.020805879
78	0x3e06a723	0.13149695
79	0xbd01b2bf	-0.031664606
80	0xbdf5e096	-0.12005727
81	0xbd4284a4	-0.047489777
82	0xbd02a82a	-0.031898655
83	0xbda75fae	-0.08172546
84	0xbd998fe6	-0.074981496
85	0xbe1dda11	-0.15415217
86	0xbe59a750	-0.21255231
87	0x3e3adfef	0.18249486
88	0x3d02c9c8	0.031930715
89	0x3cb90868	0.022587016
90	0xbe04514b	-0.12921636
91	0xbdb0ffab	-0.08642515
92	0x3d76575e	0.060141914
93	0xbd86d9d4	-0.06584516
94	0x3c7dcea4	0.0154911615
95	0xbe06de86	-0.13170823
96	0xbe12a760	-0.14321661
97	0xbd6a1c24	-0.057155743
98	0xbd6c91be	-0.057756178
99	0x3c53850c	0.012910139
100	0x3dedc6e0	0.11610198
101	0x3e1af3bb	0.15132038
102	0x3ce31738	0.027721033
103	0xbd80dd11	-0.06292165
104	0x3cbc54df	0.022989688
105	0xbea02d3f	-0.3128452
106	0xbe3fd184	-0.18732268
107	0xbe125b79	-0.14292707
108	0x3db4e56b	0.088328205
109	0x3e5c4d68	0.21513903
110	0x3e1597b8	0.14608657
111	0xbe2b6b03	-0.1674004
112	0xbd346be6	-0.044048212
113	0xbd561e6c	-0.052275106
114	0xbef465ca	-0.4773391
115	0xbeb52f7d	-0.35387793
116	0xbe79c409	-0.24391188
117	0x3bdf131b	0.0068076975
118	0xbb148f24	-0.0022668326
119	0x3b36ee4b	0.002791303
120	0xbde6f240	-0.11276674
121	0xbdd0e280	-0.101994514
122	0x3d0da8b2	0.03458471
123	0xbe169714	-0.14706069
124	0xbdb344e7	-0.087533765
125	0xbcb5634e	-0.022142079
126	0x3d964d08	0.07338911
127	0xbdaff099	-0.08590812
128	0xbe43f90c	-0.19137973
129	0xbcb35248	-0.02188982
130	0xbdacd92b	-0.08439859
131	0x3d7ac21e	0.06122028
132	0x3e01753e	0.1264238
133	0x3dbc1007	0.091827445
134	0x3cd26563	0.02568311
135	0x3b4af0c1	0.0030966254
136	0x3d263d17	0.040585604
137	0xbd85ca03	-0.06532671
138	0x3df754fb	0.120767556
139	0x3d162a7f	0.03666162
140	0xbd4462ac	-0.047945663
141	0x3d0518ed	0.032494474
142	0xbd793826	-0.060844563
143	0xbe448af6	-0.19193634
144	0x3c2c35b0	0.010510847
145	0x3d2fb62c	0.042898342
146	0xbdde9990	-0.108691335
147	0x3e6de9f8	0.23233783
148	0x3d2eb869	0.042656336
149	0x3e07cc96	0.13261637
150	0x3e3a203b	0.18176357
151	0x3cecc98c	0.028904699
152	0x3e21af01	0.15789415
153	0x3cf0fed9	0.029418396
154	0xbd579d95	-0.052640516
155	0x3df89b3d	0.12138984
156	0xbb09ea78	-0.0021044295
157	0x3d975acc	0.07390365
158	0xbd96e38b	-0.07367619
159	0xbaea85fc	-0.0017892714
160	0x3d91eb03	0.07124903
161	0xbdec5209	-0.115390845
162	0x3d96acfd	0.07357214
163	0x3e7580dc	0.23974937
164	0x3db5cd0b	0.088769995
165	0x3d99d747	0.07511764
166	0xbb4295b0	-0.0029691271
167	0x3d8c0a17	0.06837862
168	0x3dddf205	0.10837177
169	0xbcbf11e6	-0.023323964
170	0x3d0f110b	0.034928363
171	0xbe4ab86f	-0.19796918
172	0xbe5652fa	-0.2093009
173	0xbda7dd07	-0.081964545
174	0xbd43eee8	-0.04783526
175	0xbcbec044	-0.023285039
176	0x3d5fd216	0.054643713
177	0x3e377571	0.17915894
178	0xbd001d1b	-0.031277757
179	0x3dfff511	0.124979146
180	0xbe3e624c	-0.18592185
181	0xbac46850	-0.0014984701
182	0xbca867cc	-0.020557307
183	0xbda9e8f3	-0.08296385
184	0xbdfa54d9	-0.12223215
185	0x3d5022b4	0.050814345
186	0x3dc4159a	0.09574433
187	0xbd432137	-0.047639098
188	0x3cfbe7e3	0.03075022
189	0x3ddff48f	0.10935318
190	0x3d6d6677	0.057959046
191	0xbe145a47	-0.14487563
192	0xbda23373	-0.079199694
193	0xbcecf9d0	-0.028927714
194	0xbd87fa91	-0.066395886
195	0xbe5d711e	-0.21625182
196	0xbd77506d	-0.060379434
197	0xbd65047b	-0.055912476
198	0xbd86bfa0	-0.06579518
199	0xbdf779e1	-0.120837934
200	0xbe19ba9e	-0.15012595
201	0xbd4f26d4	-0.05057414
202	0xbe2e2d6e	-0.17009518
203	0xbd95129d	-0.07278941
204	0x3e90ec02	0.2830506
205	0x3da12f4d	0.0787035
206	0xbd09fb82	-0.033687122
207	0xbdb1daf9	-0.08684344
208	0xbddba508	-0.107248366
209	0xbe133cd7	-0.14378677
210	0x3e169610	0.14705682
211	0xbd446358	-0.047946304
212	0x3bd72d7d	0.006566702
213	0x3e318ed3	0.1733964
214	0xba6612ac	-0.0008776586
215	0xbe091d60	-0.13390112
216	0xbd78664f	-0.060644444
217	0xbdc00201	-0.09375382
218	0xbe156366	-0.14588699
219	0x3d9191a7	0.07107859
220	0x3cca7dae	0.024718132
221	0x3c784a7c	0.015154477
222	0xbdbe4ab1	-0.0929159
223	0x3d410e41	0.047132734
224	0xbb057c66	-0.0020368337
225	0x3d945d42	0.0724435
226	0x3daa2ec1	0.08309699
227	0x3d52bb03	0.05144788
228	0x3c2018dc	0.009771552
229	0x3c6e6be1	0.0145520875
230	0x3ca60e45	0.020270476
231	0xbe52e621	-0.205956
232	0xbe948f09	-0.29015377
233	0xbdae0c75	-0.0849847
234	0x3c82758a	0.015925188
235	0xbd1de407	-0.038547542
236	0xbd826199	-0.063662715
237	0xbe782b99	-0.24235381
238	0x3c75d755	0.015004952
239	0xbda01648	-0.0781675
240	0xbedc3f03	-0.43016824
241	0xbe3d7f2c	-0.18505543
242	0xbd4df88e	-0.05028587
243	0xbab75744	-0.0013987799
244	0x3cb2d4ac	0.021829925
245	0x3d786d5e	0.060651176
246	0x3e40a9d8	0.1881479
247	0x3e37337a	0.1789073
248	0x3d3c6409	0.04599384
249	0xbdd6877e	-0.10475062
250	0x3cd9719a	0.026543427
251	0xbdebc1a5	-0.11511544
252	0xbd8eb625	-0.06968335
253	0xbdd62d92	-0.104579106
254	0x3a747e61	0.0009326693
255	0x3e00a0ab	0.1256129

conv3.bias f4 [32]
0	0x3d95116c	0.072787136
1	0xbed1b7c6	-0.4096052
2	0xbda1fe33	-0.07909813
3	0x3d5514b5	0.0520217
4	0x3ecbdd95	0.3981749
5	0xbe45fd0d	-0.19334812
6	0xbe467b68	-0.19383013
7	0xbf032392	-0.5122615
8	0x3f0dd6f5	0.55406123
9	0xbe97baa3	-0.2963458
10	0x3f8639cb	1.0486387
11	0x3ffa6c79	1.9564353
12	0x3fa2b8e0	1.2712669
13	0xbdd0868b	-0.10181912
14	0xbf10b344	-0.5652354
15	0x3ee44c43	0.44589433
16	0xbf08ca90	-0.53434086
17	0x3f1816a2	0.59409535
18	0x3e9c7e88	0.30565286
19	0xbddb966e	-0.107220516
20	0x3eed9ff3	0.46411094
21	0x400b4e1f	2.1766431
22	0x3ec2b316	0.38027257
23	0x3f9552f3	1.1665939
24	0x3ec16e88	0.3777964
25	0x3f9e6fd6	1.237788
26	0xbeedcb74	-0.46444285
27	0xbe8d6683	-0.27617273
28	0x3fb2c402	1.3966067
29	0x3f099091	0.53736216
30	0x3f0af1ec	0.54275393
31	0x3e68cb9b	0.2273392

fc1.weight f4 [120, 512]
0	0x3e314c0e	0.17314169
1	0x3dcd1fc6	0.10015826
2	0x3d827b67	0.063711934
3	0x3cee3c23	0.02908141
4	0x3cd1432f	0.025544731
5	0x3c30d005	0.010791783
6	0x3d3471e9	0.044053946
7	0x3d381e0d	0.044950534
8	0x3df24343	0.118292354
9	0xbda5187f	-0.08061313
10	0x3bfc35b4	0.0076968316
11	0x3b485c9e	0.0030572782
12	0x3e2152fd	0.15754314
13	0x3dda6b57	0.10665005
14	0x3dda7c62	0.106682554
15	0x3dc56621	0.0963862
16	0x3db22fa2	0.087004915
17	0x3ce75591	0.028239043
18	0x3cbcaef8	0.02303265
19	0xbce4a009	-0.027908342
20	0xbce5a60a	-0.028033275
21	0xba2c3e25	-0.00065705396
22	0xbd019e5b	-0.03164516
23	0x3ca3c881	0.019993069
24	0xbc832124	-0.016007014
25	0x3d821fc9	0.06353719
26	0xbcb0d573	-0.021586156
27	0xbd4197ed	-0.04726403
28	0x3d2ae793	0.041724753
29	0x3d536fc0	0.051620245
30	0x3d2adcd0	0.04171449
31	0x3e060385	0.1308728
32	0x3d96c298	0.073613346
33	0xbc74c67a	-0.014939899
34	0x3c8f98d6	0.017528933
35	0x3d1d3d26	0.038388394
36	0x3d33624a	0.043794908
37	0xbc9467c6	-0.01811589
38	0xbd5982ab	-0.05310313
39	0xbd301655	-0.042990047
40	0x3d1c423f	0.038149115
41	0xbcedb645	-0.029017577
42	0xbd576263	-0.052584063
43	0xbddd2787	-0.10798555
44	0xbd392929	-0.04520527
45	0x3c450253	0.01202448
46	0xbd939b17	-0.072073154
47	0xbe3a0274	-0.18164998
48	0x3de822f2	0.1133479
49	0x3dd16d92	0.10225977
50	0x3d8b1e0d	0.06792841
51	0x3bc3a467	0.005970526
52	0xbda2bfbd	-0.079467274
53	0xbdd24c55	-0.102684654
54	0xbdedab37	-0.11604922
55	0x3db9881f	0.09059166
56	0xbd3ce0fa	-0.046112992
57	0xbcda8d16	-0.026678603
58	0xbdd941d9	-0.106082626
59	0xbc7fe706	-0.015619045
60	0xbe27c84f	-0.16385005
61	0xbd818fc4	-0.06326249
62	0xbdf20738	-0.11817783
63	0xbe8d5ec4	-0.27611363
64	0xbc996dc2	-0.018729094
65	0x3e167e6a	0.1469666
66	0x3d90141d	0.07035086
67	0x3d24fec1	0.040282015
68	0xbd6d8ee4	-0.0579976
69	0xbd7d0ee2	-0.06178177
70	0xbbcf9ec6	-0.006336066
71	0x3c442924	0.011972699
72	0xbd7d606a	-0.061859526
73	0xbc37e085	-0.011222963
74	0x3d3754c6	0.04475858
75	0x3d31a15a	0.043366767
76	0xbe1b2c73	-0.15153675
77	0xbd19e411	-0.037571017
78	0x3d659a36	0.05605527
79	0xbdb93e66	-0.09045105
80	0x3ce689c2	0.02814186
81	0x3d0b9f53	0.03408749
82	0xbdc4822e	-0.09595142
83	0xbe8aaa38	-0.27082992
84	0xbd88ae03	-0.06673815
85	0x3cd498ac	0.025951706
86	0xbca2a824	-0.019855566
87	0xbdb047fd	-0.08607481
88	0xbc326977	-0.010889403
89	0x3d209266	0.039202116
90	0xbdb3d5cf	-0.08781015
91	0xbc8ab6fb	-0.016932955
92	0xbce52db3	-0.027975893
93	0xbd4e4efd	-0.050368298
94	0xbe183626	-0.14864406
95	0xbd6e689e	-0.05820524
96	0xbb6ed724	-0.0036444152
97	0x3bb0103a	0.005373028
98	0xb958d26b	-0.00020677752
99	0x3da0f728	0.07859641
100	0xbd36deec	-0.04464619
101	0x3d9989d5	0.074969925
102	0x3d135c7d	0.035976876
103	0xbcbc3dd8	-0.022978708
104	0xbd9a1b7c	-0.075247735
105	0x3ddcb888	0.10777384
106	0x3dbd278f	0.09236061
107	0xbe05a3ec	-0.13050812
108	0xbcbb794f	-0.022884993
109	0xbda0ec28	-0.07857543
110	0xbdca2995	-0.098712124
111	0xbc9d0977	-0.019169552
112	0xbb83f646	-0.004027161
113	0x3d629107	0.05531409
114	0x3ca3a40b	0.019975683
115	0x3e07f578	0.13277233
116	0x3cc55836	0.024089914
117	0x3e0c4b35	0.13700564
118	0xbcd8637d	-0.026414627
119	0x3b75ab2d	0.0037486062
120	0x3df38268	0.118901074
121	0x3d4bb0bf	0.049729105
122	0x3ced62f8	0.028977856
123	0x3ddd5e53	0.108090065
124	0x3e66e16a	0.22546926
125	0x3d0e2568	0.034703642
126	0xbc26e5a1	-0.010186584
127	0x3e3f6cb0	0.18693805
128	0xbcf1713e	-0.029472943
129	0xbd706264	-0.058687583
130	0x3da58371	0.08081711
131	0x3c959a74	0.018262126
132	0x3c3d2680	0.011544824
133	0xbc0a8170	-0.008453712
134	0x3dd5a46d	0.10431752
135	0x3a276063	0.0006384907
136	0x3bc78996	0.0060893996
137	0xbce92882	-0.028461698
138	0xbcb16830	-0.021656126
139	0xbda27d8e	-0.07934104
140	0xbe39fc70	-0.18162704
141	0xbb05f3fb	-0.0020439613
142	0x3d42aa2f	0.04752558
143	0xbe22ece3	-0.15910678
144	0xbd5737e7	-0.052543547
145	0x3d67306a	0.056442656
146	0x3daf3f6b	0.08557018
147	0x3ca4021d	0.020020539
148	0xbd7c8d33	-0.061658096
149	0x3d24f712	0.040274687
150	0x3e1b9be2	0.15196183
151	0xbd6807d8	-0.056648105
152	0xbcbaab0e	-0.022786643
153	0xbcab5634	-0.020915128
154	0x3d0ad986	0.033898853
155	0xbc803573	-0.015650487
156	0xbdc8c796	-0.09803693
157	0xbe3477b8	-0.17623794
158	0xbda88e64	-0.08230284
159	0xbcd8a0d5	-0.026443878
160	0xbc0bf0ca	-0.008541295
161	0xbd0f067a	-0.034918286
162	0xbcc24d8e	-0.023718622
163	0xbc308ef2	-0.010776268
164	0xbcf56f47	-0.029960288
165	0xbccac97a	-0.024754275
166	0xbdc41893	-0.09575
167	0xbd38bc83	-0.045101654
168	0x3cb8a559	0.022539781
169	0x3e294996	0.16531977
170	0x3b3cc677	0.0028804818
171	0x3bcd1977	0.006259139
172	0x3cb23e40	0.021758199
173	0x3e1f21e1	0.15540268
174	0xbca679a9	-0.020321684
175	0xbcb4043c	-0.021974675
176	0xbc96f41e	-0.018426951
177	0xbd4c8471	-0.049930993
178	0xbdd6a473	-0.10480585
179	0xbe08dfdb	-0.13366644
180	0x3d2e0d79	0.042493317
181	0xbd4f883f	-0.050667044
182	0xbd272a31	-0.04081172
183	0xbd11f2bc	-0.03563188
184	0xbda9e6eb	-0.08295997
185	0x3d155c4f	0.036464985
186	0x3d2412a4	0.04005684
187	0x3c8a5560	0.016886413
188	0x3d81b5f0	0.0633353
189	0x3cfe4bf9	0.031042086
190	0xbd444b80	-0.047923565
191	0x3d9aec70	0.07564628
192	0xbca025b2	-0.019549225
193	0x3db17b3e	0.08666085
194	0x3ce7f866	0.028316688
195	0xbd26cbb0	-0.040721595
196	0xbc7c4a5f	-0.015398591
197	0x3de4d1da	0.111728385
198	0xbbb69b7f	-0.005572736
199	0x3c8481b3	0.016175127
200	0x3c1067b0	0.0088137835
201	0x3c144255	0.009049018
202	0xbd19b986	-0.037530445
203	0x3c92f53e	0.017939206
204	0x3e010239	0.12598504
205	0x3da2fbf2	0.07958211
206	0xbdb57dd2	-0.08861889
207	0x3d39f473	0.04539914
208	0xbe064869	-0.1311356
209	0xbe0f5cc2	-0.14000228
210	0x3d1ac061	0.037781123
211	0x3d79ffc2	0.061034925
212	0xbd81733b	-0.063208066
213	0xbc9017d9	-0.017589496
214	0xbbb4ba37	-0.0055153626
215	0x3db21296	0.08694951
216	0x3d754a89	0.059885535
217	0x3ce32f30	0.027732462
218	0xbdb0354e	-0.08603917
219	0x3da2cd2e	0.07949291
220	0x3e007113	0.12543134
221	0x3dfebb40	0.12438059
222	0x3d079482	0.033100612
223	0x3b7527f2	0.0037407842
224	0xbd60b4ef	-0.05486005
225	0x3de0ac66	0.109703824
226	0x3d4d6c02	0.050151832
227	0x3e04567b	0.12923615
228	0xbe076636	-0.13222584
229	0x3d1ed957	0.03878149
230	0xbd9192e7	-0.071080975
231	0x3dadbd8e	0.0848342
232	0xbdc8b01a	-0.09799214
233	0x3dd0afca	0.10189779
234	0x38c1d2ed	9.242245e-05
235	0xbc3405be	-0.010987697
236	0xbeace828	-0.3377087
237	0xbe0c6d17	-0.1371349
238	0xbe21f489	-0.15815939
239	0xbd940665	-0.07227782
240	0xbd69042a	-0.056888737
241	0xbd301cda	-0.042996265
242	0xbdcd67e6	-0.10029583
243	0x3cda397b	0.026638737
244	0xbd8ba9b4	-0.06819478
245	0xbd85df3e	-0.06536721
246	0x3d8666f9	0.06562609
247	0x3ba66558	0.005077999
248	0x3d44155a	0.047871925
249	0x3d05a300	0.032626152
250	0xbda573b1	-0.08078707
251	0xbd19aaac	-0.03751628
252	0x3d8b58be	0.068040356
253	0x3c9ddd1d	0.019270474
254	0xbcb70ad8	-0.022344038
255	0x3d6161f6	0.055025063

fc1.bias f4 [120]
0	0x3d34cda0	0.04414141
1	0xbc9ae95b	-0.0189101
2	0x3e362512	0.17787579
3	0x3e9227d0	0.28546
4	0x3da6ca25	0.08144025
5	0xbbdf7ebb	-0.0068205274
6	0xbd90b6f2	-0.07066144
7	0x3e602f46	0.21893033
8	0xbba9e4f6	-0.005184765
9	0x3b1ed216	0.0024234108
10	0x3d87894a	0.06617983
11	0x3e460d2f	0.19340967
12	0x3e0322ad	0.12806197
13	0x3d497348	0.049182206
14	0x3cf03c07	0.029325498
15	0xbd8abe8e	-0.06774627
16	0x3e708eee	0.23492023
17	0x3d80304e	0.062592134
18	0xbdd853e4	-0.10562876
19	0xbd137b10	-0.036006033
20	0x3c5d4f8a	0.013507733
21	0x3e04e576	0.12978157
22	0x3e30c520	0.17262697
23	0xbd964478	-0.07337278
24	0x3e0c299d	0.13687749
25	0x3c7225fe	0.014779566
26	0xbe12c2be	-0.14332101
27	0x3e11840c	0.14210528
28	0xbd68d7ae	-0.056846313
29	0x3b98df60	0.0046653003
30	0x3bde5df3	0.006786102
31	0xbe32d68c	-0.17464656
32	0xbd873adc	-0.066030234
33	0x3dfbfe53	0.12304368
34	0xbde13ff5	-0.10998527
35	0x3e1280e8	0.14306986
36	0x3dfc576d	0.12321363
37	0xbe806383	-0.2507592
38	0xbcd6d53e	-0.026224729
39	0x3d794285	0.060854454
40	0x3cc9fcd9	0.0246567
41	0xbc63b9a6	-0.0138992425
42	0x3e8d1e7c	0.2756232
43	0x3e06ea9d	0.13175435
44	0x3e28c697	0.16482006
45	0x3dddbdf6	0.10827248
46	0xbd1f0af4	-0.038828805
47	0x3d80cdab	0.06289228
48	0x3df89a1f	0.12138771
49	0x3e60b2e6	0.21943244
50	0xbde0cb91	-0.10976327
51	0xbdad5e4c	-0.08465251
52	0xbad1522b	-0.0015969923
53	0xbdd85240	-0.10562563
54	0x3c03e1f1	0.008049474
55	0xbdeef2ed	-0.11667428
56	0x3e427a55	0.18991978
57	0x3de6c553	0.11268105
58	0x3da9a6ec	0.08283791
59	0x3db168c4	0.086625606
60	0xbba97055	-0.0051708617
61	0x3e4fd6cd	0.20296784
62	0x3dca3fbf	0.0987544
63	0x3e267a17	0.16257511
64	0x3e42cac1	0.19022657
65	0x3daa546b	0.08316883
66	0x3c5e1d94	0.013556857
67	0xbe04c040	-0.12963963
68	0xbc869209	-0.016427057
69	0x3c3cafa2	0.0115164835
70	0x3e8acb5e	0.27108282
71	0x3d9156b0	0.070966125
72	0x3dcb7b1a	0.09935589
73	0x3d198067	0.03747597
74	0xbd120ab5	-0.035654742
75	0x3e3aa533	0.18227081
76	0xbdc02f30	-0.09384
77	0x3dde622e	0.1085857
78	0xbdcd85eb	-0.100353085
79	0x3d899375	0.06717578
80	0x3d3e8960	0.04651773
81	0xbca067d7	-0.019580765
82	0x3d4a9384	0.049457088
83	0xbd1b92e0	-0.037981868
84	0xbcb9f44f	-0.022699503
85	0x3df35040	0.11880541
86	0x3cbd04a7	0.023073507
87	0x3d757aae	0.05993145
88	0x3d27d375	0.040973146
89	0x3e80bcae	0.2514395
90	0x3d97a32e	0.07404171
91	0x3de7278f	0.11286842
92	0x3e12c01e	0.143311
93	0x3d3ab168	0.045579344
94	0x3e252353	0.16126756
95	0x3e0f4d40	0.13994312
96	0x3ca476c5	0.020076165
97	0x3e46cde3	0.19414477
98	0x3c6ed5d2	0.014577346
99	0xbcf8458d	-0.030306602
100	0x3e24c0eb	0.16089217
101	0xbc884bb1	-0.016637655
102	0x3eb41ca2	0.35178095
103	0x3c127989	0.008940109
104	0x3da4eac3	0.0805259
105	0x3e3c48c9	0.1838714
106	0xbb89d44a	-0.004206215
107	0x3e276b1f	0.16349457
108	0xbdcffab7	-0.10155242
109	0x3dfe08f0	0.124040484
110	0x3dcc9a70	0.09990394
111	0xbd99e2ae	-0.07513939
112	0xbd226cb0	-0.039654434
113	0xbd9352e0	-0.071935415
114	0xbe0c66cd	-0.1371109
115	0x3e26710e	0.16254064
116	0x3da7cb61	0.08193088
117	0x3e3b4567	0.18288194
118	0x3d59da44	0.05318667
119	0xbe34fa59	-0.17673625

fc2.weight f4 [84, 120]
0	0x3d8a1d7c	0.06743905
1	0x3bda3d42	0.0066601345
2	0x3cdd0073	0.026977753
3	0xbd154d69	-0.036450777
4	0x3d753b45	0.059870977
5	0x3d0634f3	0.03276534
6	0x3d082f3c	0.03324817
7	0xbe0d0794	-0.13772422
8	0x3dae4a6c	0.085102886
9	0x3e1443a6	0.14478931
10	0x3d8939a7	0.067004494
11	0xbd94533e	-0.0724244
12	0xbd0f66a9	-0.035010014
13	0xbe453c29	-0.1926123
14	0x3e341e66	0.17589721
15	0x3e431105	0.19049461
16	0xbdeb00f4	-0.11474791
17	0x3d48a0aa	0.048981346
18	0x3dc74ee3	0.09731843
19	0xbdd4948a	-0.10379894
20	0x3cce6fd3	0.025199806
21	0xbd8a5b4b	-0.06755694
22	0x3dd783d6	0.105231926
23	0xbdf502fc	-0.1196346
24	0xbe8155c1	-0.25260738
25	0xbd988f45	-0.074492015
26	0xbe21635b	-0.15760557
27	0xbdc35711	-0.09538091
28	0xbe30f371	-0.17280366
29	0xbd80d134	-0.06289902
30	0xbde994f4	-0.11405364
31	0xbe222e02	-0.15837863
32	0x3d46fed5	0.04858287
33	0xba9e7cfd	-0.0012091693
34	0xbe0e8438	-0.13917625
35	0x3c9778f5	0.018490294
36	0xbd7b59f9	-0.0613651
37	0xbe214e50	-0.1575253
38	0x3e84b640	0.25920296
39	0xbdd736df	-0.10508513
40	0xbe20a062	-0.15686181
41	0xbdbd8b96	-0.092551395
42	0xbd2a1f0f	-0.041533526
43	0x3e51a0f2	0.20471552
44	0x3de3d731	0.11125029
45	0x3e2d592c	0.16928548
46	0xbd2c403b	-0.042053442
47	0x3d779366	0.060443304
48	0xbd75e56d	-0.06003325
49	0xbe2afc6e	-0.16697857
50	0xbde37f56	-0.11108272
51	0xbd16bafb	-0.036799412
52	0xbd1b9387	-0.03798249
53	0xbe5eb673	-0.21749286
54	0x3d0b5fda	0.034026958
55	0x3d5e1984	0.054223552
56	0x3e0ea634	0.13930589
57	0xbe356c42	-0.17717078
58	0xbddd2d81	-0.10799695
59	0x3d4c45e7	0.04987135
60	0x3d31fdca	0.043454923
61	0xbe1d1edb	-0.15343802
62	0xbcbff8f2	-0.023434136
63	0x3d721fbc	0.059112296
64	0xbe12dd32	-0.14342192
65	0x3d89863b	0.067150556
66	0x3c9fc2fd	0.019502157
67	0xbe186954	-0.1488393
68	0xbdddd7a1	-0.108321436
69	0xbd996148	-0.07489258
70	0xbe652e67	-0.22380982
71	0x3c9a413b	0.018829932
72	0x3d099c41	0.03359628
73	0x3d47697a	0.048684575
74	0xbd288c28	-0.04114929
75	0x3c930097	0.017944617
76	0xbc267868	-0.010160543
77	0xbcc7f406	-0.024408352
78	0xbbb3c472	-0.0054860646
79	0x3e1b4b44	0.1516543
80	0x3e02d3c8	0.127761
81	0xbe2555ca	-0.16146007
82	0xbdccfa91	-0.10008729
83	0x3d867af7	0.065664224
84	0xbd29c3d6	-0.04144653
85	0x3db6c4ab	0.0892423
86	0xbd421099	-0.04737911
87	0xbdbb5d9a	-0.091487125
88	0x3ca16fe8	0.019706681
89	0xbe17a75d	-0.14809938
90	0xbdc0cbcb	-0.094138704
91	0xbc597302	-0.013272049
92	0xbc02392d	-0.007948202
93	0xbce95782	-0.02848411
94	0xbe2f09d8	-0.17093599
95	0x3e16aaa6	0.14713535
96	0xbdb2c9fb	-0.08729931
97	0x3da44d1e	0.080225214
98	0xbe17e59a	-0.1483368
99	0x3d198ac4	0.037485853
100	0xbe340ae7	-0.17582284
101	0xbdd0bb28	-0.10191947
102	0xbd7590b1	-0.05995244
103	0x3d95da26	0.07316999
104	0x3cf31bca	0.029676337
105	0x3c97c12b	0.018524727
106	0xbdbc58f4	-0.09196654
107	0x3e170804	0.14749151
108	0xbdb89b4f	-0.09013998
109	0x3d52bb97	0.05144843
110	0x3b152ce2	0.0022762348
111	0xbd8e3e07	-0.069454245
112	0xbc6673c6	-0.0140656885
113	0x3da3d8c7	0.08000331
114	0xbd1205d5	-0.035650093
115	0xbe1cab6b	-0.15299766
116	0x3e282605	0.16420753
117	0x3a987943	0.0011632818
118	0x3e19665d	0.14980455
119	0xbcf13a41	-0.029446723
120	0xbd836ccf	-0.06417238
121	0xbc992f0e	-0.018699195
122	0x3abcc489	0.0014401834
123	0x3a2180e9	0.00061608717
124	0x3d629753	0.055320095
125	0x3dd0554c	0.10172519
126	0xbdfc8a65	-0.12331084
127	0xbe6a225f	-0.22864674
128	0x3dceb6fe	0.10093497
129	0x3d231c0d	0.039821673
130	0xbdfe3076	-0.12411587
131	0x3dd8d325	0.105871476
132	0xbde5be95	-0.11217991
133	0x3de78053	0.11303773
134	0xbde76f5e	-0.113005385
135	0xbdcc565d	-0.0997741
136	0xbccd39ad	-0.025051916
137	0xbe2e615b	-0.17029326
138	0x3d040b13	0.032237124
139	0x3c649b72	0.013953077
140	0xbd98c2bd	-0.074590184
141	0xbe116447	-0.14198409
142	0xbe398dfe	-0.18120572
143	0x3de25771	0.110518344
144	0x3dd8e582	0.1059065
145	0xbc3da1b5	-0.0115741985
146	0x3dae56c4	0.08512643
147	0x3d4dbf4e	0.05023127
148	0xbd8f4cd6	-0.06997077
149	0xbbb63a54	-0.0055611525
150	0x3d163d2c	0.03667943
151	0x3ded645c	0.11591408
152	0xbc5566bd	-0.013024983
153	0x3d0d252c	0.034459278
154	0x3c0a2c79	0.008433455
155	0x3e2045b1	0.15651585
156	0x3c5ef1b5	0.013607432
157	0xbe13d11b	-0.14435236
158	0x3c43567d	0.011922476
159	0x3dcc8762	0.0998676
160	0x3b966647	0.004589829
161	0x3e026aa1	0.12735988
162	0x3d33c807	0.043891933
163	0x3e2ab62f	0.1667106
164	0xbe0c3512	-0.1369212
165	0x3e19b2f9	0.15009679
166	0x3bc91bd7	0.006137352
167	0x3d441bea	0.047878183
168	0x3d975563	0.07389333
169	0xbe3aa486	-0.18226823
170	0xbe529919	-0.20566215
171	0xbe5ec249	-0.21753801
172	0xbdcb87f6	-0.09938042
173	0xbe466526	-0.19374523
174	0xbd191103	-0.03736974
175	0xbdf423ed	-0.11920915
176	0xbe68984f	-0.22714351
177	0xbd9c2ee7	-0.076261334
178	0xbdc4d7cb	-0.09611472
179	0xbd9deb95	-0.07710949
180	0xbd003b2c	-0.03130643
181	0x3e386939	0.1800889
182	0xbe78a873	-0.24283008
183	0x3e12b280	0.14325905
184	0xbe474291	-0.19458987
185	0x3c711315	0.014714022
186	0x3d5f78fd	0.054558743
187	0x3df6ca28	0.12050277
188	0x3e6b4885	0.22976883
189	0x3cdbbcc4	0.026823409
190	0x3e03fef2	0.12890223
191	0xbd781583	-0.06056739
192	0xbc682c7e	-0.014170764
193	0x3dc24c30	0.09487188
194	0xbdb48ff1	-0.08816517
195	0xbcd1a058	-0.025589153
196	0xbdd9936b	-0.10623821
197	0xbe26f8d8	-0.16305864
198	0xbe7ec880	-0.24881172
199	0xbe622b22	-0.22086766
200	0xbd5ed100	-0.054398537
201	0xbc88d45f	-0.016702829
202	0x3e76eb89	0.24113287
203	0xbcd15990	-0.025555402
204	0x3dbae58f	0.09125816
205	0xbe071ffb	-0.13195793
206	0xbd9d288f	-0.076737516
207	0xbe6c1083	-0.23053174
208	0xbe4660d7	-0.19372879
209	0x3e29870b	0.16555421
210	0xbe0a26f8	-0.13491428
211	0xbe3b3549	-0.18282045
212	0x3df5f7e9	0.12010176
213	0x3e39a0b3	0.18127708
214	0xbb4fbf14	-0.0031699585
215	0xbdcc0841	-0.09962512
216	0xbce1a233	-0.027543163
217	0xbdc3b732	-0.09556426
218	0xbd3dbe1e	-0.046323888
219	0x3e1753a2	0.14777997
220	0x3e16857d	0.14699359
221	0x3d182b56	0.037150703
222	0x3d2abff5	0.04168697
223	0xbda6c2cd	-0.08142624
224	0xbd82c989	-0.06386096
225	0xbd830ee5	-0.06399325
226	0xbdce2d0c	-0.10067186
227	0xbd7ff717	-0.062491503
228	0xbd9e8d67	-0.07741814
229	0xbd9e9419	-0.07743091
230	0x3da2ec28	0.079551995
231	0xbd998992	-0.074969426
232	0xbd1c9433	-0.03822727
233	0xbe4fd0fd	-0.20294566
234	0xbd938b40	-0.07204294
235	0x3d0ac6b1	0.033880893
236	0xbdf7f18a	-0.12106617
237	0x3dbb1ef1	0.09136761
238	0xbe3545f6	-0.17702469
239	0x39fba7e3	0.00047999536
240	0x3dce82cd	0.10083542
241	0x3cd2b943	0.025723105
242	0xbd75ddd5	-0.06002601
243	0xbe369afe	-0.17832562
244	0xbe5140ae	-0.2043483
245	0xbdb87150	-0.09005988
246	0xbd22dfe0	-0.039764285
247	0xbd404ca8	-0.046948105
248	0xbd15364d	-0.03642874
249	0x3d83a9c6	0.06428866
250	0x3e115d2f	0.14195703
251	0xbdae5fb9	-0.085143514
252	0x3e6474b2	0.2231014
253	0xbdb9a33c	-0.090643376
254	0xbd79db5d	-0.061000217
255	0xbe147fe7	-0.14501916

fc2.bias f4 [84]
0	0x3eb8be48	0.36082673
1	0x3e8e9cb4	0.2785393
2	0x3e3ba599	0.18324889
3	0xbc99737d	-0.018731827
4	0xbdacdd6e	-0.08440672
5	0x3ea8e2cb	0.3298553
6	0x3f0d658d	0.5523308
7	0x3e6fc256	0.23413977
8	0xbda246ba	-0.07923646
9	0x3d2cb31a	0.042162992
10	0x3e574727	0.21023236
11	0x3f11440b	0.5674445
12	0x3d2d90ee	0.042374544
13	0xbc236ab5	-0.009974171
14	0x3ed8374c	0.42229688
15	0x3ea5412d	0.32276288
16	0x3b936e17	0.0044992077
17	0x3e4aaa97	0.19791637
18	0x3e31b3a6	0.17353687
19	0x3e12e73d	0.14346023
20	0x3dd2c704	0.102918655
21	0x3a412578	0.0007367949
22	0xbcce1f35	-0.025161365
23	0x3e0a6ee9	0.13518871
24	0x3e617054	0.22015506
25	0x3e10cff9	0.14141835
26	0x3e98db17	0.29854652
27	0xbd5d4399	-0.054019544
28	0x3e3bc097	0.18335186
29	0x3dd97edd	0.106199004
30	0x3d637dad	0.055539776
31	0xbe19fa2e	-0.15036842
32	0x3e8105d7	0.25199768
33	0x3e77e5f1	0.2420881
34	0x3e1cbf47	0.15307342
35	0x3f1d08ae	0.6134137
36	0x3ea3f644	0.32023823
37	0x3e9f13c5	0.3106977
38	0xbd66b9ba	-0.056329466
39	0x3eb408c0	0.35162926
40	0x3d5f2a81	0.054483894
41	0x3db6292f	0.08894574
42	0x3d015165	0.031571764
43	0x3e3111c7	0.17291938
44	0xbd47aae3	-0.048746955
45	0x3d4874ae	0.0489394
46	0x3edbcd5b	0.4293011
47	0x3e16fe9f	0.14745568
48	0x3e4a721c	0.19770092
49	0x3ecffea1	0.40623954
50	0xbd38d540	-0.045125246
51	0x3d18bfcb	0.037292283
52	0x3d9c67df	0.07636999
53	0x3e489408	0.1958772
54	0x3ddc89ac	0.10768446
55	0x3e214b94	0.15751487
56	0x3dda0131	0.106447585
57	0x3ca0a39e	0.019609269
58	0x3e2644f0	0.16237235
59	0x3f1f8509	0.6231237
60	0x3d3d42ad	0.046206165
61	0x3c4fb825	0.012678181
62	0x3e2676c1	0.16256239
63	0x3e1de686	0.15419969
64	0x3cc9c222	0.024628703
65	0xbdf84850	-0.121231675
66	0x3d372d0a	0.044720687
67	0x3eacb69f	0.3373308
68	0xbdee7a32	-0.11644401
69	0x3bdf6367	0.0068172696
70	0x3d686223	0.056734215
71	0xbd2c0525	-0.041997094
72	0x3e74d0b1	0.23907734
73	0x3d48cf3a	0.04902575
74	0x3e1a94b1	0.15095784
75	0x3edf88d5	0.43659082
76	0xbded60d2	-0.11590733
77	0x3da765bb	0.081737004
78	0xbe0dc3f0	-0.13844275
79	0x3f02cd0f	0.51094145
80	0x3e2a9c87	0.16661273
81	0x3eb90809	0.36138943
82	0x3e3a5642	0.18196967
83	0x3ea82cdf	0.32846734

fc3.weight f4 [10, 84]
0	0x3de05297	0.10953253
1	0xbdcc2d41	-0.09969569
2	0x3d8a7d8e	0.06762229
3	0x3e32a2d2	0.17444924
4	0x3e4661d6	0.19373259
5	0xbbb9fc85	-0.0056758546
6	0x3db541e4	0.08850458
7	0x3de09e38	0.10967678
8	0xbd8b6851	-0.06807006
9	0xbda62230	-0.081119895
10	0xbe93c595	-0.2886168
11	0x3e67d050	0.22638059
12	0x3d77ffec	0.0605468
13	0xbdddf756	-0.10838191
14	0xbd160e6f	-0.03663486
15	0x3dc0a34e	0.09406148
16	0x3de5c40d	0.11219034
17	0xbc9417ef	-0.018077819
18	0xbd93fe1a	-0.072262004
19	0xbd5dd799	-0.054160688
20	0x3e4a1625	0.1973501
21	0xbca07f7b	-0.019592037
22	0x3db0e919	0.0863821
23	0x3e348664	0.17629391
24	0x3d4a1f95	0.049346525
25	0xbe293b81	-0.16526605
26	0x3e434870	0.19070601
27	0x3d658346	0.056033395
28	0x3cb08c4d	0.021551276
29	0x3e902ad5	0.28157678
30	0x3dec7fdf	0.11547827
31	0x3cc60837	0.024173839
32	0x3e77ecb4	0.24211389
33	0x3e8e3cf0	0.27780867
34	0x3e2db1a7	0.169623
35	0xbec425b9	-0.3831003
36	0xbe104af0	-0.14091086
37	0x3de26e9a	0.11056252
38	0xbc570d9a	-0.013125801
39	0x3d04b9a0	0.03240359
40	0x3e498715	0.19680436
41	0x3d156fb8	0.036483496
42	0x3d8800cf	0.06640779
43	0x3df43469	0.11924059
44	0xbe1880f0	-0.14892936
45	0x3dea4f0c	0.11440858
46	0xbef760fb	-0.48316178
47	0xbd457427	-0.048206475
48	0x3daacff8	0.08340448
49	0xbe6de91f	-0.2323346
50	0x3e4cb158	0.19989526
51	0x3e8fe60c	0.281052
52	0xbd974775	-0.07386676
53	0x3dcf9302	0.101354614
54	0xbe2299b5	-0.15878947
55	0x3bbf6e60	0.005842015
56	0x3e4a245d	0.19740434
57	0xbde4243d	-0.111397244
58	0x3e4fb4d7	0.20283829
59	0xbe628628	-0.22121489
60	0xbe210a07	-0.15726481
61	0xbd396081	-0.04525805
62	0x3d98c3d8	0.07459229
63	0xbda764ce	-0.08173524
64	0x3dde0335	0.108404554
65	0xbe1653e1	-0.14680435
66	0xbd7724c2	-0.06033779
67	0xbeedbdf2	-0.4643398
68	0xbde4b9ea	-0.11168273
69	0xbd3a65dd	-0.0455073
70	0x3e160c95	0.14653237
71	0xbcdd232c	-0.02699431
72	0x3c83390a	0.01601841
73	0x3cd5521b	0.026040128
74	0x3dc9cdbf	0.09853696
75	0xbb0e7f33	-0.0021743297
76	0x3e2bb168	0.16766894
77	0xbe9d9d69	-0.30784157
78	0xbdcdfdab	-0.10058149
79	0x3e203b04	0.15647513
80	0xbdc7b9f7	-0.09752267
81	0x3cb5068d	0.02209785
82	0xbcfa52ac	-0.030557
83	0xbc9e2c2e	-0.019308176
84	0x3dbd2faa	0.09237607
85	0xbe4d223d	-0.20032592
86	0xbc44c32a	-0.012009421
87	0x3e7d8f75	0.24761756
88	0x3e0b7cb4	0.13621789
89	0xbbc8398f	-0.006110377
90	0xbf08bc04	-0.5341189
91	0xbe057f7d	-0.13036914
92	0x3e26d0a7	0.16290532
93	0xbe488a20	-0.1958394
94	0x3e122b91	0.14274432
95	0xbe1e40c4	-0.15454394
96	0x3d84af73	0.06478777
97	0xbe31ddf9	-0.17369832
98	0xbda1a113	-0.078920506
99	0xbe9418a3	-0.28925046
100	0xbe00fc15	-0.12596162
101	0x3e818c07	0.25302145
102	0xbe17faf0	-0.14841819
103	0xbd945e48	-0.07244545
104	0xbdca63f1	-0.098823436
105	0x3e6b47ee	0.22976658
106	0x3eb54c68	0.35409856
107	0x3e3ef3df	0.18647717
108	0x3db03826	0.086044595
109	0xbe27d724	-0.16390663
110	0xbdc5884c	-0.09645137
111	0x3cf500b0	0.029907554
112	0x3e4c24d6	0.19935927
113	0x3dd4e42a	0.10395081
114	0x3eb6e3bf	0.3572063
115	0x3e79f2c9	0.24409021
116	0xbe326840	-0.1742258
117	0x3e131dbf	0.14366816
118	0x3df4e8d6	0.119584724
119	0xbe95a989	-0.29230908
120	0xbe4ba2f6	-0.19886383
121	0xbd064dd1	-0.032789055
122	0x3e820497	0.25394127
123	0xbea84ef3	-0.32872733
124	0xbe3b6da7	-0.18303548
125	0x3b758bf0	0.0037467442
126	0x3e88b444	0.26700032
127	0xbe80f525	-0.2518703
128	0xbc42a896	-0.011881014
129	0x3e37006d	0.17871256
130	0xbd3aa99a	-0.0455719
131	0x3d814311	0.0631162
132	0x3dfb25aa	0.12263043
133	0xbe26b6f1	-0.16280724
134	0xbd76ba28	-0.060236126
135	0xbe438d36	-0.19096836
136	0x3e5e3d38	0.2170304
137	0x3e36cf6f	0.17852567
138	0xbdb82fb3	-0.08993473
139	0x3e3e24a3	0.18568663
140	0xbe3be446	-0.18348798
141	0x3d2cd3b7	0.042194095
142	0xbe005057	-0.12530647
143	0xbe7fc726	-0.24978313
144	0x3db34e16	0.08755128
145	0x3de78d46	0.11306243
146	0x3e15d429	0.14631714
147	0x3df13af7	0.11778825
148	0x3e144513	0.14479475
149	0x3de9d9a9	0.114184685
150	0x3dd24d6f	0.102686755
151	0xbd2f4104	-0.042786613
152	0x3d466ea8	0.048445374
153	0x3d68a6cf	0.056799706
154	0x3d9def31	0.07711638
155	0xbc1fbb55	-0.009749253
156	0x3dbc21ab	0.09186109
157	0x3dcbc78b	0.09950169
158	0x3cfa9627	0.030589176
159	0xbe720f64	-0.23638684
160	0x3e36b4de	0.17842433
161	0x3e901794	0.2814299
162	0x3e4bc63a	0.19899836
163	0xbecb5c42	-0.39718825
164	0xbde54c42	-0.11196186
165	0x3e4ceb61	0.20011665
166	0xbc40db9c	-0.011771109
167	0x3db7aa16	0.08967988
168	0xbd92fee8	-0.07177526
169	0x3eaa9841	0.33319286
170	0xbe4471d2	-0.19184044
171	0x3b3382b1	0.002739113
172	0x3d73b58d	0.059499312
173	0xbde2f425	-0.11081723
174	0xbceffa18	-0.029294059
175	0x3dea7ce2	0.11449601
176	0x3d7f42f3	0.062319707
177	0x3e594f1e	0.21221587
178	0xbd982b9f	-0.07430195
179	0x3e04405d	0.12915178
180	0x3d58bce7	0.052914526
181	0x3e18f5f0	0.14937568
182	0xbe65b880	-0.22433662
183	0xbbb6e35a	-0.0055813016
184	0x3deb9d13	0.11504569
185	0xbe312005	-0.1729737
186	0x3d3dced2	0.046339817
187	0xbddfb4c3	-0.109231494
188	0x3e16eda1	0.14739086
189	0x3c828d8b	0.015936634
190	0xbd6b7e81	-0.05749369
191	0xbdf81e9e	-0.12115215
192	0xbe5fdc30	-0.21861339
193	0x3e82e236	0.2556321
194	0xbe156c3e	-0.14592072
195	0x3d05b2e5	0.03264131
196	0xbc0ca5ff	-0.008584498
197	0xbdd8a689	-0.10578639
198	0x3df7c23c	0.12097594
199	0x3e3ec3d9	0.18629397
200	0x3c69b501	0.014264346
201	0xba2862cd	-0.0006423414
202	0x3d1beeca	0.038069524
203	0x3ddbfe94	0.10741916
204	0xbdd69699	-0.10477943
205	0xbe35477b	-0.17703049
206	0xbda316f0	-0.07963359
207	0x3df51d93	0.119685315
208	0x3e41f550	0.18941236
209	0x3cd6d43d	0.02622425
210	0xbe2e6534	-0.17030793
211	0xbdb19782	-0.08671476
212	0xbce9241f	-0.028459607
213	0xbcd18d00	-0.02557993
214	0x3deb4469	0.114876576
215	0x3d9fc0c6	0.078004405
216	0xbd212245	-0.039339323
217	0x3d91511b	0.07095548
218	0x3d8fc175	0.07019321
219	0xbc00c196	-0.0078586545
220	0xbdae7db0	-0.08520067
221	0xbdedd9b8	-0.11613792
222	0x3dd50d3d	0.104029156
223	0xbd9bd3a6	-0.07608728
224	0x3e51aefd	0.20476909
225	0xbd14eaaf	-0.036356624
226	0x3e579e97	0.21056591
227	0x3bd74326	0.006569284
228	0xbd93340f	-0.07187664
229	0xbd965fc2	-0.07342483
230	0xbc1bb361	-0.0095032165
231	0x3e47d9b8	0.19516647
232	0xbd0645fe	-0.032781594
233	0x3d91a12d	0.0711082
234	0x3ccf19e2	0.025280897
235	0x3b9c34f4	0.0047670547
236	0x3e763884	0.24044997
237	0x3c37d059	0.011219108
238	0x3e7dd020	0.24786425
239	0x3d04400d	0.032287646
240	0x3c393218	0.011303447
241	0x3e504144	0.20337397
242	0xbceb05e6	-0.028689336
243	0x3ea60059	0.3242214
244	0x3c3196d5	0.010839184
245	0xbe2658a4	-0.16244751
246	0x3c9c5737	0.019084556
247	0x3e30535d	0.172193
248	0x3e5e215e	0.21692416
249	0x3e44a618	0.19203985
250	0x3e616351	0.22010542
251	0xbe0ea609	-0.13930525
252	0xbe794376	-0.2434214
253	0x3e238d03	0.1597176
254	0xbe0f4e4e	-0.13994715
255	0xbe886a07	-0.26643392

fc3.bias f4 [10]
0	0x3dd4101d	0.10354636
1	0xbf696a2b	-0.91177624
2	0xbdd624e6	-0.104562566
3	0x3f0f2371	0.55913454
4	0x3ec062af	0.3757529
5	0x3e49208f	0.19641326
6	0xbe31d8ad	-0.17367812
7	0xbd0b8f03	-0.034071933
8	0xbdef86bb	-0.1169562
9	0xbe04efed	-0.1298215
