models/cifar_cnn_cq_bad.pth (torch, 251774 bytes, 10 tensors)

conv1.weight f4 [6, 3, 5, 5]
000000 01 6c 1b be 96 0f aa bd 98 ba 58 bf 37 f6 01 bf
       -0.15177919 -0.08303754 -0.8465972 -0.5076632
000010 a6 e2 77 3e aa 9b 8c 3e bd f0 5e 3f 6d df 74 3f
       0.24207553 0.27462512 0.8708609 0.9565342
000020 17 b3 e1 bd 7e 01 73 be f3 53 e8 3e 34 89 b2 3d
       -0.11020487 -0.23731038 0.45376548 0.08717576
000030 ff a3 f4 3e 6d d4 43 3f 62 07 3d bf 5b 2a 32 be
       0.4778137 0.7649601 -0.7383939 -0.1739897
000040 bb 1f a3 3e 6b 6a a7 3d ba 0b b3 3e 82 07 1a bf
       0.31860146 0.081745945 0.34969884 -0.60167706
000050 14 b2 eb 3e 38 2a f8 3d 71 1e a7 be 26 3c 21 3f
       0.460343 0.121174276 -0.32640412 0.62982404
000060 d9 97 54 3e 8b e3 07 3f 93 07 12 bd c6 44 4f bf
       0.2076105 0.5308158 -0.035651755 -0.80964315
000070 5e 43 fa be c3 30 56 3e ee 6a 03 bd f8 ea 35 bd
       -0.48879522 0.20917039 -0.032084398 -0.044413537
000080 3c c6 95 3e fd c9 2e bf c0 9f 87 bf be b5 a6 be
       0.29252803 -0.6827696 -1.0595627 -0.32560533
000090 06 0d a8 be 0b 3b dc 3e ee da 79 3f 55 8f c6 be
       -0.32822436 0.43013796 0.97599685 -0.3878123
0000a0 7e bd 17 bf e4 f9 36 be d5 e0 1e 3c aa f9 32 3f
       -0.5927352 -0.17868763 0.009697159 0.6991221
0000b0 63 16 07 3f 27 8f 7b be 4a 3b 64 be b1 2b 55 bf
       0.52768534 -0.24566327 -0.22288242 -0.8326979
0000c0 2c e0 28 bd 41 b7 82 3e 68 ea 9c bd 0f 21 14 3f
       -0.041229412 0.25530437 -0.07661897 0.57862943
0000d0 92 d1 6f 3e cd 2c 30 be 03 4c 6e be 9c 25 b2 be
       0.23419788 -0.1720459 -0.23271184 -0.3479432
0000e0 55 d3 42 3f c6 b7 9d 3f 41 2d dc 3e 3f 79 00 bf
       0.7610372 1.2321708 0.43003276 -0.50185007
0000f0 24 f5 1a bf 78 f5 21 bf 51 64 99 3e 7b 32 c1 3f
       -0.60530305 -0.6326518 0.29959348 1.509353
000100 bf 9f f0 3e 37 1d bf be 93 39 0a 3e d5 f1 1c be
       0.46996877 -0.37326977 0.13498525 -0.15326627
000110 e4 23 fc 3e 81 89 9d 3f 54 de e9 bb 31 60 92 3e
       0.49246132 1.2307588 -0.0071370993 0.28589013
000120 c0 bb 25 be ff 15 95 bb b4 db 84 3e 06 8b ef 3d
       -0.16184902 -0.0045497413 0.2594887 0.116964385
000130 aa 08 2c 3e 58 76 ad be 75 bb d2 be 05 09 b3 bc
       0.1680018 -0.33879352 -0.41158643 -0.021854887
000140 0d bf 44 be ee 09 cb 3e f7 14 a5 3e b0 13 e2 be
       -0.19213505 0.39656013 0.32242557 -0.44155645
000150 14 86 e0 be 9a 2c 88 be f3 c9 f7 3e 79 ed c4 3e
       -0.43852293 -0.26596528 0.48396263 0.38462427
000160 fb 0d bc be d1 0d c9 bd 70 bd 47 3f 5e 9f 04 c0
       -0.36729416 -0.098170884 0.78023434 -2.072227
000170 9d 9e 63 3e ce 4c ea 3f e8 a3 16 bf 44 24 80 3f
       0.22228475 1.8304689 -0.5884385 1.0011067
000180 f8 af 12 c0 f9 e9 f0 3e 89 4c 7a 3f 7b de 20 bf
       -2.2919903 0.47053507 0.97773033 -0.6283948
000190 ec ce fa 3e 4a 96 a1 bc 3b 7d 1b be 8d 25 db 3e
       0.48985994 -0.019724984 -0.1518449 0.42802086
0001a0 b1 02 d0 3e e0 42 a5 be 9c 71 01 bf d9 e3 10 3e
       0.40627053 -0.32277584 -0.5056398 0.14149417
0001b0 96 29 c3 3e be 97 38 3f f7 53 74 be 1e 33 5c bf
       0.38117665 0.7210654 -0.23860155 -0.860155
0001c0 10 ab bb 3e 8b ed 00 be 8f 21 4c 3f 64 88 b6 3f
       0.36653948 -0.12590615 0.79738706 1.4260373
0001d0 0a 44 22 c0 cc 33 e0 bd 08 f8 c7 3f 78 29 15 3f
       -2.5354028 -0.109473795 1.5622568 0.582664
0001e0 80 e9 6a 3f f7 fe 22 c0 07 aa e5 3e 45 63 87 3f
       0.9176254 -2.5468118 0.44856283 1.057717
0001f0 8a 97 84 3e 97 f3 8e be e8 b2 c6 be cc 94 16 3f
       0.25896865 -0.2792022 -0.3880837 0.58820796
000200 ea 75 18 be e0 38 4f bf f6 df 21 3e bf 24 dc bd
       -0.1488873 -0.8094616 0.1580809 -0.10749196
000210 fb 22 af 3e 8a 83 d2 be 30 71 19 be c3 a7 b4 be
       0.34206375 -0.4111598 -0.14984584 -0.35284242
000220 fb 10 b9 3d 18 28 66 3f 6c ac a1 bf 92 1d d1 3e
       0.09036442 0.8990493 -1.2630744 0.40842873
000230 4f dd 3d bc 58 ec 16 c0 62 2e 51 3e 1b 13 85 3f
       -0.011588409 -2.3581753 0.2042785 1.0396456
000240 84 62 8a 3e f0 83 72 3f 12 08 e2 bf e4 15 23 3f
       0.27028286 0.9473257 -1.7658713 0.6370528
000250 f9 55 bb 3f 52 a5 8b be ca fe b4 3e 9e 58 ca bd
       1.4635612 -0.27274567 0.3535064 -0.09880184
000260 ba 10 0d 3f 91 7d 46 be 50 6e 10 3e a3 29 20 bf
       0.5510365 -0.19383837 0.14104581 -0.6256353
000270 29 00 17 3f f8 69 15 3e d1 fb 43 bf 9e e0 68 3e
       0.5898462 0.14591205 -0.76556116 0.22741935
000280 0f b9 48 bf 38 30 4e c0 62 cd 44 c0 e0 32 82 bf
       -0.78407377 -3.221693 -3.0750356 -1.0171776
000290 84 90 07 be 98 eb 4c 3f b0 58 04 3f da a3 d5 3f
       -0.13238722 0.8004699 0.51697826 1.6690629
0002a0 21 14 bd 3f 0b 22 9c 3e f1 2f cd 3d d9 09 6d 3f
       1.4771768 0.30494723 0.1001891 0.9259315
0002b0 5d 4b d3 3e 22 33 8f be 2e 62 6e 3e e5 0a 89 ba
       0.41268435 -0.279687 0.2327964 -0.0010455517
0002c0 47 a8 e0 3e 51 b3 98 3f 34 ce 16 3f 66 e5 94 3b
       0.43878385 1.1929723 0.5890839 0.004543948
0002d0 74 83 90 be 96 b5 95 3f fd 51 0f 3f f5 33 f2 be
       -0.2822529 1.1696041 0.5598448 -0.47305265
0002e0 30 72 e8 be cf ec 82 be 89 15 f1 bf d6 54 24 c0
       -0.45399618 -0.25571296 -1.8834697 -2.567678
0002f0 ef 51 c7 be ac 1d ba be 5a 76 1d 3d 1b 9b 34 3f
       -0.38929698 -0.36350763 0.038442947 0.7054917
000300 06 5f 06 40 23 b0 02 40 8a 18 c5 be 07 68 85 bf
       2.0995498 2.0420005 -0.38495284 -1.0422372
000310 6c 8a 16 3f dd 19 01 3f 7b 60 fc be d7 34 55 bf
       0.58804965 0.5043009 -0.4929236 -0.8328375
000320 05 ec 5d 3d 9f b7 4e bf 53 73 a4 be 1d 89 e5 bd
       0.054180164 -0.80748934 -0.32119235 -0.11207793
000330 c3 bd 2b be ca 3a e1 3e b5 fc 06 40 ab 52 68 3f
       -0.16771607 0.43990165 2.109174 0.9075114
000340 43 93 de 3d ac 3b 47 3e ad 10 5a bd ba a2 e6 bf
       0.10867932 0.19456357 -0.05323856 -1.801841
000350 44 00 1f c0 63 21 81 bf 49 12 90 3e 02 75 19 3e
       -2.4843912 -1.0088314 0.2813895 0.14986041
000360 1f f1 60 3d 86 15 9c 3f 3c 73 68 3f 2d d8 a1 3e
       0.05491745 1.2194068 0.90800834 0.31610242
000370 01 2b 90 be 42 bc 29 be 6e 8c 54 be b8 3d 27 bf
       -0.2815781 -0.16575721 -0.20756695 -0.6532855
000380 3f 87 06 3f 56 4c 8a 3f 34 10 25 3f 46 78 ce 3e
       0.5255012 1.0804546 0.6447785 0.40326136
000390 de b9 6d 3f 73 e6 fb 3f 90 49 e5 bd db 4e 05 bf
       0.92861736 1.9679703 -0.111956716 -0.5207345
0003a0 40 f8 0b bf c5 4e bb be 91 b9 81 3f d5 29 25 be
       -0.54675674 -0.36583534 1.0134755 -0.16129239
0003b0 f8 4b 84 bf d0 33 62 bf cc 57 19 bf bb 12 fa be
       -1.0335684 -0.8836031 -0.5989959 -0.48842415
0003c0 34 7f 63 bf 1c 6e 7b bf a8 f3 53 bf eb 7c e0 be
       -0.8886597 -0.9821489 -0.82793665 -0.43845305
0003d0 7e 14 8e be 6e 30 fe be 9f 6a 88 bf b4 45 9b bf
       -0.2775001 -0.49646324 -1.0657538 -1.2130647
0003e0 d5 8b a4 be b5 e2 a7 bf 56 bf 90 3f 6d 10 82 bd
       -0.32137933 -1.311606 1.1308391 -0.06350789
0003f0 5d 35 0d 3e 28 77 df be b4 68 e3 be a3 1c 60 3e
       0.13789888 -0.43645597 -0.4441582 0.21885924

conv1.bias f4 [6]
000000 41 96 f7 be 10 3d 2e bf f6 1f a2 bf b1 66 a8 bd
       -0.48356822 -0.68061924 -1.2666004 -0.08222712
000010 88 88 a4 bf 97 6e db bf
       -1.2854166 -1.7143124

conv2.weight f4 [16, 6, 5, 5]
000000 03 38 2b 3f e5 80 c8 be a6 a2 15 bf e6 9a f9 3e
       0.6688234 -0.3916084 -0.58451307 0.4875099
000010 6a 52 59 3d 90 5f d3 3e 0b c5 23 bf 65 d7 2a bf
       0.05305711 0.41283846 -0.6397254 -0.66734916
000020 c3 8f ab 3d 54 d0 3f bd 49 48 89 3d ca 5a 25 bf
       0.0837703 -0.046829537 0.067032404 -0.6459166
000030 72 94 50 3d 8d 3e a0 bd 0f 50 09 3f c4 5c da 3e
       0.05092282 -0.078244306 0.53637785 0.426489
000040 4c b7 1c bf 84 ba 3d be 2c a6 ae 3d 49 fc ef bd
       -0.6121719 -0.18528181 0.085277885 -0.117180414
000050 6d ef e2 3d 2b 8f 26 3d fd 5c 52 bd 0a 9f f1 bd
       0.11080823 0.04066388 -0.05135821 -0.117979124
000060 19 9e 02 3c d5 06 ce be 43 df ed be df 96 36 3f
       0.007972264 -0.40239587 -0.46459398 0.7132396
000070 dd 0b 84 3e 6e b2 0b bf 46 b1 b2 bd c5 11 33 bf
       0.257903 -0.5456914 -0.087252185 -0.6994899
000080 b7 ad 95 3f cc d9 13 bf 0c 1e 30 bf aa 37 e1 be
       1.1693639 -0.57754207 -0.6879585 -0.4398778
000090 43 17 ab be 7c c7 dc 3f ce 2d 63 bf 5a 4a 9a 3d
       -0.33416185 1.7248378 -0.8874177 0.07533713
0000a0 46 84 54 bf ec ac aa bc 71 d9 99 3f fe 4f 00 bf
       -0.83014333 -0.020834409 1.2019483 -0.5012206
0000b0 4e 83 6b bf 68 a1 8b bd 19 72 00 3f 8a af 00 3f
       -0.9199723 -0.06817895 0.501741 0.5026785
0000c0 ba 61 11 3e 9b dd 3d bf 8b 4b a0 bc 7e 44 41 bf
       0.14197436 -0.7416627 -0.019567272 -0.75495136
0000d0 76 1c 91 be 27 dd 53 3e 23 f2 c9 bc 6d bf cd 3c
       -0.28342026 0.20689832 -0.024651593 0.025115693
0000e0 d2 dc c7 bf 1d e1 81 3e d0 e0 0c 3f 6b 5b 27 3f
       -1.5614264 0.2536706 0.55030537 0.6537387
0000f0 4c ca 00 bf b8 25 7d bf 1b 51 89 bf 61 32 c2 3e
       -0.5030868 -0.9888568 -1.0727876 0.3792906
000100 56 66 c3 3e 83 43 db bd f4 50 a8 bf 8f 5c a3 bf
       0.38164014 -0.10706236 -1.3149705 -1.2762622
000110 b6 54 99 bf 08 3b 22 bf 39 31 5b 3e ea 51 90 3d
       -1.1978977 -0.63371325 0.21405496 0.07046874
000120 56 67 5c be 39 56 0a be 7f 1c 34 3f dc cd 41 3d
       -0.21523795 -0.13509454 0.7035598 0.047315463
000130 22 3e c6 be 74 ea 0d bf 10 a7 ba 3e 32 8e dc 3e
       -0.3871928 -0.5543587 0.36455584 0.43077236
000140 d6 0c a9 be 1a 5b fc be 3e 60 ee 3e 8d c6 c0 bd
       -0.33017606 -0.49288255 0.46557802 -0.094128706
000150 97 6c 31 3e 26 47 90 3e cb 3c 2b bf 4d cb ff bd
       0.1732658 0.28179282 -0.6688964 -0.124899484
000160 ff e1 02 3e 0c 5b 06 3f e4 b5 39 3e 05 09 23 bf
       0.12781523 0.52482677 0.18135792 -0.6368564
000170 8f 20 44 be 2e 31 01 be 6b 07 05 3f 78 b5 c7 bd
       -0.19153045 -0.12616417 0.51964444 -0.09751409
000180 8d b9 5c bf 5b 3a 5f 3d 67 04 4d be 64 5b 57 3e
       -0.8622063 0.05449901 -0.2002121 0.21030957
000190 c7 01 6c 3e 91 e5 b4 3b 55 a9 3d 3d 6e 00 07 bf
       0.23047553 0.0055205305 0.046304066 -0.5273503
0001a0 d6 47 37 be 16 b8 15 bf b0 07 c6 3e 27 2e ca 3e
       -0.17898497 -0.5848402 0.3867774 0.39488336
0001b0 28 57 9b bc 17 ea 83 3b 1f a8 db 3d c5 d3 1e 3f
       -0.018962458 0.0040257084 0.10725426 0.62041885
0001c0 1d 1d 9d be ab 09 a2 be de e9 17 bf 22 3b 77 3e
       -0.30686274 -0.31648 -0.5934123 0.24143651
0001d0 51 96 ee 3d e0 12 07 bf 1a 51 00 3d 8b bf 6a bf
       0.11649764 -0.52763176 0.031327344 -0.9169852
0001e0 17 cc da 3d 07 d2 d2 3e 2f 0a 0f bf 2b c3 24 3f
       0.10683458 0.41175863 -0.55874914 0.643603
0001f0 42 51 e5 be 4a 2a 51 be 84 2e 82 3e 86 5a d9 bd
       -0.44788557 -0.20426288 0.25426114 -0.10612969
000200 b6 d5 d1 3d 87 f5 c2 be 72 a7 1c 3f ba 61 4b 3e
       0.1024584 -0.38077947 0.61193 0.19861498
000210 8e 76 32 bf b0 dc 25 3f 39 51 9e 3e e9 49 ae 3e
       -0.6971215 0.6478987 0.30921343 0.34040764
000220 64 5c 9c be 14 5f 06 bf 59 b8 2f 3e 05 bc 1e 3d
       -0.30539238 -0.5248883 0.17160167 0.03875353
000230 6a f8 27 be 9c d5 99 3b 47 12 a3 bf 5f b1 3a bc
       -0.16403356 0.0046946537 -1.2739953 -0.011394828
000240 02 d0 73 bf 0d 54 a9 3e b2 97 06 be 47 c4 0b bf
       -0.9523927 0.33071938 -0.13143805 -0.5459637
000250 88 d5 fd 3e 1b 85 16 3f f0 95 83 be 87 6b cd be
       0.49576974 0.5879685 -0.2570033 -0.401211
000260 7d bd 60 be df 09 92 3d 75 e7 cd bd 15 fa 05 bf
       -0.21947284 0.07130789 -0.100539126 -0.5233472
000270 ea 60 34 3e da 21 a3 3e 0c a8 db bd 21 0c 21 be
       0.17615095 0.31861764 -0.10725412 -0.15727283
000280 7b 7f 28 bd 7f 7d ec 3d 1a 05 df be 30 88 aa bf
       -0.0411372 0.11547374 -0.4355858 -1.3322811
000290 b4 a8 8d be f0 e0 77 3e e0 23 6b bd 70 be cb bf
       -0.27667773 0.242069 -0.05740726 -1.5917492
0002a0 5f 72 da be 50 60 f8 be a2 6a f5 3e 0b 58 b8 be
       -0.42665383 -0.4851098 0.47932917 -0.3600467
0002b0 6c 91 73 bf 5e 5a 0f bf fc 0d ff 3e 5a cd 61 be
       -0.9514377 -0.55997264 0.49815357 -0.22050992
0002c0 38 0b ae be 5d 8b 82 3e df 84 94 3e 76 75 f7 be
       -0.33992934 0.2549695 0.29007623 -0.48331803
0002d0 5f a7 38 bf 3d cd de 3e 87 4c 80 3e a2 2d 43 bf
       -0.7213039 0.4351596 0.25058386 -0.76241505
0002e0 76 dd 37 bf 3b 07 9f bc 84 44 73 3e 01 70 8f bf
       -0.718223 -0.019412627 0.23756605 -1.1206056
0002f0 ef 18 88 bf 45 09 86 3f a5 d0 00 bf 63 40 cb bf
       -1.0632609 1.0471579 -0.50318366 -1.5879024
000300 77 e7 a8 bf fc 16 b0 3d 69 a1 c1 3e 0a 43 39 bf
       -1.3195637 0.08598134 0.3781846 -0.7236792
000310 79 cf 89 3e 22 54 1a 3f eb 29 9e 3f 69 58 48 3f
       0.26916102 0.60284626 1.2356542 0.78259903
000320 6a d1 2b bc cf ce 3b bd 9e f1 75 be c2 16 38 3e
       -0.01048694 -0.045851525 -0.24017951 0.17977431
000330 cd 83 eb 3d 19 b8 02 bf b6 f8 96 3e 3b f8 4e 3e
       0.114997484 -0.5106216 0.29486626 0.2021188
000340 8d e6 81 3e 1b 10 da be 0f d3 d1 bd 19 7a 77 3e
       0.2537121 -0.42590412 -0.10245334 0.2416767
000350 de cf 78 be b3 13 29 bf 5a 8f 83 3e 0a 5a 58 bf
       -0.24298045 -0.66045684 0.25695306 -0.8451239
000360 cc 8f 75 bf 62 29 55 bf 5b fc 26 3f fc 74 56 3f
       -0.9592254 -0.8326627 0.65228814 0.83772254
000370 55 6e 99 bc b9 d4 61 be 1e 71 67 3f 2f 35 52 bd
       -0.018729368 -0.22053804 0.9040698 -0.05132025
000380 94 73 dd bd 92 6e 50 3f 88 eb a4 3e d9 78 cd bc
       -0.108130604 0.81418717 0.32210946 -0.025082039
000390 03 14 4d 3d 33 92 3b bf d9 b6 c5 3c 91 18 d9 3e
       0.050067913 -0.7326996 0.02413504 0.42401555
0003a0 be 8a 24 3f a2 e7 f8 3d 69 40 c9 bf 94 8a 99 3f
       0.64274204 0.121535555 -1.5722781 1.1995416
0003b0 96 01 77 3f c2 e4 ea 3d 1b df 98 bf e6 f6 02 bf
       0.96486795 0.11469413 -1.1943086 -0.5115799
0003c0 54 12 15 3f 4f ce 38 be 89 ec 86 bf f8 42 ae be
       0.5823109 -0.1804745 -1.0540935 -0.34035468
0003d0 b2 d5 a7 3e c2 85 b8 3e e2 dc 08 3f fb 69 a6 bd
       0.32780224 0.3603955 0.5346204 -0.08125683
0003e0 e1 f0 03 be 89 6e 56 bf b1 dc 91 be 40 52 ea be
       -0.12884857 -0.83762413 -0.28488687 -0.45765877
0003f0 f1 6c bb be e7 bb 04 be 61 1e 3b 3e a2 70 57 be
       -0.36606553 -0.12962304 0.18273307 -0.2103906

conv2.bias f4 [16]
000000 c7 ee 5a bf 23 2b 21 bf 69 e4 85 bd b9 72 c2 be
       -0.85520595 -0.62956446 -0.065377064 -0.3797815
000010 8f eb 79 c0 f1 a5 ac bf 69 2a b0 bf b3 f5 7a c0
       -3.9050024 -1.3488141 -1.3762943 -3.9212463
000020 aa 33 d8 3e 44 1f e1 40 7c 4d 7d bf 7c a6 70 40
       0.42226917 7.0350666 -0.98946357 3.7601614
000030 55 19 59 bf 77 79 46 3f 99 f3 a3 bf b2 a4 66 c0
       -0.8480428 0.7752909 -1.2808715 -3.6038022

fc1.weight f4 [120, 400]
000000 89 eb cc 3e e8 ba 00 3f e6 e0 a7 be 09 21 8f 3e
       0.4002345 0.50285196 -0.3278877 0.2795489
000010 1e 36 7c 3e 95 2b 24 3e 1e 29 04 bf e1 82 c4 be
       0.24630019 0.1603225 -0.5162524 -0.38381103
000020 74 4b 6d 3e d1 92 b4 3e 23 20 53 3e 6c 7f d8 3e
       0.23173314 0.35268262 0.20617728 0.42284715
000030 9a 26 09 bf fa 73 e9 3a 9e 04 31 3f 30 9c 13 be
       -0.53574526 0.0017811053 0.6914767 -0.1441505
000040 9d d8 97 bb f3 7b 98 bf 47 8b 78 bd 67 7a 02 3d
       -0.0046339766 -1.1912826 -0.0606797 0.031855013
000050 08 98 f3 3d 21 93 13 be 2b 5b 0d 3c 57 d2 21 be
       0.11894232 -0.14411594 0.008627693 -0.15802895
000060 26 58 0c bd 1d e0 78 be c9 70 eb 3e 86 58 85 be
       -0.034263752 -0.24304242 0.45984486 -0.260441
000070 e4 fd 8f 3d bf ba 84 bc c6 84 70 be 3d 3a 5a 3e
       0.07030848 -0.016202329 -0.23488149 0.21311279
000080 58 7c f1 bd a8 34 33 bf 88 73 f2 be e2 95 00 3f
       -0.11791295 -0.7000222 -0.47353768 0.50228703
000090 86 03 d6 bd ef d9 da 3e c2 b2 8d 3e f4 06 8e be
       -0.10449891 0.42744395 0.27675444 -0.2773968
0000a0 2f 39 fc be 2e 52 47 3e 5b da cd 3e 89 b5 20 3e
       -0.49262378 0.19464943 0.40205655 0.1569425
0000b0 9b 65 03 3e 33 c1 b9 3e a0 97 0f 3c 1a f7 95 3e
       0.12831728 0.36280212 0.008764178 0.29290086
0000c0 5f ee 68 3e e5 6a fc be b9 a7 4e be 16 1c cc 3d
       0.22747181 -0.49300304 -0.20181169 0.099662945
0000d0 d6 23 1f 3f 1e 7c b7 be 5e 97 ac 3e b5 db 34 3d
       0.62164056 -0.3583688 0.33709234 0.04415484
0000e0 24 89 de bd 1e 82 59 be ad 38 13 3f b9 ba 9c bd
       -0.10866001 -0.21241042 0.57508355 -0.07652802
0000f0 a1 5d 4e be fe 27 c1 bd 6c 14 78 be b1 6a 42 bf
       -0.20152904 -0.09431456 -0.2422654 -0.7594405
000100 1c 7e 0e be 6b 99 9f 3d a1 7a b8 3e 7c 0a 1d 3f
       -0.13915294 0.07792934 0.36031058 0.6134412
000110 d2 e6 7b be 8c e7 9d be e7 5e 1e 3e 80 61 03 bf
       -0.2459977 -0.3084072 0.1546589 -0.5132065
000120 f7 1b 97 be 2a 66 b4 bd 4d bb 02 bf 36 99 c3 be
       -0.29513523 -0.08808549 -0.5106705 -0.38202828
000130 d0 1a 4b bf bd c0 3c bf 68 9a 03 3d 7a 72 0e 3d
       -0.7933779 -0.73731595 0.032129675 0.034777142
000140 bd 40 25 bf 79 de ab be 6e e7 43 3d 3d 73 8e be
       -0.6455191 -0.3356817 0.04782813 -0.27822295
000150 b9 fa 45 be c1 e3 19 3f 1c 17 be be 05 02 c6 3d
       -0.19333924 0.6011315 -0.37127006 0.09668354
000160 e0 23 90 bd f6 b7 2f bf 59 f3 ed be ca 41 b0 3e
       -0.070380926 -0.6864008 -0.46474722 0.34425193
000170 c3 20 b8 be 2f c4 0f 3f 01 33 1a bf d6 c5 74 bf
       -0.35962495 0.5615873 -0.60234076 -0.95614374
000180 19 86 13 3d ef a6 ca 3e 8e f2 a3 3e 7f 86 0b 3f
       0.036016557 0.39580485 0.32020992 0.545021
000190 b4 71 18 bf 7a 97 20 3e 5a b1 b1 3e 88 6f a2 be
       -0.595485 0.15682784 0.3470562 -0.31725717
0001a0 5a 27 b8 3c fb 85 43 3d 7d 29 00 3f 45 8b 02 be
       0.022479702 0.047735196 0.50063306 -0.1274844
0001b0 0d f2 8d 3d f0 ff bd be 70 1a f4 be da 24 85 be
       0.06930933 -0.37109327 -0.4767642 -0.26004678
0001c0 da a5 ea 3d 2c 58 14 be 37 32 69 3d 02 32 08 bf
       0.11457415 -0.1448676 0.056932654 -0.53201306
0001d0 0b 93 7d 3e 08 81 a2 3e ed d2 36 bc e9 be b0 3e
       0.24763124 0.31739068 -0.011158687 0.34520653
0001e0 b8 67 49 be 8d 50 dc 3d 43 a7 a0 3d 91 46 f4 3d
       -0.19668472 0.10757551 0.07844403 0.11927522
0001f0 42 3c 9d 3d 61 08 2c be 7b 1c 33 bd d3 a9 38 bf
       0.07677509 -0.16800071 -0.043728333 -0.7213413
000200 a4 48 9a be 53 45 04 be 42 e4 98 3a 21 22 3e 3e
       -0.30133545 -0.1291707 0.0011664706 0.18567707
000210 8f 75 dd 3e b0 64 61 3e 58 c3 2f be fa 18 4d bc
       0.43253753 0.22011065 -0.17164361 -0.012518162
000220 be 3a 6e bf de 47 10 bf 87 d2 20 3f 2d c1 f3 be
       -0.93058383 -0.5635966 0.6282124 -0.4760832
000230 db 05 de 3c db af 20 bf 55 57 51 3d 53 30 b0 bd
       0.027102401 -0.62768334 0.051108677 -0.08602967
000240 48 3e 32 be 49 e8 73 3e 21 ce ff be 08 2e ad bd
       -0.17406571 0.23819079 -0.4996195 -0.084560454
000250 ef 21 ae be d6 29 42 3e 83 f2 84 bf 72 61 3a 3e
       -0.34010264 0.18961272 -1.0386509 0.18201235
000260 38 33 09 bf 06 9d 47 be 84 bf e4 3d 48 5c f7 bc
       -0.5359378 -0.19493493 0.11169341 -0.03019537
000270 de d0 07 be e8 3e d9 3d 00 2f a3 be bc f2 e8 3d
       -0.1326327 0.106077015 -0.31871796 0.11374423
000280 55 36 19 be c3 79 6a 3d 1d 80 38 3e cf 6d 5b be
       -0.14962132 0.057245027 0.18017621 -0.21428607
000290 da 5c b5 3e 8e 2b 22 bf 75 f3 b3 3d af 10 73 bb
       0.35422403 -0.6334771 0.0878667 -0.0037088802
0002a0 54 73 f0 3c 75 42 0c 3f 54 ed 2a 3d e9 17 45 be
       0.029351868 0.54788905 0.04173024 -0.19247402
0002b0 c9 0e c2 be 68 7a 9f 3e aa 56 cc 3e 24 d5 2f be
       -0.37901905 0.31148076 0.3990987 -0.1717115
0002c0 16 38 91 bd 0d 65 c1 be 40 77 55 bf 94 ea ee 3e
       -0.07090776 -0.37772408 -0.83385086 0.46663344
0002d0 4c f3 0a bf 7e fb 95 3e 36 8d 98 be 98 56 2f bf
       -0.5427749 0.29293436 -0.29795235 -0.68491507
0002e0 81 35 3f be b8 2a 7f 3e 28 aa 77 3e 80 e4 76 3e
       -0.18672754 0.2491864 0.24186003 0.24110603
0002f0 db 09 bb be b4 d5 e5 bd 57 4b 1b 3e 7f 77 d4 be
       -0.36530957 -0.11222401 0.15165459 -0.41497418
000300 3d 56 25 3c 5a f8 de 3e 96 55 af be 42 41 1b bf
       0.010091362 0.43548852 -0.34244984 -0.6064645
000310 54 5a 4f bf 84 33 b8 3b 55 2e 6a be e3 b9 a3 be
       -0.80997205 0.0056213755 -0.22869237 -0.31977758
000320 2c 0f 36 be b0 4a e7 3e 94 60 9a be 37 20 75 3e
       -0.17779225 0.4517417 -0.30151808 0.2393807
000330 3b 00 d4 3d ab 79 a4 3e d9 9a 80 be 73 95 02 3e
       0.103516065 0.32124075 -0.2511814 0.12752323
000340 b5 b7 a7 be 03 dc c9 bc da 30 08 be ce db b2 3e
       -0.32757345 -0.024641043 -0.13299885 0.34933323
000350 de b9 81 bc cb 95 6e bc 83 e6 90 3d 5a 49 43 bf
       -0.015835699 -0.014562081 0.070752166 -0.762838
000360 e3 e8 93 be 2b ae bd 3e fa 79 b3 3d 8c cf 23 be
       -0.28888616 0.37046942 0.087634996 -0.15997142
000370 7c ba c5 3d f7 b0 95 3d e1 27 40 be f2 23 66 be
       0.0965471 0.07309144 -0.18765213 -0.2247465
000380 79 0e 1c 3f 00 7b 07 3f 53 84 9e 3c dc 3d 6a 3d
       0.60959584 0.5292206 0.019350206 0.0571879
000390 28 3a 1c bf 9a 13 5d 3e 88 6c 79 3e ae c2 a3 3e
       -0.6102624 0.21589509 0.24357808 0.31984466
0003a0 3a e2 59 3e 90 ee 30 be ae 2e c2 bd 52 64 2a bd
       0.21277705 -0.17278504 -0.0948156 -0.04159958
0003b0 f0 2f b8 3e 10 47 6f be 77 a7 98 3e bb a5 8b 3e
       0.35974073 -0.23366952 0.29815266 0.2727488
0003c0 7a 7e 44 be de 95 75 be 8f c4 72 3d 2f cf 15 3d
       -0.19188872 -0.23982951 0.059269484 0.03657454
0003d0 8d a1 f4 be 55 29 6b be e8 37 44 be ad 00 4f be
       -0.47779503 -0.22964986 -0.19161952 -0.20215102
0003e0 76 49 9f be e3 dc fe 3e 66 2a cc be 5e fc c5 3d
       -0.31110734 0.49777898 -0.39876097 0.09667276
0003f0 88 02 6e be fa e2 96 be 94 35 d7 3e d4 1e ed 3e
       -0.23243153 -0.29470044 0.42033064 0.46312582

fc1.bias f4 [120]
000000 57 b4 a3 be 8e a9 d9 be 80 e0 8e bc 2c 20 23 3d
       -0.31973526 -0.42512172 -0.017441034 0.039825603
000010 ee a6 e9 bd cb 59 3a 3f 75 26 20 bf 45 37 59 be
       -0.114087924 0.72793263 -0.6255868 -0.2121249
000020 35 9a 6a be 6b 3b 0f bf 56 3f e6 3e 9d f2 4c bf
       -0.22910388 -0.5595004 0.44970196 -0.800577
000030 bc 58 e0 3b 55 43 af 3e 6a 00 13 3d 2a 2f 82 bf
       0.0068465155 0.34231058 0.035889067 -1.0170643
000040 2a 08 2b 3f 40 d4 09 bf 54 5a 1b bf 15 55 38 bf
       0.6680933 -0.5383949 -0.60684705 -0.72004825
000050 3c 3b 94 be 60 cd 3f 3f 79 cd e8 be ca 0e 33 be
       -0.28951442 0.7492275 -0.45469263 -0.1748611
000060 51 f1 98 3e 4b a1 c0 3e 61 36 12 3e 36 c0 97 be
       0.2987161 0.37623057 0.14278556 -0.29638833
000070 89 96 a2 3c 87 d2 ef 3e ff ac b3 be 32 32 52 3f
       0.019847171 0.46840307 -0.35092923 0.8210784
000080 21 f7 e0 3e 9a c0 95 be ee 07 00 3e 36 90 e6 3e
       0.43938544 -0.29248506 0.12503025 0.450319
000090 0f 6e cc bc f1 e9 70 be 21 bd 6c bf b7 4f e5 be
       -0.024954824 -0.23526742 -0.9247609 -0.4478738
0000a0 af 93 bc bd 7e 0b e6 3e 6b 67 df be d6 6c 7b 3e
       -0.09207856 0.44930643 -0.4363359 0.24553236
0000b0 bc ac a3 be c1 ca f4 3d 13 4c e1 3e de 78 a4 be
       -0.31967723 0.11952735 0.44003353 -0.32123464
0000c0 6e b8 14 be 92 6f fd be bc e4 93 be 65 6a 96 3e
       -0.1452348 -0.49499184 -0.28885448 0.29378048
0000d0 d0 3c b6 3e be ec ae bd dc fc 69 3e e3 e9 f8 be
       0.3559327 -0.08541249 0.22850364 -0.4861594
0000e0 79 f5 89 be 89 73 30 bf 06 7b 8b 3c 21 9d 15 3f
       -0.26945093 -0.6892629 0.017026436 0.58442885
0000f0 c2 e9 a8 bf 69 26 6f 3e e3 fd d7 be db 68 47 3f
       -1.3196337 0.23354496 -0.42185888 0.7789437
000100 0e bb 02 bf f0 1d a8 3e 96 45 b3 3e 70 ac 4a bb
       -0.5106667 0.3283534 0.35014027 -0.0030925535
000110 34 ac 81 be 99 e9 44 be 76 d8 68 3f 14 73 31 bf
       -0.25326693 -0.19229735 0.90955293 -0.6931622
000120 e4 fb 43 bf 2d 9d 77 be 70 c7 f1 3e 71 1b 4b 3d
       -0.7655623 -0.24181052 0.4722247 0.049586717
000130 38 35 a1 3e 77 8c b3 be f4 ee 86 bd 31 85 7f be
       0.31485915 -0.35068104 -0.065885454 -0.24953152
000140 c5 a5 97 3e 91 31 f8 3e 95 83 0c bf 5f 27 3e 3f
       0.2961866 0.48475316 -0.5488828 0.74278826
000150 e5 99 dc be ee 2b 37 bd 07 ab 85 be 43 f0 06 be
       -0.43086162 -0.04471963 -0.26107046 -0.1317759
000160 64 34 f4 bd 46 4e 70 bf 53 5b 0b be 39 5d 1e bf
       -0.11924055 -0.93869436 -0.13609056 -0.61860996
000170 c0 a4 0c 3f c4 56 45 bf 87 4d 4d be 89 2c 15 bf
       0.5493889 -0.7708552 -0.20049106 -0.5827108
000180 20 87 6d 3f bc 06 51 be 87 84 67 3d e5 28 8b bc
       0.9278431 -0.20412725 0.056522872 -0.016987273
000190 d0 80 8e 3e 93 57 1c 3e be 75 13 bf 4c 98 14 3f
       0.2783265 0.15267782 -0.57601535 0.58044887
0001a0 c6 b8 17 be 33 0a b4 3e 9b ae 41 be 97 aa 17 3d
       -0.14816579 0.3516403 -0.18914263 0.03702792
0001b0 b6 ce f3 3e 49 4f 12 be ed e8 0e 3e 27 49 51 3f
       0.47618645 -0.14288057 0.13956042 0.81752247
0001c0 81 19 9e 3e de 51 0d 3f 83 9d 38 3f 0c 02 b3 3e
       0.30878833 0.55203044 0.72115344 0.349625
0001d0 6d 88 72 3e 8c ce ab 3d 3f ea 33 3f 99 42 e8 be
       0.23684855 0.08389005 0.70279306 -0.4536331

fc2.weight f4 [84, 120]
000000 c1 00 42 be d5 00 e0 3d dd a9 3b 3e 3c 1a d6 be
       -0.189456 0.10937659 0.18326516 -0.4181689
000010 06 a2 4a 3e b5 37 9a be 55 c7 dc bd 85 92 11 bf
       0.1978837 -0.30120626 -0.10780207 -0.56864196
000020 51 1c 06 bf 44 21 3d be bf 21 c2 be 76 08 f9 bd
       -0.5238696 -0.18469721 -0.3791637 -0.12159817
000030 3d f5 41 3e 2d 12 01 3e dd 93 96 be 9a a6 a2 be
       0.18941207 0.1260459 -0.29409686 -0.31767732
000040 fd 4d f8 be d8 eb a8 3c 75 ad ba bd ac 86 a2 3d
       -0.48497 0.020620272 -0.091151156 0.07935843
000050 80 72 cf bd af cb 02 bf 2d 30 de bd 7c c7 4b 3d
       -0.10129261 -0.51092046 -0.108490326 0.04975079
000060 5a 20 a8 bd 2c 41 96 3e f2 f3 55 be cb 70 cd 3c
       -0.082092956 0.29346597 -0.20893839 0.025078198
000070 30 f6 c5 bc 1d 19 b1 3d 94 3c 30 be 79 94 a4 be
       -0.024165243 0.08647368 -0.17210609 -0.32144526
000080 69 73 17 be aa 43 89 be 0c a8 f4 be 3b 8a 92 be
       -0.14790119 -0.26809436 -0.4778446 -0.28621086
000090 99 cc 82 be e4 02 e2 be 15 e4 63 bd ff f5 0b 3d
       -0.2554672 -0.4414283 -0.055637438 0.034170147
0000a0 48 95 e3 be be 36 e9 bc 01 f6 06 bc a9 3b 9a bc
       -0.4444983 -0.028468486 -0.008237363 -0.018827276
0000b0 f4 f1 ca 3d f3 69 9f be fc 8c 8e bd 3c 85 a5 be
       0.0990943 -0.3113552 -0.069604844 -0.32328212
0000c0 97 79 8d bc aa ea c0 be a7 e9 ab bd 21 ac 8b 3d
       -0.017269893 -0.37679034 -0.08394175 0.0681994
0000d0 3e 1a e1 be 93 f9 f4 bc d9 b2 0d 3e be 63 10 3d
       -0.43965334 -0.029904163 0.13837756 0.03525137
0000e0 04 7b 0d be 2b 30 0a bf 89 ad cd be 76 ee da be
       -0.13816458 -0.5397975 -0.4017146 -0.42760056
0000f0 1e a1 9d be 71 4c 3f bf f4 0e 46 3e a8 b2 f5 bd
       -0.30786985 -0.74726015 0.19341642 -0.119969666
000100 cc 36 09 3f 56 b5 fd 3d 5e 19 9c be 54 03 44 bd
       0.5359924 0.12388103 -0.30488104 -0.047854736
000110 c2 06 5f be 8d 03 e6 be 93 68 dc bc 77 f7 9b be
       -0.21779922 -0.44924584 -0.026905334 -0.30462238
000120 df 34 63 be dd 4e d7 bd 57 8a be bc 70 a5 43 3e
       -0.22188137 -0.10513089 -0.023259325 0.19106078
000130 86 91 c5 be 51 62 0f bc 48 8d 86 be 31 e4 4e bd
       -0.38587588 -0.008751468 -0.26279664 -0.05051059
000140 95 f6 eb 3d 70 e8 c0 be 80 45 aa be da eb 7a 3e
       0.11521641 -0.37677336 -0.3325615 0.24504033
000150 80 8c 11 be ad 38 a0 be 00 6c 17 bd 26 2e 38 be
       -0.14213753 -0.3129324 -0.03696823 -0.17986354
000160 70 3e 0c be 27 5f f6 be b7 4c 8d be c1 ff 12 bf
       -0.13695693 -0.4811947 -0.2759759 -0.574215
000170 09 c3 c5 bd 68 ea a8 3b 50 a1 af 3d be 5f c9 be
       -0.09656341 0.0051548965 0.0857569 -0.39330858
000180 73 3c 5a 3b f1 87 e5 be ad 62 59 bd b8 d1 07 bf
       0.003330019 -0.44830278 -0.05307262 -0.5305438
000190 c2 5b a6 be 78 63 5e 3e ec 92 21 bf bf da 12 3e
       -0.3249188 0.21717632 -0.6311481 0.14341258
0001a0 c8 7b 24 3d 28 4c 20 bf 76 74 fc bd 58 6e df bd
       0.04015711 -0.62616205 -0.12326901 -0.10909718
0001b0 a5 3e 55 be ad c1 01 bd 25 e3 98 3e 05 47 65 bd
       -0.20824678 -0.031678844 0.29860798 -0.055975933
0001c0 5e e9 14 be 52 82 1a be fb ae 20 be 44 f3 f8 be
       -0.14542148 -0.15088776 -0.1569175 -0.48623097
0001d0 49 b2 47 be fb 69 17 bf 03 2c 1e bf 1f e8 1e 3e
       -0.19501604 -0.5914609 -0.61785907 0.15518235
0001e0 7f 23 16 bd c9 4a 97 be 4e 8e 07 bf 21 d0 d6 3c
       -0.036654945 -0.29549244 -0.52951515 0.02622229
0001f0 f7 88 98 bd b6 71 b1 3d ee 76 4c 3e fa 32 d0 bd
       -0.07447999 0.08664267 0.19967243 -0.10165973
000200 f2 8f 17 bf d8 65 14 be e2 59 af bd 25 eb 98 bd
       -0.5920402 -0.14491975 -0.08562066 -0.07466725
000210 8a c8 74 be b1 0f 3e be 4b 6e e7 3c 26 93 5b be
       -0.23904625 -0.18560673 0.028250834 -0.21442851
000220 52 03 fc bd 44 e5 0e 3e 72 90 5d be b6 2c 7b be
       -0.12305321 0.13954645 -0.21637133 -0.24528775
000230 b6 b1 a3 bd 11 de 20 bd 67 68 36 bf 64 c9 69 be
       -0.0799288 -0.03927428 -0.71253055 -0.2283073
000240 35 48 8f be c6 73 82 be 4f a5 a9 bc 68 b6 bd 3d
       -0.27984777 -0.25478953 -0.020708708 0.09263307
000250 14 ce 3b 3e 93 7a 3f 3d d3 b2 00 bf c4 40 00 bf
       0.18340331 0.046747755 -0.50272864 -0.50098825
000260 8b 8d 7a 3e b6 b8 0e 3e e5 7a a8 be 6b ca 09 be
       0.24468057 0.13937649 -0.3290626 -0.13456123
000270 cb fa 2b bd 98 81 2f bf 04 de ac 3d 37 44 27 3e
       -0.04198722 -0.6855712 0.084407836 0.16334616
000280 bb a3 bb be 07 77 2a bf 68 fa 96 3d ef fd e8 be
       -0.36648354 -0.6658787 0.0737198 -0.45506236
000290 82 3b b1 be e9 ef af 3d 3a 9b b6 3d 4a be 21 be
       -0.34615713 0.08590681 0.08916326 -0.15795246
0002a0 52 1d 34 be 02 69 67 3e b5 f9 49 3c 4e fd b1 be
       -0.1758931 0.22598651 0.012327601 -0.3476357
0002b0 eb 76 9b be 67 9a 0d be 3c 7d 12 bf e5 34 06 be
       -0.30364165 -0.13828431 -0.5722234 -0.13106115
0002c0 06 ea ca bd 4b 38 28 3d 74 59 69 be 12 63 84 bd
       -0.09907918 0.04106931 -0.2278803 -0.06464209
0002d0 08 8b ed 3d 36 ac 6e be ae 92 84 be ce 69 04 be
       0.11598784 -0.23307881 -0.25893158 -0.12930986
0002e0 76 85 27 bf be b9 49 be da e5 37 3e 63 ee 91 be
       -0.6543802 -0.19699761 0.17958775 -0.28502187
0002f0 48 90 f9 bd bd 14 44 be 0f d6 77 be 7d c7 2e be
       -0.121857226 -0.19148536 -0.2420275 -0.17068286
000300 c8 86 2c 3e 1a 17 8d be 72 07 be 3d c1 17 03 be
       0.1684829 -0.27556688 0.09278764 -0.1280203
000310 94 74 cc 3e a6 f1 b5 be 9a 22 91 3d 53 a7 14 bf
       0.39932692 -0.35535926 0.07086678 -0.58067816
000320 26 1a 0c bf 02 6f ea 3d 64 91 e9 be f8 78 ec bd
       -0.547274 0.11446954 -0.45618737 -0.115465105
000330 fb df d8 be c5 90 c1 be 2c 04 ce bd 49 fc 47 bc
       -0.42358384 -0.37805763 -0.100593895 -0.012206146
000340 5f ec e7 be 66 70 bd be 3e 52 d0 be ea f2 8a be
       -0.45297524 -0.36999816 -0.40687746 -0.27138454
000350 9b 79 d8 3d c1 3b fb 3d 56 a5 23 3e d2 11 cf 3d
       0.105700694 0.122672565 0.1598104 0.10110821
000360 b0 d1 d0 bd fc a3 75 3e 76 dc 0e bf 4c d9 3c be
       -0.10196245 0.23988336 -0.55805147 -0.18442267
000370 bd d2 9a bd e0 3c 1f 3e 81 ec 3f 3d 23 e4 4b bf
       -0.075597264 0.15550566 0.046856407 -0.79644984
000380 eb 63 5e be dc fc e6 bd 48 b4 41 be 09 66 fd be
       -0.21717803 -0.11278698 -0.18916428 -0.4949191
000390 8d 0e 06 be 4f 86 eb be 98 e9 9c be c0 f2 7e be
       -0.13091488 -0.46000907 -0.30646968 -0.2489729
0003a0 4d db 91 3d 3d 7f 62 bd cc 31 3b 3c e0 69 1a bd
       0.071219064 -0.055297125 0.011425447 -0.037698627
0003b0 0a 41 a5 be f5 62 5a 3e 2a 9e 80 3e 48 b4 ec bd
       -0.32276183 0.21326812 0.2512067 -0.115578234
0003c0 e5 23 4e 3e 20 1e 4d bf 0d 91 17 bf f5 fc 73 bd
       0.2013088 -0.8012409 -0.59205705 -0.05956741
0003d0 c2 68 c0 be 22 a3 11 bc 55 83 40 3d cb e6 ad be
       -0.37579924 -0.008888992 0.047000248 -0.33965144
0003e0 1e 22 ae 3d 8d 16 c6 bd 10 2e 12 bf 4c 88 33 be
       0.08502601 -0.0967227 -0.57101536 -0.17532462
0003f0 f3 f0 51 bf 16 de 20 bd 95 b5 88 bd 22 3f 01 bf
       -0.82008284 -0.039274298 -0.06675259 -0.5048696

fc2.bias f4 [84]
000000 20 bf 38 be f9 4b 8d be c3 08 db 3c ed c8 b5 3e
       -0.18041658 -0.27597025 0.026737576 0.35504857
000010 77 9a 51 bf 2f d9 a6 3d 46 94 aa 3f 22 83 c7 3d
       -0.8187632 0.08146893 1.33265 0.097418085
000020 6e 03 91 be 0a 8a 85 bf e5 f4 60 3f a7 de 14 bf
       -0.2832293 -1.0432751 0.8787368 -0.5815224
000030 5d 5b a8 bf 0c 4f d3 be 85 5a 9f 3f dd 35 4f be
       -1.3152882 -0.41271245 1.2449499 -0.20235391
000040 5c 32 52 bf 05 68 a3 3f d5 9a bc 3f 05 6a 6e bf
       -0.8210809 1.2766119 1.4734751 -0.9313052
000050 81 f6 02 3f c8 26 f2 3e f0 30 12 bf 1f 54 a5 3d
       0.51157385 0.47295213 -0.5710592 0.080726855
000060 7d 04 b6 3e 4d 41 0a bf 93 38 7c 3f 48 75 32 3f
       0.355503 -0.5400589 0.98523825 0.69710207
000070 e8 c2 04 be d7 84 07 3f f3 27 a4 be b9 a4 91 3e
       -0.12964976 0.5293707 -0.3206173 0.28445986
000080 54 58 b5 be 0a 7d 12 bf af d4 1f bf 52 e0 5c bf
       -0.35418952 -0.57222044 -0.62433904 -0.86279786
000090 c9 b7 2c 3e 2f 92 ff be e3 a7 bf 3f 73 6f 9c bf
       0.16866983 -0.49916217 1.497311 -1.2221512
0000a0 9c 6a ea 3d ab 44 fb be ef 6f 55 ba 91 4e 66 be
       0.114461154 -0.49075827 -0.00081419846 -0.22490908
0000b0 b2 b3 bd 3f df cd 62 3f 7c 92 8a 3f 02 ea 0f 40
       1.4820464 0.88595384 1.0825953 2.2486577
0000c0 ac 8d 2d bf d4 c0 df bf c4 19 e6 3f 58 a0 70 bf
       -0.677943 -1.7480721 1.7976613 -0.93994665
0000d0 39 cb f8 be d0 6f 1a 3e 72 3c 0d be 62 e9 3c bf
       -0.48592547 0.15081716 -0.1379259 -0.73793614
0000e0 5b a1 9a be 0d 09 24 be a4 cd a1 be f9 dc 1a 3f
       -0.3020123 -0.16019078 -0.31602204 0.6049343
0000f0 7d cd 08 be 10 72 06 bf 0a c1 83 be 85 e1 0c be
       -0.13359638 -0.52517796 -0.25733215 -0.13757904
000100 dc d6 ba 3e 6c 41 54 bf 29 ea a7 3e 56 72 33 bf
       0.3649205 -0.82912326 0.32795838 -0.7009634
000110 41 e1 90 3e d8 ab ac 3f c4 a0 1c 3f f0 71 b9 be
       0.28296855 1.3489943 0.6118281 -0.3621974
000120 94 ae 61 bf 52 9d 70 be 25 aa 19 bf 47 38 73 bc
       -0.8815701 -0.23497513 -0.60025245 -0.0148449605
000130 fc ac dd be fe e7 6a be 88 2f 2f bf 88 c1 61 3f
       -0.4329604 -0.2294006 -0.684319 0.8818593
000140 fa bb c7 be 4d ba 78 3e 5b 27 49 be 00 f1 46 3e
       -0.39010602 0.24289818 -0.19643919 0.19427872

fc3.weight f4 [10, 84]
000000 aa 14 48 3e 26 94 54 3d 63 2f 1f bd 22 00 41 be
       0.19539133 0.051899098 -0.03886355 -0.18847707
000010 12 3a c4 3d 9b e6 ba 3d bd f1 3b be 68 7f 72 3d
       0.095813885 0.09126016 -0.18353935 0.059203535
000020 a7 a1 47 bc ba b3 14 3e 2d 0e 85 3e 64 ac 50 3e
       -0.012184537 0.14521685 0.25987378 0.20378262
000030 24 83 f6 bd 12 d4 ee bd 49 4f 1f be 31 9c 89 bd
       -0.12036732 -0.11661543 -0.15557589 -0.06719244
000040 80 3d 34 bd 37 e4 b0 bd 5d f0 e0 bd 28 47 79 3e
       -0.044003963 -0.086372785 -0.10983346 0.2434355
000050 74 b3 98 3d 1a 1b c8 bd 0d 80 4b 3e e9 65 d5 3d
       0.07456103 -0.09770794 0.19873066 0.104198284
000060 8f 35 2a be 28 6d 8e 3d ae d6 ec 3d 86 d7 70 bd
       -0.16621993 0.06954414 0.115643844 -0.05879929
000070 bd 82 4c 3e e7 42 09 be 0f 74 e1 bd b1 ce 35 3e
       0.19971748 -0.13404427 -0.110084645 0.17754628
000080 f0 a0 7b bd d5 9f 94 bd 03 a0 27 bd 7b be a4 3b
       -0.06143278 -0.07257048 -0.040924083 0.00502759
000090 f1 d5 2e bd 1b 24 58 bc 2b cf a1 bd 6a 9c 37 3e
       -0.0426845 -0.013192202 -0.07900842 0.17930761
0000a0 a8 75 8d 3c 26 d8 16 3c 63 d6 20 be fa ee 31 3e
       0.017268017 0.009206807 -0.15706782 0.17376319
0000b0 10 ac 84 bd d5 37 c2 3d 2d 38 22 3e 2f bb 1e be
       -0.06478131 0.09483305 0.15841742 -0.15501092
0000c0 89 1c 49 3c b8 7c 9e b9 82 58 68 3d f0 bb ee bc
       0.01227487 -0.0003022903 0.056725033 -0.02914235
0000d0 7a ca 28 bd fd b5 36 be c4 e0 09 bd bd 94 90 bd
       -0.04120872 -0.1784286 -0.03366162 -0.070596196
0000e0 b2 11 f5 bc ae fd a7 bd ed 43 8d 3c b5 1f 46 bd
       -0.029915664 -0.082026824 0.017244304 -0.048370082
0000f0 20 5e cf 3d 09 57 9d bd 26 42 74 3e 69 a0 99 3d
       0.10125375 -0.07682616 0.23853359 0.07501299
000100 96 9c 0b 3d 59 36 a7 bc a6 17 19 be 0e fe 7e 3d
       0.03408488 -0.020411657 -0.14950427 0.062254004
000110 a3 3b ba 3d 3b 9b 8d 3b 67 56 0a 3e 4e 14 d7 ba
       0.09093406 0.0043214834 0.13509522 -0.001640925
000120 1c 80 4a bd e5 f8 94 3e 81 64 14 3d fb 85 c1 3d
       -0.04943858 0.2909614 0.03622866 0.09449383
000130 a6 03 8c 3d c1 70 f5 3c a0 a6 99 3d 8b 1b c7 3b
       0.068366334 0.029960992 0.07502484 0.0060762814
000140 e3 30 37 3e 4b 5d 3b 3c 63 86 9c ba 75 18 ed bd
       0.17889743 0.011435817 -0.0011941906 -0.115769304
000150 c3 63 04 3e 6f ad 5d be 42 e4 49 bd 18 7a 39 be
       0.12928681 -0.21648191 -0.04928995 -0.18112981
000160 79 23 8a 3d da c2 35 3e 5d 62 51 bd 74 fd 50 be
       0.06745047 0.17750111 -0.051119197 -0.20409185
000170 59 38 b4 bd 22 47 18 3d 35 d6 42 bd f3 8c c0 bd
       -0.0879981 0.037177213 -0.047567565 -0.09401884
000180 89 4c 85 3e 46 cf 8a 3e 36 20 1c bd 32 f8 bd bd
       0.26034954 0.27111262 -0.038116656 -0.09275855
000190 76 ae 13 be b8 c7 c1 bd 75 83 8f be 22 b7 79 3c
       -0.1442202 -0.094619215 -0.2802998 0.015241416
0001a0 e9 4c a0 bd 51 08 a3 3d 25 39 1f bd 00 70 91 3c
       -0.078271694 0.079605706 -0.038872857 0.017753601
0001b0 99 1a c9 bd 48 30 26 3e a7 27 de bd 60 88 8f bd
       -0.09819526 0.16229355 -0.10847407 -0.07008433
0001c0 ce 95 e0 bc cd e6 29 be 5a 88 ed 3d 4b 6c ef 3c
       -0.027415182 -0.1659195 0.115982726 0.029226443
0001d0 6b 7e 2e 3b a9 2f de bd 5a 30 d6 bc 14 d8 73 3e
       0.0026625644 -0.10848934 -0.026146103 0.23812896
0001e0 f6 d0 1d 3d ed 10 06 bc 2b 61 ca bd 27 31 0c 3e
       0.03852936 -0.008182746 -0.098818146 0.13690625
0001f0 b4 32 e8 bd 23 45 f2 3c 77 56 7f bc 65 f0 4d be
       -0.11337796 0.029573983 -0.01558458 -0.20111234
000200 60 0b 7c be 87 2c bb 3d 17 57 36 3e c6 c2 77 b9
       -0.24613714 0.09139352 0.1780666 -0.00023628314
000210 6c 82 29 3e f0 03 80 bd 96 c2 43 bd 15 50 22 be
       0.16553658 -0.06250751 -0.047792993 -0.15850861
000220 c9 8d 5a 3e 8c 09 71 3e fa 53 31 bd 77 78 83 3e
       0.21343149 0.23538798 -0.043292977 0.25677845
000230 f0 f7 ae bd d9 f3 31 bd 9a a0 73 bc 62 d5 23 be
       -0.08543384 -0.043445442 -0.014869833 -0.15999368
000240 8d ad 31 ba 94 74 f5 3d 16 85 b2 bd f4 88 8f bd
       -0.0006777875 0.11985126 -0.087167904 -0.070085436
000250 bc 9b 12 3e 52 2b dc 3c 48 55 c8 bd f5 a4 90 3d
       0.1431722 0.026876125 -0.09781891 0.07062713
000260 f7 75 9d 3e 9a 37 27 bd 92 23 61 3e 4e ab e1 3c
       0.30754063 -0.04082451 0.21986225 0.027547505
000270 11 6a 60 3e e4 b8 9f bd f2 41 8f 3d 6f 6f 88 3c
       0.21915461 -0.07798937 0.06995 0.016654698
000280 28 62 83 3d d3 dc 09 3e 64 08 16 be 0c 22 92 be
       0.06415206 0.13463144 -0.14651638 -0.285416
000290 49 10 91 3d da 6c 4e bd cc f9 4e 3b 22 7b 85 bd
       0.07083184 -0.050396778 0.0031581996 -0.06517626
0002a0 34 2b 27 be 17 7e b8 3d 35 54 a0 bd 8f fc f7 3d
       -0.16325074 0.09008425 -0.07828561 0.121087186
0002b0 6a c9 3e 3e 62 d3 be bc 5f 3b db 3d c2 74 8e 3d
       0.18631521 -0.023294155 0.107046835 0.069558635
0002c0 b8 b1 c7 bd bd 69 3d 3d 0a fd b4 3d 68 bc 91 bd
       -0.09750694 0.046243418 0.08837326 -0.07116014
0002d0 1c 55 ed bd 9e da 20 be 3e bd 9a 3d 25 e8 37 3d
       -0.11588499 -0.15708396 0.07555626 0.044899125
0002e0 ea ed b3 3e da 46 c5 3d 4c 2b 76 bd 57 18 78 3c
       0.35142452 0.096326545 -0.060099885 0.015142522
0002f0 58 9d 36 3d 25 9b 2b 3e 9b 30 5a 3d 12 f1 68 3d
       0.04458365 0.16758402 0.05326901 0.056870528
000300 57 8c 38 3c 0a f3 92 bd 24 01 c1 bd c2 de 3c bd
       0.011263928 -0.07175262 -0.09424046 -0.046110876
000310 6b c1 0f 3d 1a 43 37 bd a1 a2 ab bc 18 a2 9a bc
       0.035096567 -0.044741727 -0.020951571 -0.01887612
000320 8b 9f bb bb 4e 7d 85 3c e3 fc a5 bb e0 5b 0e be
       -0.005725806 0.016295101 -0.005065547 -0.13902235
000330 a2 80 dd bd a1 6c 36 bd f0 61 92 bd f4 9e a8 bc
       -0.108155504 -0.04453719 -0.07147586 -0.020583607
000340 37 2b fc 3d 02 90 11 bd 09 2a 40 3e 8e c4 5f bd
       0.1231293 -0.035537727 0.18766035 -0.05463081
000350 65 bb bd 3d aa 03 a3 bd e0 81 c9 bc b0 3b 61 bd
       0.09264258 -0.07959683 -0.024598062 -0.054988563
000360 c5 93 8c 3d 6c c5 17 3e af ad 61 3d 50 25 37 3e
       0.06864122 0.14821404 0.05509728 0.17885327
000370 05 e8 96 bd d0 1a f1 3d 0a 4a f8 3d 3c 2b 93 3d
       -0.07368473 0.11772692 0.12123497 0.07185981
000380 78 bf 5b 3e 04 15 1c bd cf 4f 94 bb c4 83 3d bd
       0.21459758 -0.03810598 -0.0045261155 -0.04626824
000390 04 b0 99 3d 82 ae 92 3e f7 30 00 3d 28 ca 73 3d
       0.075042754 0.28648764 0.031296697 0.059518963
0003a0 ee 71 f6 bd ed ff 03 be 8f 8a 88 3e 95 4e 85 3e
       -0.12033449 -0.12890597 0.26668212 0.26036516
0003b0 d0 16 bc bd 0e a5 26 3d cc dd 38 3c 54 8f 10 3d
       -0.09184039 0.040684752 0.011283349 0.03529294
0003c0 48 d6 22 be 81 22 ce 3b c5 7c 5a bd 27 1d cd 3c
       -0.15902054 0.0062907343 -0.053341646 0.025038315
0003d0 ed 64 9d 3d 31 e5 ed 3c 11 6b 5e 3e bf 0d e7 3d
       0.07685266 0.029039951 0.2172053 0.11281919
0003e0 25 d9 54 3e 98 23 40 3c 10 f5 52 3e 97 14 96 3c
       0.20785959 0.011727236 0.20601296 0.018320365
0003f0 88 d2 51 be 9f ec 60 3e 49 c5 76 bd 44 66 2b 3e
       -0.20490468 0.21965264 -0.06024674 0.1673823

fc3.bias f4 [10]
000000 21 3e fb be 44 2b cc bf 56 9f 46 3e db 0d 9d 3f
       -0.49070838 -1.5950704 0.1939672 1.2269853
000010 94 4c 06 3f c0 7f cd 3e a8 7a ae 3d 1a db 61 be
       0.524606 0.40136528 0.085194886 -0.22056237
000020 4b ed 10 bb d7 0b a6 be
       -0.0022114094 -0.32430908
